name: "HandChallenge3DIntegral"



#-----load validation index from file
#layer {
  #name: "image_index"
  #type: "ReadIndexFromFile"
  #top: "image_index"
  #read_index_from_file_param {
     #batch_size: 1
     #index_file_path: "D:\\handpose\\HANDS17_challenge_dataset\\HANDS17_challenge_dataset\\frame\\test_index.txt"
	 #current_index_file_path: "cur_id_realtest.txt"
	 #num_of_samples: 2000
  #}
  #include {
     #phase: TEST
  #}
#}


#-----Generate sequential index for testing
#layer {
  #name: "image_index"
  #type: "GenSequentialIndex"
  #top: "image_index"
  #gen_sequential_index_param {
     #batch_size: 25
	 #current_index_file_path: "cur_id_realtest.txt"
	 #num_of_samples: 295510
	 #start_index: 1
  #}
  #include {
     #phase: TEST
  #}
#}



#-----Generate random image index for training 0
layer {
  name: "image_index_0"
  type: "DeepHandModelGenRandIndex"
  top: "image_index_0"
  gen_rand_index_param {
     index_lower_bound: 1
	 index_upper_bound: 95703
	 batch_size: 1
     missing_index_file: "D:\\handpose\\HANDS17_challenge_dataset\\HANDS17_challenge_dataset\\missing_index.txt"
  }
  include {
     phase: TRAIN
  }
}

#-----Generate random image index for training 1
layer {
  name: "image_index_1"
  type: "DeepHandModelGenRandIndex"
  top: "image_index_1"
  gen_rand_index_param {
     index_lower_bound: 95704
	 index_upper_bound: 191406
	 batch_size: 1
     missing_index_file: "D:\\handpose\\HANDS17_challenge_dataset\\HANDS17_challenge_dataset\\missing_index.txt"
  }
  include {
     phase: TRAIN
  }
}

#-----Generate random image index for training 2
layer {
  name: "image_index_2"
  type: "DeepHandModelGenRandIndex"
  top: "image_index_2"
  gen_rand_index_param {
     index_lower_bound: 191407
	 index_upper_bound: 287109
	 batch_size: 1
     missing_index_file: "D:\\handpose\\HANDS17_challenge_dataset\\HANDS17_challenge_dataset\\missing_index.txt"
  }
  include {
     phase: TRAIN
  }
}

#-----Generate random image index for training 3
layer {
  name: "image_index_3"
  type: "DeepHandModelGenRandIndex"
  top: "image_index_3"
  gen_rand_index_param {
     index_lower_bound: 287110
	 index_upper_bound: 382812
	 batch_size: 1
     missing_index_file: "D:\\handpose\\HANDS17_challenge_dataset\\HANDS17_challenge_dataset\\missing_index.txt"
  }
  include {
     phase: TRAIN
  }
}

#-----Generate random image index for training 4
layer {
  name: "image_index_4"
  type: "DeepHandModelGenRandIndex"
  top: "image_index_4"
  gen_rand_index_param {
     index_lower_bound: 382813
	 index_upper_bound: 478515
	 batch_size: 1
     missing_index_file: "D:\\handpose\\HANDS17_challenge_dataset\\HANDS17_challenge_dataset\\missing_index.txt"
  }
  include {
     phase: TRAIN
  }
}



#-----Generate random image index for training 5
layer {
  name: "image_index_5"
  type: "DeepHandModelGenRandIndex"
  top: "image_index_5"
  gen_rand_index_param {
     index_lower_bound: 478516
	 index_upper_bound: 574218
	 batch_size: 1
     missing_index_file: "D:\\handpose\\HANDS17_challenge_dataset\\HANDS17_challenge_dataset\\missing_index.txt"
  }
  include {
     phase: TRAIN
  }
}


#-----Generate random image index for training 6
layer {
  name: "image_index"
  type: "DeepHandModelGenRandIndex"
  top: "image_index"
  gen_rand_index_param {
     index_lower_bound: 574219
	 index_upper_bound: 669921
	 batch_size: 1
     missing_index_file: "D:\\handpose\\HANDS17_challenge_dataset\\HANDS17_challenge_dataset\\missing_index.txt"
  }
  include {
     phase: TEST
  }
}

#-----Generate random image index for training 7
layer {
  name: "image_index_7"
  type: "DeepHandModelGenRandIndex"
  top: "image_index_7"
  gen_rand_index_param {
     index_lower_bound: 669922
	 index_upper_bound: 765624
	 batch_size: 1
     missing_index_file: "D:\\handpose\\HANDS17_challenge_dataset\\HANDS17_challenge_dataset\\missing_index.txt"
  }
  include {
     phase: TRAIN
  }
}

#-----Generate random image index for training 8
layer {
  name: "image_index_8"
  type: "DeepHandModelGenRandIndex"
  top: "image_index_8"
  gen_rand_index_param {
     index_lower_bound: 765625
	 index_upper_bound: 861327
	 batch_size: 1
     missing_index_file: "D:\\handpose\\HANDS17_challenge_dataset\\HANDS17_challenge_dataset\\missing_index.txt"
  }
  include {
     phase: TRAIN
  }
}

#-----Generate random image index for training 9
layer {
  name: "image_index_9"
  type: "DeepHandModelGenRandIndex"
  top: "image_index_9"
  gen_rand_index_param {
     index_lower_bound: 861328
	 index_upper_bound: 944064
	 batch_size: 1
     missing_index_file: "D:\\handpose\\HANDS17_challenge_dataset\\HANDS17_challenge_dataset\\missing_index.txt"
  }
  include {
     phase: TRAIN
  }
}

#-----Concat the indexes leave image_index_4 out
layer {
  name: "image_index_concat"
  type: "Concat"
  bottom: "image_index_0"
  bottom: "image_index_1"
  bottom: "image_index_2"
  bottom: "image_index_3"
  bottom: "image_index_4"
  bottom: "image_index_5"
  #bottom: "image_index_6"
  bottom: "image_index_7"
  bottom: "image_index_8"
  bottom: "image_index_9"
  top: "image_index_concat"
  include {
     phase: TRAIN
  }
}

#-----Random choose from one index
layer {
  name: "image_index"
  type: "CrossValidationRandomChooseIndex"
  bottom: "image_index_concat"
  top: "image_index"
  include {
     phase: TRAIN
  }
}




#----- Read bbx width height Train
layer {
  name: "read_bbx_width_height"
  type: "ReadBlobFromFileIndexing"
  bottom: "image_index"
  top: "bbx_width_height"
  read_blob_from_file_indexing_param {
     file_prefix: "D:\\handpose\\HANDS17_challenge_dataset\\HANDS17_challenge_dataset\\training\\wy_Norm_0822\\bbx_1101_meanscale180\\"
	 num_to_read: 4
  }

}



#-----Slice to bbx_x1 bbx_y1 width height
layer {
  name: "slice_bbx_width_height"
  type: "Slice"
  bottom: "bbx_width_height"
  top: "bbx_x1"
  top: "bbx_y1"
  top: "width"
  top: "height"
  slice_param {
     axis: 1
	 slice_point: 1
	 slice_point: 2
	 slice_point: 3
  }  
}

#----- Generate bbx_x2
layer {
  name: "bbx_x2"
  type: "Eltwise"
  bottom: "bbx_x1"
  bottom: "width"
  top: "bbx_x2"
  eltwise_param {
     operation: SUM
  }
}

#----- Generate bbx_y2
layer {
  name: "bbx_y2"
  type: "Eltwise"
  bottom: "bbx_y1"
  bottom: "height"
  top: "bbx_y2"
  eltwise_param {
     operation: SUM
  }
}



#----- Read GT centroid (3 dimensions)
layer {
  name: "gt_centroid"
  type: "ReadBlobFromFileIndexing"
  bottom: "image_index"
  top: "gt_centroid"
  read_blob_from_file_indexing_param {
     file_prefix: "D:\\handpose\\HANDS17_challenge_dataset\\HANDS17_challenge_dataset\\training\\wy_Norm_0822\\gt_centroid_qf_1101_meanscale180\\"
	 num_to_read: 3 
  }  

}




#----- slice GT centroid to get center_x center_y center_z
layer {
  name: "slice_gt_centroid"
  type: "Slice"
  bottom: "gt_centroid"
  top: "gt_center_x"
  top: "gt_center_y"
  top: "gt_center_z"
  slice_param {
     axis: 1
	 slice_point: 1
	 slice_point: 2
  }
}



#----- Read wy's processed depth image No BBX With Centroid z 
layer {
  name: "image"
  type: "DeepHandModelReadDepthNoBBXWithAVGZ"
  bottom: "image_index"
  bottom: "gt_center_z"
  top: "image"
  read_depth_no_bbx_with_avgz_param {
     file_prefix: "D:\\handpose\\HANDS17_challenge_dataset\\HANDS17_challenge_dataset\\training\\wy_Norm_0822\\subbg_v0_xiaotao_hands_train_meanscale180\\image_D"
	 depth_size: 256
  }

}




#----- Get min_x   200*200*200 cube so half is 100
layer {
  name: "min_x"
  type: "AddVectorByConstant"
  bottom: "gt_center_x"
  top: "min_x"
  add_vector_by_constant_param {
     add_value: -100.0
  }
}

#----- Get max_x
layer {
  name: "max_x"
  type: "AddVectorByConstant"
  bottom: "gt_center_x"
  top: "max_x"
  add_vector_by_constant_param {
     add_value: 100.0
  }
}

#----- Get min_y
layer {
  name: "min_y"
  type: "AddVectorByConstant"
  bottom: "gt_center_y"
  top: "min_y"
  add_vector_by_constant_param {
     add_value: -100.0
  }
}

#----- Get max_y
layer {
  name: "max_y"
  type: "AddVectorByConstant"
  bottom: "gt_center_y"
  top: "max_y"
  add_vector_by_constant_param {
     add_value: 100.0
  }
}

#----- Get min_z
layer {
  name: "min_z"
  type: "AddVectorByConstant"
  bottom: "gt_center_z"
  top: "min_z"
  add_vector_by_constant_param {
     add_value: -100.0
  }
}

#----- Get max_z
layer {
  name: "max_z"
  type: "AddVectorByConstant"
  bottom: "gt_center_z"
  top: "max_z"
  add_vector_by_constant_param {
     add_value: 100.0
  }
}

#------Get the gt 3d in local XYZ world coordinate
layer {
  name: "gt_joint_3d_read"
  type: "ReadBlobFromFileIndexing"
  bottom: "image_index"
  top: "gt_joint_3d_read"
  read_blob_from_file_indexing_param {
    file_prefix: "D:\\handpose\\HANDS17_challenge_dataset\\HANDS17_challenge_dataset\\training\\wy_Norm_0822\\gt_joint_3d_local_1101_meanscale180\\"
	num_to_read: 63
  }
  
}

#------Narrow it down to 200*200*200 cube
layer {
  name: "gt_joint_3d"
  bottom: "gt_joint_3d_read"
  top: "gt_joint_3d"
  type: "ScaleVector"
  scale_vector_param {
     scale_factor: 2.0
  }
  
}





#------Get the origin gt 3d
layer {
  name: "gt_joint_3d_raw"
  type: "DeepHandModelCubiodIntoGlobalV2"
  bottom: "gt_joint_3d"
  bottom: "min_x"
  bottom: "max_x"
  bottom: "min_y"
  bottom: "max_y"
  bottom: "min_z"
  bottom: "max_z"
  top: "gt_joint_3d_raw"
  
}

#------Get the origin gt 2d in UVD image coordinate
layer {
  name: "gt_joint_2d_raw"
  type: "DeepHandModelPinholeCameraOrigin"
  bottom: "gt_joint_3d_raw"
  top: "gt_joint_2d_raw"
  pinhole_camera_origin_param {
     focusx: 475.065948
     focusy: 475.065857
     u0offset: 315.944855
     v0offset: 245.287079
  }
  
}

#------Get the local projection(render) coordinate([0, 1])
layer {
  name: "gt_joint_2d"
  type: "DeepHandModelProjectionGlobal2Local"
  bottom: "gt_joint_2d_raw"
  bottom: "bbx_x1"
  bottom: "bbx_y1"
  bottom: "bbx_x2"
  bottom: "bbx_y2"
  top: "gt_joint_2d"
  
}




#slice normalized gt joint 3d 
layer {
  name: "slice_gt_joint_3d"
  type: "Slice"
  bottom: "gt_joint_3d"
  slice_param {
     axis: 1
	 slice_point: 2
	 slice_point: 3
	 slice_point: 5
	 slice_point: 6
	 slice_point: 8
	 slice_point: 9
	 slice_point: 11
	 slice_point: 12
	 slice_point: 14
	 slice_point: 15
	 slice_point: 17
	 slice_point: 18
	 slice_point: 20
	 slice_point: 21
	 slice_point: 23
	 slice_point: 24
	 slice_point: 26
	 slice_point: 27
	 slice_point: 29
	 slice_point: 30
	 slice_point: 32
	 slice_point: 33
	 slice_point: 35
	 slice_point: 36
	 slice_point: 38
	 slice_point: 39
	 slice_point: 41
	 slice_point: 42
	 slice_point: 44
	 slice_point: 45
	 slice_point: 47
	 slice_point: 48
	 slice_point: 50
	 slice_point: 51
	 slice_point: 53
	 slice_point: 54
	 slice_point: 56
	 slice_point: 57
	 slice_point: 59
	 slice_point: 60
	 slice_point: 62
  }
  top: "gt_joint_2d_0"
  top: "gt_depth_0"
  top: "gt_joint_2d_1"
  top: "gt_depth_1"
  top: "gt_joint_2d_2"
  top: "gt_depth_2"
  top: "gt_joint_2d_3"
  top: "gt_depth_3"
  top: "gt_joint_2d_4"
  top: "gt_depth_4"
  top: "gt_joint_2d_5"
  top: "gt_depth_5"
  top: "gt_joint_2d_6"
  top: "gt_depth_6"
  top: "gt_joint_2d_7"
  top: "gt_depth_7"
  top: "gt_joint_2d_8"
  top: "gt_depth_8"
  top: "gt_joint_2d_9"
  top: "gt_depth_9"
  top: "gt_joint_2d_10"
  top: "gt_depth_10"
  top: "gt_joint_2d_11"
  top: "gt_depth_11"
  top: "gt_joint_2d_12"
  top: "gt_depth_12"
  top: "gt_joint_2d_13"
  top: "gt_depth_13"
  top: "gt_joint_2d_14"
  top: "gt_depth_14"
  top: "gt_joint_2d_15"
  top: "gt_depth_15"
  top: "gt_joint_2d_16"
  top: "gt_depth_16"
  top: "gt_joint_2d_17"
  top: "gt_depth_17"
  top: "gt_joint_2d_18"
  top: "gt_depth_18"
  top: "gt_joint_2d_19"
  top: "gt_depth_19"
  top: "gt_joint_2d_20"
  top: "gt_depth_20"
  
}

#----nothing gt joint 2d
layer {
  bottom: "gt_joint_2d_0"
  bottom: "gt_joint_2d_1"
  bottom: "gt_joint_2d_2"
  bottom: "gt_joint_2d_3"
  bottom: "gt_joint_2d_4"
  bottom: "gt_joint_2d_5"
  bottom: "gt_joint_2d_6"
  bottom: "gt_joint_2d_7"
  bottom: "gt_joint_2d_8"
  bottom: "gt_joint_2d_9"
  bottom: "gt_joint_2d_10"
  bottom: "gt_joint_2d_11"
  bottom: "gt_joint_2d_12"
  bottom: "gt_joint_2d_13"
  bottom: "gt_joint_2d_14"
  bottom: "gt_joint_2d_15"
  bottom: "gt_joint_2d_16"
  bottom: "gt_joint_2d_17"
  bottom: "gt_joint_2d_18"
  bottom: "gt_joint_2d_19"
  bottom: "gt_joint_2d_20"
  top: "gt_joint_2d_nothing"
  name: "gt_joint_2d_nothing"
  type: "Concat"
  
}

layer {
  top: "joint_2d_nothing"
  name: "joint_2d_nothing"
  bottom: "gt_joint_2d"
  bottom: "gt_joint_2d_nothing"
  loss_weight: 0.0
  type: "EuclideanLoss"
  
}


layer {
  bottom: "gt_depth_0"
  bottom: "gt_depth_1"
  bottom: "gt_depth_2"
  bottom: "gt_depth_3"
  bottom: "gt_depth_4"
  bottom: "gt_depth_5"
  bottom: "gt_depth_6"
  bottom: "gt_depth_7"
  bottom: "gt_depth_8"
  bottom: "gt_depth_9"
  bottom: "gt_depth_10"
  bottom: "gt_depth_11"
  bottom: "gt_depth_12"
  bottom: "gt_depth_13"
  bottom: "gt_depth_14"
  bottom: "gt_depth_15"
  bottom: "gt_depth_16"
  bottom: "gt_depth_17"
  bottom: "gt_depth_18"
  bottom: "gt_depth_19"
  bottom: "gt_depth_20"
  top: "gt_depth"
  name: "gt_depth"
  type: "Concat"
  
}













layer {
  name: "gen_3d_hm"
  bottom: "gt_joint_2d"
  bottom: "gt_depth"
  top: "label"
  type: "DeepHandModelGen3DHeatmap"
  deep_hand_model_gen_3d_heatmap_param {
    depth_dims: 64
	map_size: 64
	sigma: 0.167
	joint_num: 21
  }
  
}






layer {
 name: "conv_1"
 type: "Convolution" 
 bottom: "image" 
 top: "conv_1" 
  param {
 	 lr_mult: 1
 	 decay_mult: 1
 }
 param {
 	 lr_mult: 2
 	 decay_mult: 0
 }
 convolution_param { 
 num_output: 64
 pad: 3
 kernel_size: 7
 stride:2
 weight_filler { 
 type: "gaussian"
 std: 0.01 
 }
 bias_filler {
 type: "constant"
 }
 }
 }
layer {
 name: "bn_1"
 type: "BatchNorm" 
 bottom: "conv_1" 
 top: "bn_1" 
 
 param { 
 lr_mult: 0 
 } 
 param { 
 lr_mult: 0 
 } 
 param { 
 lr_mult: 0 
 } 
 batch_norm_param {
        use_global_stats: false
 }
}
layer {
 name: "scale_1"
 type: "Scale" 
 bottom: "bn_1" 
 top: "scale_1" 
 scale_param { 
 bias_term: true 
 } 
 }
layer {
 name: "residual_1_branch1_bn1"
 type: "BatchNorm" 
 bottom: "scale_1" 
 top: "residual_1_branch1_bn1" 
 param { 
 lr_mult: 0 
 } 
 param { 
 lr_mult: 0 
 } 
 param { 
 lr_mult: 0 
 }
batch_norm_param {
        use_global_stats: false
 } 
}
layer {
 name: "residual_1_branch1_scale1"
 type: "Scale" 
 bottom: "residual_1_branch1_bn1" 
 top: "residual_1_branch1_scale1" 
 scale_param { 
 bias_term: true 
 } 
 }
layer {
 name: "residual_1_branch1_relu1"
 type: "ReLU" 
 bottom: "residual_1_branch1_scale1" 
 top: "residual_1_branch1_relu1" 
}
layer {
 name: "residual_1_branch1_conv1"
 type: "Convolution" 
 bottom: "residual_1_branch1_relu1" 
 top: "residual_1_branch1_conv1" 
  param {
 	 lr_mult: 1
 	 decay_mult: 1
 }
 param {
 	 lr_mult: 2
 	 decay_mult: 0
 }
 convolution_param { 
 num_output: 64
 pad: 0
 kernel_size: 1
 stride:1
 weight_filler { 
 type: "gaussian"
 std: 0.01 
 }
 bias_filler {
 type: "constant"
 }
 }
 }
layer {
 name: "residual_1_branch1_bn2"
 type: "BatchNorm" 
 bottom: "residual_1_branch1_conv1" 
 top: "residual_1_branch1_bn2" 
 param { 
 lr_mult: 0 
 } 
 param { 
 lr_mult: 0 
 } 
 param { 
 lr_mult: 0 
 } 
 batch_norm_param {
        use_global_stats: false
 }
}

layer {
 name: "residual_1_branch1_scale2"
 type: "Scale" 
 bottom: "residual_1_branch1_bn2" 
 top: "residual_1_branch1_scale2" 
 scale_param { 
 bias_term: true 
 } 
 }
layer {
 name: "residual_1_branch1_relu2"
 type: "ReLU" 
 bottom: "residual_1_branch1_scale2" 
 top: "residual_1_branch1_relu2" 
}
layer {
 name: "residual_1_branch1_conv2"
 type: "Convolution" 
 bottom: "residual_1_branch1_relu2" 
 top: "residual_1_branch1_conv2" 
  param {
 	 lr_mult: 1
 	 decay_mult: 1
 }
 param {
 	 lr_mult: 2
 	 decay_mult: 0
 }
 convolution_param { 
 num_output: 64
 pad: 1
 kernel_size: 3
 stride:1
 weight_filler { 
 type: "gaussian"
 std: 0.01 
 }
 bias_filler {
 type: "constant"
 }
 }
 }
layer {
 name: "residual_1_branch1_bn3"
 type: "BatchNorm" 
 bottom: "residual_1_branch1_conv2" 
 top: "residual_1_branch1_bn3" 
 param { 
 lr_mult: 0 
 } 
 param { 
 lr_mult: 0 
 } 
 param { 
 lr_mult: 0 
 } 
 batch_norm_param {
        use_global_stats: false
 }
}
layer {
 name: "residual_1_branch1_scale3"
 type: "Scale" 
 bottom: "residual_1_branch1_bn3" 
 top: "residual_1_branch1_scale3" 
 scale_param { 
 bias_term: true 
 } 
 }
layer {
 name: "residual_1_branch1_relu3"
 type: "ReLU" 
 bottom: "residual_1_branch1_scale3" 
 top: "residual_1_branch1_relu3" 
}
layer {
 name: "residual_1_branch1_conv3"
 type: "Convolution" 
 bottom: "residual_1_branch1_relu3" 
 top: "residual_1_branch1_conv3" 
  param {
 	 lr_mult: 1
 	 decay_mult: 1
 }
 param {
 	 lr_mult: 2
 	 decay_mult: 0
 }
 convolution_param { 
 num_output: 128
 pad: 0
 kernel_size: 1
 stride:1
 weight_filler { 
 type: "gaussian"
 std: 0.01 
 }
 bias_filler {
 type: "constant"
 }
 }
 }
layer {
 name: "residual_1_branch2_conv"
 type: "Convolution" 
 bottom: "scale_1" 
 top: "residual_1_branch2_conv" 
  param {
 	 lr_mult: 1
 	 decay_mult: 1
 }
 param {
 	 lr_mult: 2
 	 decay_mult: 0
 }
 convolution_param { 
 num_output: 128
 pad: 0
 kernel_size: 1
 stride:1
 weight_filler { 
 type: "gaussian"
 std: 0.01 
 }
 bias_filler {
 type: "constant"
 }
 }
 }
layer {
 name: "residual_1"
 type: "Eltwise" 
 bottom: "residual_1_branch1_conv3" 
 top: "residual_1" 
 bottom: "residual_1_branch2_conv" 
 eltwise_param { 
 operation: SUM 
 } 
 }
layer {
 name: "pooling"
 type: "Pooling" 
 bottom: "residual_1" 
 top: "pooling" 
 pooling_param { 
 pool: MAX 
 kernel_size: 2 
 stride: 2 
 } 
 }
layer {
 name: "residual_2_branch1_bn1"
 type: "BatchNorm" 
 bottom: "pooling" 
 top: "residual_2_branch1_bn1" 
 param { 
 lr_mult: 0 
 } 
 param { 
 lr_mult: 0 
 } 
 param { 
 lr_mult: 0 
 } 
 batch_norm_param {
        use_global_stats: false
 }
}
layer {
 name: "residual_2_branch1_scale1"
 type: "Scale" 
 bottom: "residual_2_branch1_bn1" 
 top: "residual_2_branch1_scale1" 
 scale_param { 
 bias_term: true 
 } 
 }
layer {
 name: "residual_2_branch1_relu1"
 type: "ReLU" 
 bottom: "residual_2_branch1_scale1" 
 top: "residual_2_branch1_relu1" 
}
layer {
 name: "residual_2_branch1_conv1"
 type: "Convolution" 
 bottom: "residual_2_branch1_relu1" 
 top: "residual_2_branch1_conv1" 
  param {
 	 lr_mult: 1
 	 decay_mult: 1
 }
 param {
 	 lr_mult: 2
 	 decay_mult: 0
 }
 convolution_param { 
 num_output: 64
 pad: 0
 kernel_size: 1
 stride:1
 weight_filler { 
 type: "gaussian"
 std: 0.01 
 }
 bias_filler {
 type: "constant"
 }
 }
 }
layer {
 name: "residual_2_branch1_bn2"
 type: "BatchNorm" 
 bottom: "residual_2_branch1_conv1" 
 top: "residual_2_branch1_bn2" 
 param { 
 lr_mult: 0 
 } 
 param { 
 lr_mult: 0 
 } 
 param { 
 lr_mult: 0 
 } 
 batch_norm_param {
        use_global_stats: false
 }
}
layer {
 name: "residual_2_branch1_scale2"
 type: "Scale" 
 bottom: "residual_2_branch1_bn2" 
 top: "residual_2_branch1_scale2" 
 scale_param { 
 bias_term: true 
 } 
 }
layer {
 name: "residual_2_branch1_relu2"
 type: "ReLU" 
 bottom: "residual_2_branch1_scale2" 
 top: "residual_2_branch1_relu2" 
}
layer {
 name: "residual_2_branch1_conv2"
 type: "Convolution" 
 bottom: "residual_2_branch1_relu2" 
 top: "residual_2_branch1_conv2" 
  param {
 	 lr_mult: 1
 	 decay_mult: 1
 }
 param {
 	 lr_mult: 2
 	 decay_mult: 0
 }
 convolution_param { 
 num_output: 64
 pad: 1
 kernel_size: 3
 stride:1
 weight_filler { 
 type: "gaussian"
 std: 0.01 
 }
 bias_filler {
 type: "constant"
 }
 }
 }
layer {
 name: "residual_2_branch1_bn3"
 type: "BatchNorm" 
 bottom: "residual_2_branch1_conv2" 
 top: "residual_2_branch1_bn3" 
 param { 
 lr_mult: 0 
 } 
 param { 
 lr_mult: 0 
 } 
 param { 
 lr_mult: 0 
 } 
 batch_norm_param {
        use_global_stats: false
 }
}
layer {
 name: "residual_2_branch1_scale3"
 type: "Scale" 
 bottom: "residual_2_branch1_bn3" 
 top: "residual_2_branch1_scale3" 
 scale_param { 
 bias_term: true 
 } 
 }
layer {
 name: "residual_2_branch1_relu3"
 type: "ReLU" 
 bottom: "residual_2_branch1_scale3" 
 top: "residual_2_branch1_relu3" 
}
layer {
 name: "residual_2_branch1_conv3"
 type: "Convolution" 
 bottom: "residual_2_branch1_relu3" 
 top: "residual_2_branch1_conv3" 
  param {
 	 lr_mult: 1
 	 decay_mult: 1
 }
 param {
 	 lr_mult: 2
 	 decay_mult: 0
 }
 convolution_param { 
 num_output: 128
 pad: 0
 kernel_size: 1
 stride:1
 weight_filler { 
 type: "gaussian"
 std: 0.01 
 }
 bias_filler {
 type: "constant"
 }
 }
 }
layer {
 name: "residual_2_branch2_conv"
 type: "Convolution" 
 bottom: "pooling" 
 top: "residual_2_branch2_conv" 
  param {
 	 lr_mult: 1
 	 decay_mult: 1
 }
 param {
 	 lr_mult: 2
 	 decay_mult: 0
 }
 convolution_param { 
 num_output: 128
 pad: 0
 kernel_size: 1
 stride:1
 weight_filler { 
 type: "gaussian"
 std: 0.01 
 }
 bias_filler {
 type: "constant"
 }
 }
 }
layer {
 name: "residual_2"
 type: "Eltwise" 
 bottom: "residual_2_branch1_conv3" 
 top: "residual_2" 
 bottom: "residual_2_branch2_conv" 
 eltwise_param { 
 operation: SUM 
 } 
 }
layer {
 name: "residual_3_branch1_bn1"
 type: "BatchNorm" 
 bottom: "residual_2" 
 top: "residual_3_branch1_bn1" 
 param { 
 lr_mult: 0 
 } 
 param { 
 lr_mult: 0 
 } 
 param { 
 lr_mult: 0 
 } 
 batch_norm_param {
        use_global_stats: false
 }
}
layer {
 name: "residual_3_branch1_scale1"
 type: "Scale" 
 bottom: "residual_3_branch1_bn1" 
 top: "residual_3_branch1_scale1" 
 scale_param { 
 bias_term: true 
 } 
 }
layer {
 name: "residual_3_branch1_relu1"
 type: "ReLU" 
 bottom: "residual_3_branch1_scale1" 
 top: "residual_3_branch1_relu1" 
}
layer {
 name: "residual_3_branch1_conv1"
 type: "Convolution" 
 bottom: "residual_3_branch1_relu1" 
 top: "residual_3_branch1_conv1" 
  param {
 	 lr_mult: 1
 	 decay_mult: 1
 }
 param {
 	 lr_mult: 2
 	 decay_mult: 0
 }
 convolution_param { 
 num_output: 64
 pad: 0
 kernel_size: 1
 stride:1
 weight_filler { 
 type: "gaussian"
 std: 0.01 
 }
 bias_filler {
 type: "constant"
 }
 }
 }
layer {
 name: "residual_3_branch1_bn2"
 type: "BatchNorm" 
 bottom: "residual_3_branch1_conv1" 
 top: "residual_3_branch1_bn2" 
 param { 
 lr_mult: 0 
 } 
 param { 
 lr_mult: 0 
 } 
 param { 
 lr_mult: 0 
 } 
 batch_norm_param {
        use_global_stats: false
 }
}
layer {
 name: "residual_3_branch1_scale2"
 type: "Scale" 
 bottom: "residual_3_branch1_bn2" 
 top: "residual_3_branch1_scale2" 
 scale_param { 
 bias_term: true 
 } 
 }
layer {
 name: "residual_3_branch1_relu2"
 type: "ReLU" 
 bottom: "residual_3_branch1_scale2" 
 top: "residual_3_branch1_relu2" 
}
layer {
 name: "residual_3_branch1_conv2"
 type: "Convolution" 
 bottom: "residual_3_branch1_relu2" 
 top: "residual_3_branch1_conv2" 
  param {
 	 lr_mult: 1
 	 decay_mult: 1
 }
 param {
 	 lr_mult: 2
 	 decay_mult: 0
 }
 convolution_param { 
 num_output: 64
 pad: 1
 kernel_size: 3
 stride:1
 weight_filler { 
 type: "gaussian"
 std: 0.01 
 }
 bias_filler {
 type: "constant"
 }
 }
 }
layer {
 name: "residual_3_branch1_bn3"
 type: "BatchNorm" 
 bottom: "residual_3_branch1_conv2" 
 top: "residual_3_branch1_bn3" 
 param { 
 lr_mult: 0 
 } 
 param { 
 lr_mult: 0 
 } 
 param { 
 lr_mult: 0 
 } 
 batch_norm_param {
        use_global_stats: false
 }
}
layer {
 name: "residual_3_branch1_scale3"
 type: "Scale" 
 bottom: "residual_3_branch1_bn3" 
 top: "residual_3_branch1_scale3" 
 scale_param { 
 bias_term: true 
 } 
 }
layer {
 name: "residual_3_branch1_relu3"
 type: "ReLU" 
 bottom: "residual_3_branch1_scale3" 
 top: "residual_3_branch1_relu3" 
}
layer {
 name: "residual_3_branch1_conv3"
 type: "Convolution" 
 bottom: "residual_3_branch1_relu3" 
 top: "residual_3_branch1_conv3" 
  param {
 	 lr_mult: 1
 	 decay_mult: 1
 }
 param {
 	 lr_mult: 2
 	 decay_mult: 0
 }
 convolution_param { 
 num_output: 128
 pad: 0
 kernel_size: 1
 stride:1
 weight_filler { 
 type: "gaussian"
 std: 0.01 
 }
 bias_filler {
 type: "constant"
 }
 }
 }
layer {
 name: "residual_3_branch2_conv"
 type: "Convolution" 
 bottom: "residual_2" 
 top: "residual_3_branch2_conv" 
  param {
 	 lr_mult: 1
 	 decay_mult: 1
 }
 param {
 	 lr_mult: 2
 	 decay_mult: 0
 }
 convolution_param { 
 num_output: 128
 pad: 0
 kernel_size: 1
 stride:1
 weight_filler { 
 type: "gaussian"
 std: 0.01 
 }
 bias_filler {
 type: "constant"
 }
 }
 }
layer {
 name: "residual_3"
 type: "Eltwise" 
 bottom: "residual_3_branch1_conv3" 
 top: "residual_3" 
 bottom: "residual_3_branch2_conv" 
 eltwise_param { 
 operation: SUM 
 } 
 }
layer {
 name: "residual_4_branch1_bn1"
 type: "BatchNorm" 
 bottom: "residual_3" 
 top: "residual_4_branch1_bn1" 
 param { 
 lr_mult: 0 
 } 
 param { 
 lr_mult: 0 
 } 
 param { 
 lr_mult: 0 
 } 
 batch_norm_param {
        use_global_stats: false
 }
}
layer {
 name: "residual_4_branch1_scale1"
 type: "Scale" 
 bottom: "residual_4_branch1_bn1" 
 top: "residual_4_branch1_scale1" 
 scale_param { 
 bias_term: true 
 } 
 }
layer {
 name: "residual_4_branch1_relu1"
 type: "ReLU" 
 bottom: "residual_4_branch1_scale1" 
 top: "residual_4_branch1_relu1" 
}
layer {
 name: "residual_4_branch1_conv1"
 type: "Convolution" 
 bottom: "residual_4_branch1_relu1" 
 top: "residual_4_branch1_conv1" 
  param {
 	 lr_mult: 1
 	 decay_mult: 1
 }
 param {
 	 lr_mult: 2
 	 decay_mult: 0
 }
 convolution_param { 
 num_output: 128
 pad: 0
 kernel_size: 1
 stride:1
 weight_filler { 
 type: "gaussian"
 std: 0.01 
 }
 bias_filler {
 type: "constant"
 }
 }
 }
layer {
 name: "residual_4_branch1_bn2"
 type: "BatchNorm" 
 bottom: "residual_4_branch1_conv1" 
 top: "residual_4_branch1_bn2" 
 param { 
 lr_mult: 0 
 } 
 param { 
 lr_mult: 0 
 } 
 param { 
 lr_mult: 0 
 } 
 batch_norm_param {
        use_global_stats: false
 }
}
layer {
 name: "residual_4_branch1_scale2"
 type: "Scale" 
 bottom: "residual_4_branch1_bn2" 
 top: "residual_4_branch1_scale2" 
 scale_param { 
 bias_term: true 
 } 
 }
layer {
 name: "residual_4_branch1_relu2"
 type: "ReLU" 
 bottom: "residual_4_branch1_scale2" 
 top: "residual_4_branch1_relu2" 
}
layer {
 name: "residual_4_branch1_conv2"
 type: "Convolution" 
 bottom: "residual_4_branch1_relu2" 
 top: "residual_4_branch1_conv2" 
  param {
 	 lr_mult: 1
 	 decay_mult: 1
 }
 param {
 	 lr_mult: 2
 	 decay_mult: 0
 }
 convolution_param { 
 num_output: 128
 pad: 1
 kernel_size: 3
 stride:1
 weight_filler { 
 type: "gaussian"
 std: 0.01 
 }
 bias_filler {
 type: "constant"
 }
 }
 }
layer {
 name: "residual_4_branch1_bn3"
 type: "BatchNorm" 
 bottom: "residual_4_branch1_conv2" 
 top: "residual_4_branch1_bn3" 
 param { 
 lr_mult: 0 
 } 
 param { 
 lr_mult: 0 
 } 
 param { 
 lr_mult: 0 
 } 
 batch_norm_param {
        use_global_stats: false
 }
}
layer {
 name: "residual_4_branch1_scale3"
 type: "Scale" 
 bottom: "residual_4_branch1_bn3" 
 top: "residual_4_branch1_scale3" 
 scale_param { 
 bias_term: true 
 } 
 }
layer {
 name: "residual_4_branch1_relu3"
 type: "ReLU" 
 bottom: "residual_4_branch1_scale3" 
 top: "residual_4_branch1_relu3" 
}
layer {
 name: "residual_4_branch1_conv3"
 type: "Convolution" 
 bottom: "residual_4_branch1_relu3" 
 top: "residual_4_branch1_conv3" 
  param {
 	 lr_mult: 1
 	 decay_mult: 1
 }
 param {
 	 lr_mult: 2
 	 decay_mult: 0
 }
 convolution_param { 
 num_output: 256
 pad: 0
 kernel_size: 1
 stride:1
 weight_filler { 
 type: "gaussian"
 std: 0.01 
 }
 bias_filler {
 type: "constant"
 }
 }
 }
layer {
 name: "residual_4_branch2_conv"
 type: "Convolution" 
 bottom: "residual_3" 
 top: "residual_4_branch2_conv" 
  param {
 	 lr_mult: 1
 	 decay_mult: 1
 }
 param {
 	 lr_mult: 2
 	 decay_mult: 0
 }
 convolution_param { 
 num_output: 256
 pad: 0
 kernel_size: 1
 stride:1
 weight_filler { 
 type: "gaussian"
 std: 0.01 
 }
 bias_filler {
 type: "constant"
 }
 }
 }
layer {
 name: "residual_4"
 type: "Eltwise" 
 bottom: "residual_4_branch1_conv3" 
 top: "residual_4" 
 bottom: "residual_4_branch2_conv" 
 eltwise_param { 
 operation: SUM 
 } 
 }
layer {
 name: "hourglass1_pooling"
 type: "Pooling" 
 bottom: "residual_4" 
 top: "hourglass1_pooling" 
 pooling_param { 
 pool: MAX 
 kernel_size: 2 
 stride: 2 
 } 
 }
layer {
 name: "hourglass1_branch1_res1_branch1_sub1_bn1"
 type: "BatchNorm" 
 bottom: "hourglass1_pooling" 
 top: "hourglass1_branch1_res1_branch1_sub1_bn1" 
 param { 
 lr_mult: 0 
 } 
 param { 
 lr_mult: 0 
 } 
 param { 
 lr_mult: 0 
 } 
 batch_norm_param {
        use_global_stats: false
 }
}
layer {
 name: "hourglass1_branch1_res1_branch1_sub1_scale1"
 type: "Scale" 
 bottom: "hourglass1_branch1_res1_branch1_sub1_bn1" 
 top: "hourglass1_branch1_res1_branch1_sub1_scale1" 
 scale_param { 
 bias_term: true 
 } 
 }
layer {
 name: "hourglass1_branch1_res1_branch1_sub1_relu1"
 type: "ReLU" 
 bottom: "hourglass1_branch1_res1_branch1_sub1_scale1" 
 top: "hourglass1_branch1_res1_branch1_sub1_relu1" 
}
layer {
 name: "hourglass1_branch1_res1_branch1_sub1_conv1"
 type: "Convolution" 
 bottom: "hourglass1_branch1_res1_branch1_sub1_relu1" 
 top: "hourglass1_branch1_res1_branch1_sub1_conv1" 
  param {
 	 lr_mult: 1
 	 decay_mult: 1
 }
 param {
 	 lr_mult: 2
 	 decay_mult: 0
 }
 convolution_param { 
 num_output: 128
 pad: 0
 kernel_size: 1
 stride:1
 weight_filler { 
 type: "gaussian"
 std: 0.01 
 }
 bias_filler {
 type: "constant"
 }
 }
 }
layer {
 name: "hourglass1_branch1_res1_branch1_sub1_bn2"
 type: "BatchNorm" 
 bottom: "hourglass1_branch1_res1_branch1_sub1_conv1" 
 top: "hourglass1_branch1_res1_branch1_sub1_bn2" 
 param { 
 lr_mult: 0 
 } 
 param { 
 lr_mult: 0 
 } 
 param { 
 lr_mult: 0 
 } 
 batch_norm_param {
        use_global_stats: false
 }
}
layer {
 name: "hourglass1_branch1_res1_branch1_sub1_scale2"
 type: "Scale" 
 bottom: "hourglass1_branch1_res1_branch1_sub1_bn2" 
 top: "hourglass1_branch1_res1_branch1_sub1_scale2" 
 scale_param { 
 bias_term: true 
 } 
 }
layer {
 name: "hourglass1_branch1_res1_branch1_sub1_relu2"
 type: "ReLU" 
 bottom: "hourglass1_branch1_res1_branch1_sub1_scale2" 
 top: "hourglass1_branch1_res1_branch1_sub1_relu2" 
}
layer {
 name: "hourglass1_branch1_res1_branch1_sub1_conv2"
 type: "Convolution" 
 bottom: "hourglass1_branch1_res1_branch1_sub1_relu2" 
 top: "hourglass1_branch1_res1_branch1_sub1_conv2" 
  param {
 	 lr_mult: 1
 	 decay_mult: 1
 }
 param {
 	 lr_mult: 2
 	 decay_mult: 0
 }
 convolution_param { 
 num_output: 128
 pad: 1
 kernel_size: 3
 stride:1
 weight_filler { 
 type: "gaussian"
 std: 0.01 
 }
 bias_filler {
 type: "constant"
 }
 }
 }
layer {
 name: "hourglass1_branch1_res1_branch1_sub1_bn3"
 type: "BatchNorm" 
 bottom: "hourglass1_branch1_res1_branch1_sub1_conv2" 
 top: "hourglass1_branch1_res1_branch1_sub1_bn3" 
 param { 
 lr_mult: 0 
 } 
 param { 
 lr_mult: 0 
 } 
 param { 
 lr_mult: 0 
 } 
 batch_norm_param {
        use_global_stats: false
 }
}
layer {
 name: "hourglass1_branch1_res1_branch1_sub1_scale3"
 type: "Scale" 
 bottom: "hourglass1_branch1_res1_branch1_sub1_bn3" 
 top: "hourglass1_branch1_res1_branch1_sub1_scale3" 
 scale_param { 
 bias_term: true 
 } 
 }
layer {
 name: "hourglass1_branch1_res1_branch1_sub1_relu3"
 type: "ReLU" 
 bottom: "hourglass1_branch1_res1_branch1_sub1_scale3" 
 top: "hourglass1_branch1_res1_branch1_sub1_relu3" 
}
layer {
 name: "hourglass1_branch1_res1_branch1_sub1_conv3"
 type: "Convolution" 
 bottom: "hourglass1_branch1_res1_branch1_sub1_relu3" 
 top: "hourglass1_branch1_res1_branch1_sub1_conv3" 
  param {
 	 lr_mult: 1
 	 decay_mult: 1
 }
 param {
 	 lr_mult: 2
 	 decay_mult: 0
 }
 convolution_param { 
 num_output: 128
 pad: 1
 kernel_size: 3
 stride:1
 weight_filler { 
 type: "gaussian"
 std: 0.01 
 }
 bias_filler {
 type: "constant"
 }
 }
 }
layer {
 name: "hourglass1_branch1_res1_branch1_sub2_bn1"
 type: "BatchNorm" 
 bottom: "hourglass1_pooling" 
 top: "hourglass1_branch1_res1_branch1_sub2_bn1" 
 param { 
 lr_mult: 0 
 } 
 param { 
 lr_mult: 0 
 } 
 param { 
 lr_mult: 0 
 } 
 batch_norm_param {
        use_global_stats: false
 }
}
layer {
 name: "hourglass1_branch1_res1_branch1_sub2_scale1"
 type: "Scale" 
 bottom: "hourglass1_branch1_res1_branch1_sub2_bn1" 
 top: "hourglass1_branch1_res1_branch1_sub2_scale1" 
 scale_param { 
 bias_term: true 
 } 
 }
layer {
 name: "hourglass1_branch1_res1_branch1_sub2_relu1"
 type: "ReLU" 
 bottom: "hourglass1_branch1_res1_branch1_sub2_scale1" 
 top: "hourglass1_branch1_res1_branch1_sub2_relu1" 
}
layer {
 name: "hourglass1_branch1_res1_branch1_sub2_conv1"
 type: "Convolution" 
 bottom: "hourglass1_branch1_res1_branch1_sub2_relu1" 
 top: "hourglass1_branch1_res1_branch1_sub2_conv1" 
  param {
 	 lr_mult: 1
 	 decay_mult: 1
 }
 param {
 	 lr_mult: 2
 	 decay_mult: 0
 }
 convolution_param { 
 num_output: 128
 pad: 0
 kernel_size: 1
 stride:1
 weight_filler { 
 type: "gaussian"
 std: 0.01 
 }
 bias_filler {
 type: "constant"
 }
 }
 }
layer {
 name: "hourglass1_branch1_res1_branch1_sub2_bn2"
 type: "BatchNorm" 
 bottom: "hourglass1_branch1_res1_branch1_sub2_conv1" 
 top: "hourglass1_branch1_res1_branch1_sub2_bn2" 
 param { 
 lr_mult: 0 
 } 
 param { 
 lr_mult: 0 
 } 
 param { 
 lr_mult: 0 
 } 
 batch_norm_param {
        use_global_stats: false
 }
}
layer {
 name: "hourglass1_branch1_res1_branch1_sub2_scale2"
 type: "Scale" 
 bottom: "hourglass1_branch1_res1_branch1_sub2_bn2" 
 top: "hourglass1_branch1_res1_branch1_sub2_scale2" 
 scale_param { 
 bias_term: true 
 } 
 }
layer {
 name: "hourglass1_branch1_res1_branch1_sub2_relu2"
 type: "ReLU" 
 bottom: "hourglass1_branch1_res1_branch1_sub2_scale2" 
 top: "hourglass1_branch1_res1_branch1_sub2_relu2" 
}
layer {
 name: "hourglass1_branch1_res1_branch1_sub2_conv2"
 type: "Convolution" 
 bottom: "hourglass1_branch1_res1_branch1_sub2_relu2" 
 top: "hourglass1_branch1_res1_branch1_sub2_conv2" 
  param {
 	 lr_mult: 1
 	 decay_mult: 1
 }
 param {
 	 lr_mult: 2
 	 decay_mult: 0
 }
 convolution_param { 
 num_output: 128
 pad: 1
 kernel_size: 3
 stride:1
 weight_filler { 
 type: "gaussian"
 std: 0.01 
 }
 bias_filler {
 type: "constant"
 }
 }
 }
layer {
 name: "hourglass1_branch1_res1_branch1_concat"
 type: "Concat" 
 bottom: "hourglass1_branch1_res1_branch1_sub1_conv3" 
 top: "hourglass1_branch1_res1_branch1_concat" 
 bottom: "hourglass1_branch1_res1_branch1_sub2_conv2"
 concat_param { 
 axis: 1
 } 
}
layer {
 name: "hourglass1_branch1_res1_branch1_conv_linear"
 type: "Convolution" 
 bottom: "hourglass1_branch1_res1_branch1_concat" 
 top: "hourglass1_branch1_res1_branch1_conv_linear" 
  param {
 	 lr_mult: 1
 	 decay_mult: 1
 }
 param {
 	 lr_mult: 2
 	 decay_mult: 0
 }
 convolution_param { 
 num_output: 256
 pad: 0
 kernel_size: 1
 stride:1
 weight_filler { 
 type: "gaussian"
 std: 0.01 
 }
 bias_filler {
 type: "constant"
 }
 }
 }
layer {
 name: "hourglass1_branch1_res1_branch1_linear_batch"
 type: "BatchNorm" 
 bottom: "hourglass1_branch1_res1_branch1_conv_linear" 
 top: "hourglass1_branch1_res1_branch1_linear_batch" 
 param { 
 lr_mult: 0 
 } 
 param { 
 lr_mult: 0 
 } 
 param { 
 lr_mult: 0 
 } 
 batch_norm_param {
        use_global_stats: false
 }
}
layer {
 name: "hourglass1_branch1_res1_branch1_linear_scale"
 type: "Scale" 
 bottom: "hourglass1_branch1_res1_branch1_linear_batch" 
 top: "hourglass1_branch1_res1_branch1_linear_scale" 
 scale_param { 
 bias_term: true 
 } 
 }
layer {
 name: "hourglass1_branch1_res1_branch2_conv"
 type: "Convolution" 
 bottom: "hourglass1_pooling" 
 top: "hourglass1_branch1_res1_branch2_conv" 
  param {
 	 lr_mult: 1
 	 decay_mult: 1
 }
 param {
 	 lr_mult: 2
 	 decay_mult: 0
 }
 convolution_param { 
 num_output: 256
 pad: 0
 kernel_size: 1
 stride:1
 weight_filler { 
 type: "gaussian"
 std: 0.01 
 }
 bias_filler {
 type: "constant"
 }
 }
 }
layer {
 name: "hourglass1_branch1_res1"
 type: "Eltwise" 
 bottom: "hourglass1_branch1_res1_branch1_linear_scale" 
 top: "hourglass1_branch1_res1" 
 bottom: "hourglass1_branch1_res1_branch2_conv" 
 eltwise_param { 
 operation: SUM 
 } 
 }
layer {
 name: "hourglass1_branch1_res2_branch1_sub1_bn1"
 type: "BatchNorm" 
 bottom: "hourglass1_branch1_res1" 
 top: "hourglass1_branch1_res2_branch1_sub1_bn1" 
 param { 
 lr_mult: 0 
 } 
 param { 
 lr_mult: 0 
 } 
 param { 
 lr_mult: 0 
 } 
 batch_norm_param {
        use_global_stats: false
 }
}
layer {
 name: "hourglass1_branch1_res2_branch1_sub1_scale1"
 type: "Scale" 
 bottom: "hourglass1_branch1_res2_branch1_sub1_bn1" 
 top: "hourglass1_branch1_res2_branch1_sub1_scale1" 
 scale_param { 
 bias_term: true 
 } 
 }
layer {
 name: "hourglass1_branch1_res2_branch1_sub1_relu1"
 type: "ReLU" 
 bottom: "hourglass1_branch1_res2_branch1_sub1_scale1" 
 top: "hourglass1_branch1_res2_branch1_sub1_relu1" 
}
layer {
 name: "hourglass1_branch1_res2_branch1_sub1_conv1"
 type: "Convolution" 
 bottom: "hourglass1_branch1_res2_branch1_sub1_relu1" 
 top: "hourglass1_branch1_res2_branch1_sub1_conv1" 
  param {
 	 lr_mult: 1
 	 decay_mult: 1
 }
 param {
 	 lr_mult: 2
 	 decay_mult: 0
 }
 convolution_param { 
 num_output: 128
 pad: 0
 kernel_size: 1
 stride:1
 weight_filler { 
 type: "gaussian"
 std: 0.01 
 }
 bias_filler {
 type: "constant"
 }
 }
 }
layer {
 name: "hourglass1_branch1_res2_branch1_sub1_bn2"
 type: "BatchNorm" 
 bottom: "hourglass1_branch1_res2_branch1_sub1_conv1" 
 top: "hourglass1_branch1_res2_branch1_sub1_bn2" 
 param { 
 lr_mult: 0 
 } 
 param { 
 lr_mult: 0 
 } 
 param { 
 lr_mult: 0 
 } 
 batch_norm_param {
        use_global_stats: false
 }
}
layer {
 name: "hourglass1_branch1_res2_branch1_sub1_scale2"
 type: "Scale" 
 bottom: "hourglass1_branch1_res2_branch1_sub1_bn2" 
 top: "hourglass1_branch1_res2_branch1_sub1_scale2" 
 scale_param { 
 bias_term: true 
 } 
 }
layer {
 name: "hourglass1_branch1_res2_branch1_sub1_relu2"
 type: "ReLU" 
 bottom: "hourglass1_branch1_res2_branch1_sub1_scale2" 
 top: "hourglass1_branch1_res2_branch1_sub1_relu2" 
}
layer {
 name: "hourglass1_branch1_res2_branch1_sub1_conv2"
 type: "Convolution" 
 bottom: "hourglass1_branch1_res2_branch1_sub1_relu2" 
 top: "hourglass1_branch1_res2_branch1_sub1_conv2" 
  param {
 	 lr_mult: 1
 	 decay_mult: 1
 }
 param {
 	 lr_mult: 2
 	 decay_mult: 0
 }
 convolution_param { 
 num_output: 128
 pad: 1
 kernel_size: 3
 stride:1
 weight_filler { 
 type: "gaussian"
 std: 0.01 
 }
 bias_filler {
 type: "constant"
 }
 }
 }
layer {
 name: "hourglass1_branch1_res2_branch1_sub1_bn3"
 type: "BatchNorm" 
 bottom: "hourglass1_branch1_res2_branch1_sub1_conv2" 
 top: "hourglass1_branch1_res2_branch1_sub1_bn3" 
 param { 
 lr_mult: 0 
 } 
 param { 
 lr_mult: 0 
 } 
 param { 
 lr_mult: 0 
 } 
 batch_norm_param {
        use_global_stats: false
 }
}
layer {
 name: "hourglass1_branch1_res2_branch1_sub1_scale3"
 type: "Scale" 
 bottom: "hourglass1_branch1_res2_branch1_sub1_bn3" 
 top: "hourglass1_branch1_res2_branch1_sub1_scale3" 
 scale_param { 
 bias_term: true 
 } 
 }
layer {
 name: "hourglass1_branch1_res2_branch1_sub1_relu3"
 type: "ReLU" 
 bottom: "hourglass1_branch1_res2_branch1_sub1_scale3" 
 top: "hourglass1_branch1_res2_branch1_sub1_relu3" 
}
layer {
 name: "hourglass1_branch1_res2_branch1_sub1_conv3"
 type: "Convolution" 
 bottom: "hourglass1_branch1_res2_branch1_sub1_relu3" 
 top: "hourglass1_branch1_res2_branch1_sub1_conv3" 
  param {
 	 lr_mult: 1
 	 decay_mult: 1
 }
 param {
 	 lr_mult: 2
 	 decay_mult: 0
 }
 convolution_param { 
 num_output: 128
 pad: 1
 kernel_size: 3
 stride:1
 weight_filler { 
 type: "gaussian"
 std: 0.01 
 }
 bias_filler {
 type: "constant"
 }
 }
 }
layer {
 name: "hourglass1_branch1_res2_branch1_sub2_bn1"
 type: "BatchNorm" 
 bottom: "hourglass1_branch1_res1" 
 top: "hourglass1_branch1_res2_branch1_sub2_bn1" 
 param { 
 lr_mult: 0 
 } 
 param { 
 lr_mult: 0 
 } 
 param { 
 lr_mult: 0 
 } 
 batch_norm_param {
        use_global_stats: false
 }
}
layer {
 name: "hourglass1_branch1_res2_branch1_sub2_scale1"
 type: "Scale" 
 bottom: "hourglass1_branch1_res2_branch1_sub2_bn1" 
 top: "hourglass1_branch1_res2_branch1_sub2_scale1" 
 scale_param { 
 bias_term: true 
 } 
 }
layer {
 name: "hourglass1_branch1_res2_branch1_sub2_relu1"
 type: "ReLU" 
 bottom: "hourglass1_branch1_res2_branch1_sub2_scale1" 
 top: "hourglass1_branch1_res2_branch1_sub2_relu1" 
}
layer {
 name: "hourglass1_branch1_res2_branch1_sub2_conv1"
 type: "Convolution" 
 bottom: "hourglass1_branch1_res2_branch1_sub2_relu1" 
 top: "hourglass1_branch1_res2_branch1_sub2_conv1" 
  param {
 	 lr_mult: 1
 	 decay_mult: 1
 }
 param {
 	 lr_mult: 2
 	 decay_mult: 0
 }
 convolution_param { 
 num_output: 128
 pad: 0
 kernel_size: 1
 stride:1
 weight_filler { 
 type: "gaussian"
 std: 0.01 
 }
 bias_filler {
 type: "constant"
 }
 }
 }
layer {
 name: "hourglass1_branch1_res2_branch1_sub2_bn2"
 type: "BatchNorm" 
 bottom: "hourglass1_branch1_res2_branch1_sub2_conv1" 
 top: "hourglass1_branch1_res2_branch1_sub2_bn2" 
 param { 
 lr_mult: 0 
 } 
 param { 
 lr_mult: 0 
 } 
 param { 
 lr_mult: 0 
 } 
 batch_norm_param {
        use_global_stats: false
 }
}
layer {
 name: "hourglass1_branch1_res2_branch1_sub2_scale2"
 type: "Scale" 
 bottom: "hourglass1_branch1_res2_branch1_sub2_bn2" 
 top: "hourglass1_branch1_res2_branch1_sub2_scale2" 
 scale_param { 
 bias_term: true 
 } 
 }
layer {
 name: "hourglass1_branch1_res2_branch1_sub2_relu2"
 type: "ReLU" 
 bottom: "hourglass1_branch1_res2_branch1_sub2_scale2" 
 top: "hourglass1_branch1_res2_branch1_sub2_relu2" 
}
layer {
 name: "hourglass1_branch1_res2_branch1_sub2_conv2"
 type: "Convolution" 
 bottom: "hourglass1_branch1_res2_branch1_sub2_relu2" 
 top: "hourglass1_branch1_res2_branch1_sub2_conv2" 
  param {
 	 lr_mult: 1
 	 decay_mult: 1
 }
 param {
 	 lr_mult: 2
 	 decay_mult: 0
 }
 convolution_param { 
 num_output: 128
 pad: 1
 kernel_size: 3
 stride:1
 weight_filler { 
 type: "gaussian"
 std: 0.01 
 }
 bias_filler {
 type: "constant"
 }
 }
 }
layer {
 name: "hourglass1_branch1_res2_branch1_concat"
 type: "Concat" 
 bottom: "hourglass1_branch1_res2_branch1_sub1_conv3" 
 top: "hourglass1_branch1_res2_branch1_concat" 
 bottom: "hourglass1_branch1_res2_branch1_sub2_conv2"
 concat_param { 
 axis: 1
 } 
}
layer {
 name: "hourglass1_branch1_res2_branch1_conv_linear"
 type: "Convolution" 
 bottom: "hourglass1_branch1_res2_branch1_concat" 
 top: "hourglass1_branch1_res2_branch1_conv_linear" 
  param {
 	 lr_mult: 1
 	 decay_mult: 1
 }
 param {
 	 lr_mult: 2
 	 decay_mult: 0
 }
 convolution_param { 
 num_output: 256
 pad: 0
 kernel_size: 1
 stride:1
 weight_filler { 
 type: "gaussian"
 std: 0.01 
 }
 bias_filler {
 type: "constant"
 }
 }
 }
layer {
 name: "hourglass1_branch1_res2_branch1_linear_batch"
 type: "BatchNorm" 
 bottom: "hourglass1_branch1_res2_branch1_conv_linear" 
 top: "hourglass1_branch1_res2_branch1_linear_batch" 
 param { 
 lr_mult: 0 
 } 
 param { 
 lr_mult: 0 
 } 
 param { 
 lr_mult: 0 
 } 
 batch_norm_param {
        use_global_stats: false
 }
}
layer {
 name: "hourglass1_branch1_res2_branch1_linear_scale"
 type: "Scale" 
 bottom: "hourglass1_branch1_res2_branch1_linear_batch" 
 top: "hourglass1_branch1_res2_branch1_linear_scale" 
 scale_param { 
 bias_term: true 
 } 
 }
layer {
 name: "hourglass1_branch1_res2_branch2_conv"
 type: "Convolution" 
 bottom: "hourglass1_branch1_res1" 
 top: "hourglass1_branch1_res2_branch2_conv" 
  param {
 	 lr_mult: 1
 	 decay_mult: 1
 }
 param {
 	 lr_mult: 2
 	 decay_mult: 0
 }
 convolution_param { 
 num_output: 256
 pad: 0
 kernel_size: 1
 stride:1
 weight_filler { 
 type: "gaussian"
 std: 0.01 
 }
 bias_filler {
 type: "constant"
 }
 }
 }
layer {
 name: "hourglass1_branch1_res2"
 type: "Eltwise" 
 bottom: "hourglass1_branch1_res2_branch1_linear_scale" 
 top: "hourglass1_branch1_res2" 
 bottom: "hourglass1_branch1_res2_branch2_conv" 
 eltwise_param { 
 operation: SUM 
 } 
 }
layer {
 name: "hourglass1_branch1_res3_branch1_sub1_bn1"
 type: "BatchNorm" 
 bottom: "hourglass1_branch1_res2" 
 top: "hourglass1_branch1_res3_branch1_sub1_bn1" 
 param { 
 lr_mult: 0 
 } 
 param { 
 lr_mult: 0 
 } 
 param { 
 lr_mult: 0 
 } 
 batch_norm_param {
        use_global_stats: false
 }
}
layer {
 name: "hourglass1_branch1_res3_branch1_sub1_scale1"
 type: "Scale" 
 bottom: "hourglass1_branch1_res3_branch1_sub1_bn1" 
 top: "hourglass1_branch1_res3_branch1_sub1_scale1" 
 scale_param { 
 bias_term: true 
 } 
 }
layer {
 name: "hourglass1_branch1_res3_branch1_sub1_relu1"
 type: "ReLU" 
 bottom: "hourglass1_branch1_res3_branch1_sub1_scale1" 
 top: "hourglass1_branch1_res3_branch1_sub1_relu1" 
}
layer {
 name: "hourglass1_branch1_res3_branch1_sub1_conv1"
 type: "Convolution" 
 bottom: "hourglass1_branch1_res3_branch1_sub1_relu1" 
 top: "hourglass1_branch1_res3_branch1_sub1_conv1" 
  param {
 	 lr_mult: 1
 	 decay_mult: 1
 }
 param {
 	 lr_mult: 2
 	 decay_mult: 0
 }
 convolution_param { 
 num_output: 128
 pad: 0
 kernel_size: 1
 stride:1
 weight_filler { 
 type: "gaussian"
 std: 0.01 
 }
 bias_filler {
 type: "constant"
 }
 }
 }
layer {
 name: "hourglass1_branch1_res3_branch1_sub1_bn2"
 type: "BatchNorm" 
 bottom: "hourglass1_branch1_res3_branch1_sub1_conv1" 
 top: "hourglass1_branch1_res3_branch1_sub1_bn2" 
 param { 
 lr_mult: 0 
 } 
 param { 
 lr_mult: 0 
 } 
 param { 
 lr_mult: 0 
 } 
 batch_norm_param {
        use_global_stats: false
 }
}
layer {
 name: "hourglass1_branch1_res3_branch1_sub1_scale2"
 type: "Scale" 
 bottom: "hourglass1_branch1_res3_branch1_sub1_bn2" 
 top: "hourglass1_branch1_res3_branch1_sub1_scale2" 
 scale_param { 
 bias_term: true 
 } 
 }
layer {
 name: "hourglass1_branch1_res3_branch1_sub1_relu2"
 type: "ReLU" 
 bottom: "hourglass1_branch1_res3_branch1_sub1_scale2" 
 top: "hourglass1_branch1_res3_branch1_sub1_relu2" 
}
layer {
 name: "hourglass1_branch1_res3_branch1_sub1_conv2"
 type: "Convolution" 
 bottom: "hourglass1_branch1_res3_branch1_sub1_relu2" 
 top: "hourglass1_branch1_res3_branch1_sub1_conv2" 
  param {
 	 lr_mult: 1
 	 decay_mult: 1
 }
 param {
 	 lr_mult: 2
 	 decay_mult: 0
 }
 convolution_param { 
 num_output: 128
 pad: 1
 kernel_size: 3
 stride:1
 weight_filler { 
 type: "gaussian"
 std: 0.01 
 }
 bias_filler {
 type: "constant"
 }
 }
 }
layer {
 name: "hourglass1_branch1_res3_branch1_sub1_bn3"
 type: "BatchNorm" 
 bottom: "hourglass1_branch1_res3_branch1_sub1_conv2" 
 top: "hourglass1_branch1_res3_branch1_sub1_bn3" 
 param { 
 lr_mult: 0 
 } 
 param { 
 lr_mult: 0 
 } 
 param { 
 lr_mult: 0 
 } 
 batch_norm_param {
        use_global_stats: false
 }
}
layer {
 name: "hourglass1_branch1_res3_branch1_sub1_scale3"
 type: "Scale" 
 bottom: "hourglass1_branch1_res3_branch1_sub1_bn3" 
 top: "hourglass1_branch1_res3_branch1_sub1_scale3" 
 scale_param { 
 bias_term: true 
 } 
 }
layer {
 name: "hourglass1_branch1_res3_branch1_sub1_relu3"
 type: "ReLU" 
 bottom: "hourglass1_branch1_res3_branch1_sub1_scale3" 
 top: "hourglass1_branch1_res3_branch1_sub1_relu3" 
}
layer {
 name: "hourglass1_branch1_res3_branch1_sub1_conv3"
 type: "Convolution" 
 bottom: "hourglass1_branch1_res3_branch1_sub1_relu3" 
 top: "hourglass1_branch1_res3_branch1_sub1_conv3" 
  param {
 	 lr_mult: 1
 	 decay_mult: 1
 }
 param {
 	 lr_mult: 2
 	 decay_mult: 0
 }
 convolution_param { 
 num_output: 128
 pad: 1
 kernel_size: 3
 stride:1
 weight_filler { 
 type: "gaussian"
 std: 0.01 
 }
 bias_filler {
 type: "constant"
 }
 }
 }
layer {
 name: "hourglass1_branch1_res3_branch1_sub2_bn1"
 type: "BatchNorm" 
 bottom: "hourglass1_branch1_res2" 
 top: "hourglass1_branch1_res3_branch1_sub2_bn1" 
 param { 
 lr_mult: 0 
 } 
 param { 
 lr_mult: 0 
 } 
 param { 
 lr_mult: 0 
 } 
 batch_norm_param {
        use_global_stats: false
 }
}
layer {
 name: "hourglass1_branch1_res3_branch1_sub2_scale1"
 type: "Scale" 
 bottom: "hourglass1_branch1_res3_branch1_sub2_bn1" 
 top: "hourglass1_branch1_res3_branch1_sub2_scale1" 
 scale_param { 
 bias_term: true 
 } 
 }
layer {
 name: "hourglass1_branch1_res3_branch1_sub2_relu1"
 type: "ReLU" 
 bottom: "hourglass1_branch1_res3_branch1_sub2_scale1" 
 top: "hourglass1_branch1_res3_branch1_sub2_relu1" 
}
layer {
 name: "hourglass1_branch1_res3_branch1_sub2_conv1"
 type: "Convolution" 
 bottom: "hourglass1_branch1_res3_branch1_sub2_relu1" 
 top: "hourglass1_branch1_res3_branch1_sub2_conv1" 
  param {
 	 lr_mult: 1
 	 decay_mult: 1
 }
 param {
 	 lr_mult: 2
 	 decay_mult: 0
 }
 convolution_param { 
 num_output: 128
 pad: 0
 kernel_size: 1
 stride:1
 weight_filler { 
 type: "gaussian"
 std: 0.01 
 }
 bias_filler {
 type: "constant"
 }
 }
 }
layer {
 name: "hourglass1_branch1_res3_branch1_sub2_bn2"
 type: "BatchNorm" 
 bottom: "hourglass1_branch1_res3_branch1_sub2_conv1" 
 top: "hourglass1_branch1_res3_branch1_sub2_bn2" 
 param { 
 lr_mult: 0 
 } 
 param { 
 lr_mult: 0 
 } 
 param { 
 lr_mult: 0 
 } 
 batch_norm_param {
        use_global_stats: false
 }
}
layer {
 name: "hourglass1_branch1_res3_branch1_sub2_scale2"
 type: "Scale" 
 bottom: "hourglass1_branch1_res3_branch1_sub2_bn2" 
 top: "hourglass1_branch1_res3_branch1_sub2_scale2" 
 scale_param { 
 bias_term: true 
 } 
 }
layer {
 name: "hourglass1_branch1_res3_branch1_sub2_relu2"
 type: "ReLU" 
 bottom: "hourglass1_branch1_res3_branch1_sub2_scale2" 
 top: "hourglass1_branch1_res3_branch1_sub2_relu2" 
}
layer {
 name: "hourglass1_branch1_res3_branch1_sub2_conv2"
 type: "Convolution" 
 bottom: "hourglass1_branch1_res3_branch1_sub2_relu2" 
 top: "hourglass1_branch1_res3_branch1_sub2_conv2" 
  param {
 	 lr_mult: 1
 	 decay_mult: 1
 }
 param {
 	 lr_mult: 2
 	 decay_mult: 0
 }
 convolution_param { 
 num_output: 128
 pad: 1
 kernel_size: 3
 stride:1
 weight_filler { 
 type: "gaussian"
 std: 0.01 
 }
 bias_filler {
 type: "constant"
 }
 }
 }
layer {
 name: "hourglass1_branch1_res3_branch1_concat"
 type: "Concat" 
 bottom: "hourglass1_branch1_res3_branch1_sub1_conv3" 
 top: "hourglass1_branch1_res3_branch1_concat" 
 bottom: "hourglass1_branch1_res3_branch1_sub2_conv2"
 concat_param { 
 axis: 1
 } 
}
layer {
 name: "hourglass1_branch1_res3_branch1_conv_linear"
 type: "Convolution" 
 bottom: "hourglass1_branch1_res3_branch1_concat" 
 top: "hourglass1_branch1_res3_branch1_conv_linear" 
  param {
 	 lr_mult: 1
 	 decay_mult: 1
 }
 param {
 	 lr_mult: 2
 	 decay_mult: 0
 }
 convolution_param { 
 num_output: 256
 pad: 0
 kernel_size: 1
 stride:1
 weight_filler { 
 type: "gaussian"
 std: 0.01 
 }
 bias_filler {
 type: "constant"
 }
 }
 }
layer {
 name: "hourglass1_branch1_res3_branch1_linear_batch"
 type: "BatchNorm" 
 bottom: "hourglass1_branch1_res3_branch1_conv_linear" 
 top: "hourglass1_branch1_res3_branch1_linear_batch" 
 param { 
 lr_mult: 0 
 } 
 param { 
 lr_mult: 0 
 } 
 param { 
 lr_mult: 0 
 } 
 batch_norm_param {
        use_global_stats: false
 }
}
layer {
 name: "hourglass1_branch1_res3_branch1_linear_scale"
 type: "Scale" 
 bottom: "hourglass1_branch1_res3_branch1_linear_batch" 
 top: "hourglass1_branch1_res3_branch1_linear_scale" 
 scale_param { 
 bias_term: true 
 } 
 }
layer {
 name: "hourglass1_branch1_res3_branch2_conv"
 type: "Convolution" 
 bottom: "hourglass1_branch1_res2" 
 top: "hourglass1_branch1_res3_branch2_conv" 
  param {
 	 lr_mult: 1
 	 decay_mult: 1
 }
 param {
 	 lr_mult: 2
 	 decay_mult: 0
 }
 convolution_param { 
 num_output: 256
 pad: 0
 kernel_size: 1
 stride:1
 weight_filler { 
 type: "gaussian"
 std: 0.01 
 }
 bias_filler {
 type: "constant"
 }
 }
 }
layer {
 name: "hourglass1_branch1_res3"
 type: "Eltwise" 
 bottom: "hourglass1_branch1_res3_branch1_linear_scale" 
 top: "hourglass1_branch1_res3" 
 bottom: "hourglass1_branch1_res3_branch2_conv" 
 eltwise_param { 
 operation: SUM 
 } 
 }
layer {
 name: "hourglass1_branch1_level4_pooling"
 type: "Pooling" 
 bottom: "hourglass1_branch1_res3" 
 top: "hourglass1_branch1_level4_pooling" 
 pooling_param { 
 pool: MAX 
 kernel_size: 2 
 stride: 2 
 } 
 }
layer {
 name: "hourglass1_branch1_level4_branch1_res1_branch1_bn1"
 type: "BatchNorm" 
 bottom: "hourglass1_branch1_level4_pooling" 
 top: "hourglass1_branch1_level4_branch1_res1_branch1_bn1" 
 param { 
 lr_mult: 0 
 } 
 param { 
 lr_mult: 0 
 } 
 param { 
 lr_mult: 0 
 } 
 batch_norm_param {
        use_global_stats: false
 }
}
layer {
 name: "hourglass1_branch1_level4_branch1_res1_branch1_scale1"
 type: "Scale" 
 bottom: "hourglass1_branch1_level4_branch1_res1_branch1_bn1" 
 top: "hourglass1_branch1_level4_branch1_res1_branch1_scale1" 
 scale_param { 
 bias_term: true 
 } 
 }
layer {
 name: "hourglass1_branch1_level4_branch1_res1_branch1_relu1"
 type: "ReLU" 
 bottom: "hourglass1_branch1_level4_branch1_res1_branch1_scale1" 
 top: "hourglass1_branch1_level4_branch1_res1_branch1_relu1" 
}
layer {
 name: "hourglass1_branch1_level4_branch1_res1_branch1_conv1"
 type: "Convolution" 
 bottom: "hourglass1_branch1_level4_branch1_res1_branch1_relu1" 
 top: "hourglass1_branch1_level4_branch1_res1_branch1_conv1" 
  param {
 	 lr_mult: 1
 	 decay_mult: 1
 }
 param {
 	 lr_mult: 2
 	 decay_mult: 0
 }
 convolution_param { 
 num_output: 128
 pad: 0
 kernel_size: 1
 stride:1
 weight_filler { 
 type: "gaussian"
 std: 0.01 
 }
 bias_filler {
 type: "constant"
 }
 }
 }
layer {
 name: "hourglass1_branch1_level4_branch1_res1_branch1_bn2"
 type: "BatchNorm" 
 bottom: "hourglass1_branch1_level4_branch1_res1_branch1_conv1" 
 top: "hourglass1_branch1_level4_branch1_res1_branch1_bn2" 
 param { 
 lr_mult: 0 
 } 
 param { 
 lr_mult: 0 
 } 
 param { 
 lr_mult: 0 
 } 
 batch_norm_param {
        use_global_stats: false
 }
}
layer {
 name: "hourglass1_branch1_level4_branch1_res1_branch1_scale2"
 type: "Scale" 
 bottom: "hourglass1_branch1_level4_branch1_res1_branch1_bn2" 
 top: "hourglass1_branch1_level4_branch1_res1_branch1_scale2" 
 scale_param { 
 bias_term: true 
 } 
 }
layer {
 name: "hourglass1_branch1_level4_branch1_res1_branch1_relu2"
 type: "ReLU" 
 bottom: "hourglass1_branch1_level4_branch1_res1_branch1_scale2" 
 top: "hourglass1_branch1_level4_branch1_res1_branch1_relu2" 
}
layer {
 name: "hourglass1_branch1_level4_branch1_res1_branch1_conv2"
 type: "Convolution" 
 bottom: "hourglass1_branch1_level4_branch1_res1_branch1_relu2" 
 top: "hourglass1_branch1_level4_branch1_res1_branch1_conv2" 
  param {
 	 lr_mult: 1
 	 decay_mult: 1
 }
 param {
 	 lr_mult: 2
 	 decay_mult: 0
 }
 convolution_param { 
 num_output: 128
 pad: 1
 kernel_size: 3
 stride:1
 weight_filler { 
 type: "gaussian"
 std: 0.01 
 }
 bias_filler {
 type: "constant"
 }
 }
 }
layer {
 name: "hourglass1_branch1_level4_branch1_res1_branch1_bn3"
 type: "BatchNorm" 
 bottom: "hourglass1_branch1_level4_branch1_res1_branch1_conv2" 
 top: "hourglass1_branch1_level4_branch1_res1_branch1_bn3" 
 param { 
 lr_mult: 0 
 } 
 param { 
 lr_mult: 0 
 } 
 param { 
 lr_mult: 0 
 } 
 batch_norm_param {
        use_global_stats: false
 }
}
layer {
 name: "hourglass1_branch1_level4_branch1_res1_branch1_scale3"
 type: "Scale" 
 bottom: "hourglass1_branch1_level4_branch1_res1_branch1_bn3" 
 top: "hourglass1_branch1_level4_branch1_res1_branch1_scale3" 
 scale_param { 
 bias_term: true 
 } 
 }
layer {
 name: "hourglass1_branch1_level4_branch1_res1_branch1_relu3"
 type: "ReLU" 
 bottom: "hourglass1_branch1_level4_branch1_res1_branch1_scale3" 
 top: "hourglass1_branch1_level4_branch1_res1_branch1_relu3" 
}
layer {
 name: "hourglass1_branch1_level4_branch1_res1_branch1_conv3"
 type: "Convolution" 
 bottom: "hourglass1_branch1_level4_branch1_res1_branch1_relu3" 
 top: "hourglass1_branch1_level4_branch1_res1_branch1_conv3" 
  param {
 	 lr_mult: 1
 	 decay_mult: 1
 }
 param {
 	 lr_mult: 2
 	 decay_mult: 0
 }
 convolution_param { 
 num_output: 256
 pad: 0
 kernel_size: 1
 stride:1
 weight_filler { 
 type: "gaussian"
 std: 0.01 
 }
 bias_filler {
 type: "constant"
 }
 }
 }
layer {
 name: "hourglass1_branch1_level4_branch1_res1_branch2_conv"
 type: "Convolution" 
 bottom: "hourglass1_branch1_level4_pooling" 
 top: "hourglass1_branch1_level4_branch1_res1_branch2_conv" 
  param {
 	 lr_mult: 1
 	 decay_mult: 1
 }
 param {
 	 lr_mult: 2
 	 decay_mult: 0
 }
 convolution_param { 
 num_output: 256
 pad: 0
 kernel_size: 1
 stride:1
 weight_filler { 
 type: "gaussian"
 std: 0.01 
 }
 bias_filler {
 type: "constant"
 }
 }
 }
layer {
 name: "hourglass1_branch1_level4_branch1_res1"
 type: "Eltwise" 
 bottom: "hourglass1_branch1_level4_branch1_res1_branch1_conv3" 
 top: "hourglass1_branch1_level4_branch1_res1" 
 bottom: "hourglass1_branch1_level4_branch1_res1_branch2_conv" 
 eltwise_param { 
 operation: SUM 
 } 
 }
layer {
 name: "hourglass1_branch1_level4_branch1_res2_branch1_bn1"
 type: "BatchNorm" 
 bottom: "hourglass1_branch1_level4_branch1_res1" 
 top: "hourglass1_branch1_level4_branch1_res2_branch1_bn1" 
 param { 
 lr_mult: 0 
 } 
 param { 
 lr_mult: 0 
 } 
 param { 
 lr_mult: 0 
 } 
 batch_norm_param {
        use_global_stats: false
 }
}
layer {
 name: "hourglass1_branch1_level4_branch1_res2_branch1_scale1"
 type: "Scale" 
 bottom: "hourglass1_branch1_level4_branch1_res2_branch1_bn1" 
 top: "hourglass1_branch1_level4_branch1_res2_branch1_scale1" 
 scale_param { 
 bias_term: true 
 } 
 }
layer {
 name: "hourglass1_branch1_level4_branch1_res2_branch1_relu1"
 type: "ReLU" 
 bottom: "hourglass1_branch1_level4_branch1_res2_branch1_scale1" 
 top: "hourglass1_branch1_level4_branch1_res2_branch1_relu1" 
}
layer {
 name: "hourglass1_branch1_level4_branch1_res2_branch1_conv1"
 type: "Convolution" 
 bottom: "hourglass1_branch1_level4_branch1_res2_branch1_relu1" 
 top: "hourglass1_branch1_level4_branch1_res2_branch1_conv1" 
  param {
 	 lr_mult: 1
 	 decay_mult: 1
 }
 param {
 	 lr_mult: 2
 	 decay_mult: 0
 }
 convolution_param { 
 num_output: 128
 pad: 0
 kernel_size: 1
 stride:1
 weight_filler { 
 type: "gaussian"
 std: 0.01 
 }
 bias_filler {
 type: "constant"
 }
 }
 }
layer {
 name: "hourglass1_branch1_level4_branch1_res2_branch1_bn2"
 type: "BatchNorm" 
 bottom: "hourglass1_branch1_level4_branch1_res2_branch1_conv1" 
 top: "hourglass1_branch1_level4_branch1_res2_branch1_bn2" 
 param { 
 lr_mult: 0 
 } 
 param { 
 lr_mult: 0 
 } 
 param { 
 lr_mult: 0 
 } 
 batch_norm_param {
        use_global_stats: false
 }
}
layer {
 name: "hourglass1_branch1_level4_branch1_res2_branch1_scale2"
 type: "Scale" 
 bottom: "hourglass1_branch1_level4_branch1_res2_branch1_bn2" 
 top: "hourglass1_branch1_level4_branch1_res2_branch1_scale2" 
 scale_param { 
 bias_term: true 
 } 
 }
layer {
 name: "hourglass1_branch1_level4_branch1_res2_branch1_relu2"
 type: "ReLU" 
 bottom: "hourglass1_branch1_level4_branch1_res2_branch1_scale2" 
 top: "hourglass1_branch1_level4_branch1_res2_branch1_relu2" 
}
layer {
 name: "hourglass1_branch1_level4_branch1_res2_branch1_conv2"
 type: "Convolution" 
 bottom: "hourglass1_branch1_level4_branch1_res2_branch1_relu2" 
 top: "hourglass1_branch1_level4_branch1_res2_branch1_conv2" 
  param {
 	 lr_mult: 1
 	 decay_mult: 1
 }
 param {
 	 lr_mult: 2
 	 decay_mult: 0
 }
 convolution_param { 
 num_output: 128
 pad: 1
 kernel_size: 3
 stride:1
 weight_filler { 
 type: "gaussian"
 std: 0.01 
 }
 bias_filler {
 type: "constant"
 }
 }
 }
layer {
 name: "hourglass1_branch1_level4_branch1_res2_branch1_bn3"
 type: "BatchNorm" 
 bottom: "hourglass1_branch1_level4_branch1_res2_branch1_conv2" 
 top: "hourglass1_branch1_level4_branch1_res2_branch1_bn3" 
 param { 
 lr_mult: 0 
 } 
 param { 
 lr_mult: 0 
 } 
 param { 
 lr_mult: 0 
 
 } 
 batch_norm_param {
        use_global_stats: false
 }
}
layer {
 name: "hourglass1_branch1_level4_branch1_res2_branch1_scale3"
 type: "Scale" 
 bottom: "hourglass1_branch1_level4_branch1_res2_branch1_bn3" 
 top: "hourglass1_branch1_level4_branch1_res2_branch1_scale3" 
 scale_param { 
 bias_term: true 
 } 
 }
layer {
 name: "hourglass1_branch1_level4_branch1_res2_branch1_relu3"
 type: "ReLU" 
 bottom: "hourglass1_branch1_level4_branch1_res2_branch1_scale3" 
 top: "hourglass1_branch1_level4_branch1_res2_branch1_relu3" 
}
layer {
 name: "hourglass1_branch1_level4_branch1_res2_branch1_conv3"
 type: "Convolution" 
 bottom: "hourglass1_branch1_level4_branch1_res2_branch1_relu3" 
 top: "hourglass1_branch1_level4_branch1_res2_branch1_conv3" 
  param {
 	 lr_mult: 1
 	 decay_mult: 1
 }
 param {
 	 lr_mult: 2
 	 decay_mult: 0
 }
 convolution_param { 
 num_output: 256
 pad: 0
 kernel_size: 1
 stride:1
 weight_filler { 
 type: "gaussian"
 std: 0.01 
 }
 bias_filler {
 type: "constant"
 }
 }
 }
layer {
 name: "hourglass1_branch1_level4_branch1_res2_branch2_conv"
 type: "Convolution" 
 bottom: "hourglass1_branch1_level4_branch1_res1" 
 top: "hourglass1_branch1_level4_branch1_res2_branch2_conv" 
  param {
 	 lr_mult: 1
 	 decay_mult: 1
 }
 param {
 	 lr_mult: 2
 	 decay_mult: 0
 }
 convolution_param { 
 num_output: 256
 pad: 0
 kernel_size: 1
 stride:1
 weight_filler { 
 type: "gaussian"
 std: 0.01 
 }
 bias_filler {
 type: "constant"
 }
 }
 }
layer {
 name: "hourglass1_branch1_level4_branch1_res2"
 type: "Eltwise" 
 bottom: "hourglass1_branch1_level4_branch1_res2_branch1_conv3" 
 top: "hourglass1_branch1_level4_branch1_res2" 
 bottom: "hourglass1_branch1_level4_branch1_res2_branch2_conv" 
 eltwise_param { 
 operation: SUM 
 } 
 }
layer {
 name: "hourglass1_branch1_level4_branch1_res3_branch1_bn1"
 type: "BatchNorm" 
 bottom: "hourglass1_branch1_level4_branch1_res2" 
 top: "hourglass1_branch1_level4_branch1_res3_branch1_bn1" 
 param { 
 lr_mult: 0 
 } 
 param { 
 lr_mult: 0 
 } 
 param { 
 lr_mult: 0 
 } 
 batch_norm_param {
        use_global_stats: false
 }
}
layer {
 name: "hourglass1_branch1_level4_branch1_res3_branch1_scale1"
 type: "Scale" 
 bottom: "hourglass1_branch1_level4_branch1_res3_branch1_bn1" 
 top: "hourglass1_branch1_level4_branch1_res3_branch1_scale1" 
 scale_param { 
 bias_term: true 
 } 
 }
layer {
 name: "hourglass1_branch1_level4_branch1_res3_branch1_relu1"
 type: "ReLU" 
 bottom: "hourglass1_branch1_level4_branch1_res3_branch1_scale1" 
 top: "hourglass1_branch1_level4_branch1_res3_branch1_relu1" 
}
layer {
 name: "hourglass1_branch1_level4_branch1_res3_branch1_conv1"
 type: "Convolution" 
 bottom: "hourglass1_branch1_level4_branch1_res3_branch1_relu1" 
 top: "hourglass1_branch1_level4_branch1_res3_branch1_conv1" 
  param {
 	 lr_mult: 1
 	 decay_mult: 1
 }
 param {
 	 lr_mult: 2
 	 decay_mult: 0
 }
 convolution_param { 
 num_output: 128
 pad: 0
 kernel_size: 1
 stride:1
 weight_filler { 
 type: "gaussian"
 std: 0.01 
 }
 bias_filler {
 type: "constant"
 }
 }
 }
layer {
 name: "hourglass1_branch1_level4_branch1_res3_branch1_bn2"
 type: "BatchNorm" 
 bottom: "hourglass1_branch1_level4_branch1_res3_branch1_conv1" 
 top: "hourglass1_branch1_level4_branch1_res3_branch1_bn2" 
 param { 
 lr_mult: 0 
 } 
 param { 
 lr_mult: 0 
 } 
 param { 
 lr_mult: 0 
 } 
 batch_norm_param {
        use_global_stats: false
 }
}
layer {
 name: "hourglass1_branch1_level4_branch1_res3_branch1_scale2"
 type: "Scale" 
 bottom: "hourglass1_branch1_level4_branch1_res3_branch1_bn2" 
 top: "hourglass1_branch1_level4_branch1_res3_branch1_scale2" 
 scale_param { 
 bias_term: true 
 } 
 }
layer {
 name: "hourglass1_branch1_level4_branch1_res3_branch1_relu2"
 type: "ReLU" 
 bottom: "hourglass1_branch1_level4_branch1_res3_branch1_scale2" 
 top: "hourglass1_branch1_level4_branch1_res3_branch1_relu2" 
}
layer {
 name: "hourglass1_branch1_level4_branch1_res3_branch1_conv2"
 type: "Convolution" 
 bottom: "hourglass1_branch1_level4_branch1_res3_branch1_relu2" 
 top: "hourglass1_branch1_level4_branch1_res3_branch1_conv2" 
  param {
 	 lr_mult: 1
 	 decay_mult: 1
 }
 param {
 	 lr_mult: 2
 	 decay_mult: 0
 }
 convolution_param { 
 num_output: 128
 pad: 1
 kernel_size: 3
 stride:1
 weight_filler { 
 type: "gaussian"
 std: 0.01 
 }
 bias_filler {
 type: "constant"
 }
 }
 }
layer {
 name: "hourglass1_branch1_level4_branch1_res3_branch1_bn3"
 type: "BatchNorm" 
 bottom: "hourglass1_branch1_level4_branch1_res3_branch1_conv2" 
 top: "hourglass1_branch1_level4_branch1_res3_branch1_bn3" 
 param { 
 lr_mult: 0 
 } 
 param { 
 lr_mult: 0 
 } 
 param { 
 lr_mult: 0 
 } 
 batch_norm_param {
        use_global_stats: false
 }
}
layer {
 name: "hourglass1_branch1_level4_branch1_res3_branch1_scale3"
 type: "Scale" 
 bottom: "hourglass1_branch1_level4_branch1_res3_branch1_bn3" 
 top: "hourglass1_branch1_level4_branch1_res3_branch1_scale3" 
 scale_param { 
 bias_term: true 
 } 
 }
layer {
 name: "hourglass1_branch1_level4_branch1_res3_branch1_relu3"
 type: "ReLU" 
 bottom: "hourglass1_branch1_level4_branch1_res3_branch1_scale3" 
 top: "hourglass1_branch1_level4_branch1_res3_branch1_relu3" 
}
layer {
 name: "hourglass1_branch1_level4_branch1_res3_branch1_conv3"
 type: "Convolution" 
 bottom: "hourglass1_branch1_level4_branch1_res3_branch1_relu3" 
 top: "hourglass1_branch1_level4_branch1_res3_branch1_conv3" 
  param {
 	 lr_mult: 1
 	 decay_mult: 1
 }
 param {
 	 lr_mult: 2
 	 decay_mult: 0
 }
 convolution_param { 
 num_output: 256
 pad: 0
 kernel_size: 1
 stride:1
 weight_filler { 
 type: "gaussian"
 std: 0.01 
 }
 bias_filler {
 type: "constant"
 }
 }
 }
layer {
 name: "hourglass1_branch1_level4_branch1_res3_branch2_conv"
 type: "Convolution" 
 bottom: "hourglass1_branch1_level4_branch1_res2" 
 top: "hourglass1_branch1_level4_branch1_res3_branch2_conv" 
  param {
 	 lr_mult: 1
 	 decay_mult: 1
 }
 param {
 	 lr_mult: 2
 	 decay_mult: 0
 }
 convolution_param { 
 num_output: 256
 pad: 0
 kernel_size: 1
 stride:1
 weight_filler { 
 type: "gaussian"
 std: 0.01 
 }
 bias_filler {
 type: "constant"
 }
 }
 }
layer {
 name: "hourglass1_branch1_level4_branch1_res3"
 type: "Eltwise" 
 bottom: "hourglass1_branch1_level4_branch1_res3_branch1_conv3" 
 top: "hourglass1_branch1_level4_branch1_res3" 
 bottom: "hourglass1_branch1_level4_branch1_res3_branch2_conv" 
 eltwise_param { 
 operation: SUM 
 } 
 }
layer {
 name: "hourglass1_branch1_level4_branch1_level3_pooling"
 type: "Pooling" 
 bottom: "hourglass1_branch1_level4_branch1_res3" 
 top: "hourglass1_branch1_level4_branch1_level3_pooling" 
 pooling_param { 
 pool: MAX 
 kernel_size: 2 
 stride: 2 
 } 
 }
layer {
 name: "hourglass1_branch1_level4_branch1_level3_branch1_res1_branch1_bn1"
 type: "BatchNorm" 
 bottom: "hourglass1_branch1_level4_branch1_level3_pooling" 
 top: "hourglass1_branch1_level4_branch1_level3_branch1_res1_branch1_bn1" 
 param { 
 lr_mult: 0 
 } 
 param { 
 lr_mult: 0 
 } 
 param { 
 lr_mult: 0 
 } 
 batch_norm_param {
        use_global_stats: false
 }
}
layer {
 name: "hourglass1_branch1_level4_branch1_level3_branch1_res1_branch1_scale1"
 type: "Scale" 
 bottom: "hourglass1_branch1_level4_branch1_level3_branch1_res1_branch1_bn1" 
 top: "hourglass1_branch1_level4_branch1_level3_branch1_res1_branch1_scale1" 
 scale_param { 
 bias_term: true 
 } 
 }
layer {
 name: "hourglass1_branch1_level4_branch1_level3_branch1_res1_branch1_relu1"
 type: "ReLU" 
 bottom: "hourglass1_branch1_level4_branch1_level3_branch1_res1_branch1_scale1" 
 top: "hourglass1_branch1_level4_branch1_level3_branch1_res1_branch1_relu1" 
}
layer {
 name: "hourglass1_branch1_level4_branch1_level3_branch1_res1_branch1_conv1"
 type: "Convolution" 
 bottom: "hourglass1_branch1_level4_branch1_level3_branch1_res1_branch1_relu1" 
 top: "hourglass1_branch1_level4_branch1_level3_branch1_res1_branch1_conv1" 
  param {
 	 lr_mult: 1
 	 decay_mult: 1
 }
 param {
 	 lr_mult: 2
 	 decay_mult: 0
 }
 convolution_param { 
 num_output: 128
 pad: 0
 kernel_size: 1
 stride:1
 weight_filler { 
 type: "gaussian"
 std: 0.01 
 }
 bias_filler {
 type: "constant"
 }
 }
 }
layer {
 name: "hourglass1_branch1_level4_branch1_level3_branch1_res1_branch1_bn2"
 type: "BatchNorm" 
 bottom: "hourglass1_branch1_level4_branch1_level3_branch1_res1_branch1_conv1" 
 top: "hourglass1_branch1_level4_branch1_level3_branch1_res1_branch1_bn2" 
 param { 
 lr_mult: 0 
 } 
 param { 
 lr_mult: 0 
 } 
 param { 
 lr_mult: 0 
 } 
 batch_norm_param {
        use_global_stats: false
 }
}
layer {
 name: "hourglass1_branch1_level4_branch1_level3_branch1_res1_branch1_scale2"
 type: "Scale" 
 bottom: "hourglass1_branch1_level4_branch1_level3_branch1_res1_branch1_bn2" 
 top: "hourglass1_branch1_level4_branch1_level3_branch1_res1_branch1_scale2" 
 scale_param { 
 bias_term: true 
 } 
 }
layer {
 name: "hourglass1_branch1_level4_branch1_level3_branch1_res1_branch1_relu2"
 type: "ReLU" 
 bottom: "hourglass1_branch1_level4_branch1_level3_branch1_res1_branch1_scale2" 
 top: "hourglass1_branch1_level4_branch1_level3_branch1_res1_branch1_relu2" 
}
layer {
 name: "hourglass1_branch1_level4_branch1_level3_branch1_res1_branch1_conv2"
 type: "Convolution" 
 bottom: "hourglass1_branch1_level4_branch1_level3_branch1_res1_branch1_relu2" 
 top: "hourglass1_branch1_level4_branch1_level3_branch1_res1_branch1_conv2" 
  param {
 	 lr_mult: 1
 	 decay_mult: 1
 }
 param {
 	 lr_mult: 2
 	 decay_mult: 0
 }
 convolution_param { 
 num_output: 128
 pad: 1
 kernel_size: 3
 stride:1
 weight_filler { 
 type: "gaussian"
 std: 0.01 
 }
 bias_filler {
 type: "constant"
 }
 }
 }
layer {
 name: "hourglass1_branch1_level4_branch1_level3_branch1_res1_branch1_bn3"
 type: "BatchNorm" 
 bottom: "hourglass1_branch1_level4_branch1_level3_branch1_res1_branch1_conv2" 
 top: "hourglass1_branch1_level4_branch1_level3_branch1_res1_branch1_bn3" 
 param { 
 lr_mult: 0 
 } 
 param { 
 lr_mult: 0 
 } 
 param { 
 lr_mult: 0 
 } 
 batch_norm_param {
        use_global_stats: false
 }
}
layer {
 name: "hourglass1_branch1_level4_branch1_level3_branch1_res1_branch1_scale3"
 type: "Scale" 
 bottom: "hourglass1_branch1_level4_branch1_level3_branch1_res1_branch1_bn3" 
 top: "hourglass1_branch1_level4_branch1_level3_branch1_res1_branch1_scale3" 
 scale_param { 
 bias_term: true 
 } 
 }
layer {
 name: "hourglass1_branch1_level4_branch1_level3_branch1_res1_branch1_relu3"
 type: "ReLU" 
 bottom: "hourglass1_branch1_level4_branch1_level3_branch1_res1_branch1_scale3" 
 top: "hourglass1_branch1_level4_branch1_level3_branch1_res1_branch1_relu3" 
}
layer {
 name: "hourglass1_branch1_level4_branch1_level3_branch1_res1_branch1_conv3"
 type: "Convolution" 
 bottom: "hourglass1_branch1_level4_branch1_level3_branch1_res1_branch1_relu3" 
 top: "hourglass1_branch1_level4_branch1_level3_branch1_res1_branch1_conv3" 
  param {
 	 lr_mult: 1
 	 decay_mult: 1
 }
 param {
 	 lr_mult: 2
 	 decay_mult: 0
 }
 convolution_param { 
 num_output: 256
 pad: 0
 kernel_size: 1
 stride:1
 weight_filler { 
 type: "gaussian"
 std: 0.01 
 }
 bias_filler {
 type: "constant"
 }
 }
 }
layer {
 name: "hourglass1_branch1_level4_branch1_level3_branch1_res1_branch2_conv"
 type: "Convolution" 
 bottom: "hourglass1_branch1_level4_branch1_level3_pooling" 
 top: "hourglass1_branch1_level4_branch1_level3_branch1_res1_branch2_conv" 
  param {
 	 lr_mult: 1
 	 decay_mult: 1
 }
 param {
 	 lr_mult: 2
 	 decay_mult: 0
 }
 convolution_param { 
 num_output: 256
 pad: 0
 kernel_size: 1
 stride:1
 weight_filler { 
 type: "gaussian"
 std: 0.01 
 }
 bias_filler {
 type: "constant"
 }
 }
 }
layer {
 name: "hourglass1_branch1_level4_branch1_level3_branch1_res1"
 type: "Eltwise" 
 bottom: "hourglass1_branch1_level4_branch1_level3_branch1_res1_branch1_conv3" 
 top: "hourglass1_branch1_level4_branch1_level3_branch1_res1" 
 bottom: "hourglass1_branch1_level4_branch1_level3_branch1_res1_branch2_conv" 
 eltwise_param { 
 operation: SUM 
 } 
 }
layer {
 name: "hourglass1_branch1_level4_branch1_level3_branch1_res2_branch1_bn1"
 type: "BatchNorm" 
 bottom: "hourglass1_branch1_level4_branch1_level3_branch1_res1" 
 top: "hourglass1_branch1_level4_branch1_level3_branch1_res2_branch1_bn1" 
 param { 
 lr_mult: 0 
 } 
 param { 
 lr_mult: 0 
 } 
 param { 
 lr_mult: 0 
 } 
 batch_norm_param {
        use_global_stats: false
 }
}
layer {
 name: "hourglass1_branch1_level4_branch1_level3_branch1_res2_branch1_scale1"
 type: "Scale" 
 bottom: "hourglass1_branch1_level4_branch1_level3_branch1_res2_branch1_bn1" 
 top: "hourglass1_branch1_level4_branch1_level3_branch1_res2_branch1_scale1" 
 scale_param { 
 bias_term: true 
 } 
 }
layer {
 name: "hourglass1_branch1_level4_branch1_level3_branch1_res2_branch1_relu1"
 type: "ReLU" 
 bottom: "hourglass1_branch1_level4_branch1_level3_branch1_res2_branch1_scale1" 
 top: "hourglass1_branch1_level4_branch1_level3_branch1_res2_branch1_relu1" 
}
layer {
 name: "hourglass1_branch1_level4_branch1_level3_branch1_res2_branch1_conv1"
 type: "Convolution" 
 bottom: "hourglass1_branch1_level4_branch1_level3_branch1_res2_branch1_relu1" 
 top: "hourglass1_branch1_level4_branch1_level3_branch1_res2_branch1_conv1" 
  param {
 	 lr_mult: 1
 	 decay_mult: 1
 }
 param {
 	 lr_mult: 2
 	 decay_mult: 0
 }
 convolution_param { 
 num_output: 128
 pad: 0
 kernel_size: 1
 stride:1
 weight_filler { 
 type: "gaussian"
 std: 0.01 
 }
 bias_filler {
 type: "constant"
 }
 }
 }
layer {
 name: "hourglass1_branch1_level4_branch1_level3_branch1_res2_branch1_bn2"
 type: "BatchNorm" 
 bottom: "hourglass1_branch1_level4_branch1_level3_branch1_res2_branch1_conv1" 
 top: "hourglass1_branch1_level4_branch1_level3_branch1_res2_branch1_bn2" 
 param { 
 lr_mult: 0 
 } 
 param { 
 lr_mult: 0 
 } 
 param { 
 lr_mult: 0 
 } 
 batch_norm_param {
        use_global_stats: false
 }
}
layer {
 name: "hourglass1_branch1_level4_branch1_level3_branch1_res2_branch1_scale2"
 type: "Scale" 
 bottom: "hourglass1_branch1_level4_branch1_level3_branch1_res2_branch1_bn2" 
 top: "hourglass1_branch1_level4_branch1_level3_branch1_res2_branch1_scale2" 
 scale_param { 
 bias_term: true 
 } 
 }
layer {
 name: "hourglass1_branch1_level4_branch1_level3_branch1_res2_branch1_relu2"
 type: "ReLU" 
 bottom: "hourglass1_branch1_level4_branch1_level3_branch1_res2_branch1_scale2" 
 top: "hourglass1_branch1_level4_branch1_level3_branch1_res2_branch1_relu2" 
}
layer {
 name: "hourglass1_branch1_level4_branch1_level3_branch1_res2_branch1_conv2"
 type: "Convolution" 
 bottom: "hourglass1_branch1_level4_branch1_level3_branch1_res2_branch1_relu2" 
 top: "hourglass1_branch1_level4_branch1_level3_branch1_res2_branch1_conv2" 
  param {
 	 lr_mult: 1
 	 decay_mult: 1
 }
 param {
 	 lr_mult: 2
 	 decay_mult: 0
 }
 convolution_param { 
 num_output: 128
 pad: 1
 kernel_size: 3
 stride:1
 weight_filler { 
 type: "gaussian"
 std: 0.01 
 }
 bias_filler {
 type: "constant"
 }
 }
 }
layer {
 name: "hourglass1_branch1_level4_branch1_level3_branch1_res2_branch1_bn3"
 type: "BatchNorm" 
 bottom: "hourglass1_branch1_level4_branch1_level3_branch1_res2_branch1_conv2" 
 top: "hourglass1_branch1_level4_branch1_level3_branch1_res2_branch1_bn3" 
 param { 
 lr_mult: 0 
 } 
 param { 
 lr_mult: 0 
 } 
 param { 
 lr_mult: 0 
 } 
 batch_norm_param {
        use_global_stats: false
 }
}
layer {
 name: "hourglass1_branch1_level4_branch1_level3_branch1_res2_branch1_scale3"
 type: "Scale" 
 bottom: "hourglass1_branch1_level4_branch1_level3_branch1_res2_branch1_bn3" 
 top: "hourglass1_branch1_level4_branch1_level3_branch1_res2_branch1_scale3" 
 scale_param { 
 bias_term: true 
 } 
 }
layer {
 name: "hourglass1_branch1_level4_branch1_level3_branch1_res2_branch1_relu3"
 type: "ReLU" 
 bottom: "hourglass1_branch1_level4_branch1_level3_branch1_res2_branch1_scale3" 
 top: "hourglass1_branch1_level4_branch1_level3_branch1_res2_branch1_relu3" 
}
layer {
 name: "hourglass1_branch1_level4_branch1_level3_branch1_res2_branch1_conv3"
 type: "Convolution" 
 bottom: "hourglass1_branch1_level4_branch1_level3_branch1_res2_branch1_relu3" 
 top: "hourglass1_branch1_level4_branch1_level3_branch1_res2_branch1_conv3" 
  param {
 	 lr_mult: 1
 	 decay_mult: 1
 }
 param {
 	 lr_mult: 2
 	 decay_mult: 0
 }
 convolution_param { 
 num_output: 256
 pad: 0
 kernel_size: 1
 stride:1
 weight_filler { 
 type: "gaussian"
 std: 0.01 
 }
 bias_filler {
 type: "constant"
 }
 }
 }
layer {
 name: "hourglass1_branch1_level4_branch1_level3_branch1_res2_branch2_conv"
 type: "Convolution" 
 bottom: "hourglass1_branch1_level4_branch1_level3_branch1_res1" 
 top: "hourglass1_branch1_level4_branch1_level3_branch1_res2_branch2_conv" 
  param {
 	 lr_mult: 1
 	 decay_mult: 1
 }
 param {
 	 lr_mult: 2
 	 decay_mult: 0
 }
 convolution_param { 
 num_output: 256
 pad: 0
 kernel_size: 1
 stride:1
 weight_filler { 
 type: "gaussian"
 std: 0.01 
 }
 bias_filler {
 type: "constant"
 }
 }
 }
layer {
 name: "hourglass1_branch1_level4_branch1_level3_branch1_res2"
 type: "Eltwise" 
 bottom: "hourglass1_branch1_level4_branch1_level3_branch1_res2_branch1_conv3" 
 top: "hourglass1_branch1_level4_branch1_level3_branch1_res2" 
 bottom: "hourglass1_branch1_level4_branch1_level3_branch1_res2_branch2_conv" 
 eltwise_param { 
 operation: SUM 
 } 
 }
layer {
 name: "hourglass1_branch1_level4_branch1_level3_branch1_res3_branch1_bn1"
 type: "BatchNorm" 
 bottom: "hourglass1_branch1_level4_branch1_level3_branch1_res2" 
 top: "hourglass1_branch1_level4_branch1_level3_branch1_res3_branch1_bn1" 
 param { 
 lr_mult: 0 
 } 
 param { 
 lr_mult: 0 
 } 
 param { 
 lr_mult: 0 
 } 
 batch_norm_param {
        use_global_stats: false
 }
}
layer {
 name: "hourglass1_branch1_level4_branch1_level3_branch1_res3_branch1_scale1"
 type: "Scale" 
 bottom: "hourglass1_branch1_level4_branch1_level3_branch1_res3_branch1_bn1" 
 top: "hourglass1_branch1_level4_branch1_level3_branch1_res3_branch1_scale1" 
 scale_param { 
 bias_term: true 
 } 
 }
layer {
 name: "hourglass1_branch1_level4_branch1_level3_branch1_res3_branch1_relu1"
 type: "ReLU" 
 bottom: "hourglass1_branch1_level4_branch1_level3_branch1_res3_branch1_scale1" 
 top: "hourglass1_branch1_level4_branch1_level3_branch1_res3_branch1_relu1" 
}
layer {
 name: "hourglass1_branch1_level4_branch1_level3_branch1_res3_branch1_conv1"
 type: "Convolution" 
 bottom: "hourglass1_branch1_level4_branch1_level3_branch1_res3_branch1_relu1" 
 top: "hourglass1_branch1_level4_branch1_level3_branch1_res3_branch1_conv1" 
  param {
 	 lr_mult: 1
 	 decay_mult: 1
 }
 param {
 	 lr_mult: 2
 	 decay_mult: 0
 }
 convolution_param { 
 num_output: 128
 pad: 0
 kernel_size: 1
 stride:1
 weight_filler { 
 type: "gaussian"
 std: 0.01 
 }
 bias_filler {
 type: "constant"
 }
 }
 }
layer {
 name: "hourglass1_branch1_level4_branch1_level3_branch1_res3_branch1_bn2"
 type: "BatchNorm" 
 bottom: "hourglass1_branch1_level4_branch1_level3_branch1_res3_branch1_conv1" 
 top: "hourglass1_branch1_level4_branch1_level3_branch1_res3_branch1_bn2" 
 param { 
 lr_mult: 0 
 } 
 param { 
 lr_mult: 0 
 } 
 param { 
 lr_mult: 0 
 } 
 batch_norm_param {
        use_global_stats: false
 }
}
layer {
 name: "hourglass1_branch1_level4_branch1_level3_branch1_res3_branch1_scale2"
 type: "Scale" 
 bottom: "hourglass1_branch1_level4_branch1_level3_branch1_res3_branch1_bn2" 
 top: "hourglass1_branch1_level4_branch1_level3_branch1_res3_branch1_scale2" 
 scale_param { 
 bias_term: true 
 } 
 }
layer {
 name: "hourglass1_branch1_level4_branch1_level3_branch1_res3_branch1_relu2"
 type: "ReLU" 
 bottom: "hourglass1_branch1_level4_branch1_level3_branch1_res3_branch1_scale2" 
 top: "hourglass1_branch1_level4_branch1_level3_branch1_res3_branch1_relu2" 
}
layer {
 name: "hourglass1_branch1_level4_branch1_level3_branch1_res3_branch1_conv2"
 type: "Convolution" 
 bottom: "hourglass1_branch1_level4_branch1_level3_branch1_res3_branch1_relu2" 
 top: "hourglass1_branch1_level4_branch1_level3_branch1_res3_branch1_conv2" 
  param {
 	 lr_mult: 1
 	 decay_mult: 1
 }
 param {
 	 lr_mult: 2
 	 decay_mult: 0
 }
 convolution_param { 
 num_output: 128
 pad: 1
 kernel_size: 3
 stride:1
 weight_filler { 
 type: "gaussian"
 std: 0.01 
 }
 bias_filler {
 type: "constant"
 }
 }
 }
layer {
 name: "hourglass1_branch1_level4_branch1_level3_branch1_res3_branch1_bn3"
 type: "BatchNorm" 
 bottom: "hourglass1_branch1_level4_branch1_level3_branch1_res3_branch1_conv2" 
 top: "hourglass1_branch1_level4_branch1_level3_branch1_res3_branch1_bn3" 
 param { 
 lr_mult: 0 
 } 
 param { 
 lr_mult: 0 
 } 
 param { 
 lr_mult: 0 
 } 
 batch_norm_param {
        use_global_stats: false
 }
}
layer {
 name: "hourglass1_branch1_level4_branch1_level3_branch1_res3_branch1_scale3"
 type: "Scale" 
 bottom: "hourglass1_branch1_level4_branch1_level3_branch1_res3_branch1_bn3" 
 top: "hourglass1_branch1_level4_branch1_level3_branch1_res3_branch1_scale3" 
 scale_param { 
 bias_term: true 
 } 
 }
layer {
 name: "hourglass1_branch1_level4_branch1_level3_branch1_res3_branch1_relu3"
 type: "ReLU" 
 bottom: "hourglass1_branch1_level4_branch1_level3_branch1_res3_branch1_scale3" 
 top: "hourglass1_branch1_level4_branch1_level3_branch1_res3_branch1_relu3" 
}
layer {
 name: "hourglass1_branch1_level4_branch1_level3_branch1_res3_branch1_conv3"
 type: "Convolution" 
 bottom: "hourglass1_branch1_level4_branch1_level3_branch1_res3_branch1_relu3" 
 top: "hourglass1_branch1_level4_branch1_level3_branch1_res3_branch1_conv3" 
  param {
 	 lr_mult: 1
 	 decay_mult: 1
 }
 param {
 	 lr_mult: 2
 	 decay_mult: 0
 }
 convolution_param { 
 num_output: 256
 pad: 0
 kernel_size: 1
 stride:1
 weight_filler { 
 type: "gaussian"
 std: 0.01 
 }
 bias_filler {
 type: "constant"
 }
 }
 }
layer {
 name: "hourglass1_branch1_level4_branch1_level3_branch1_res3_branch2_conv"
 type: "Convolution" 
 bottom: "hourglass1_branch1_level4_branch1_level3_branch1_res2" 
 top: "hourglass1_branch1_level4_branch1_level3_branch1_res3_branch2_conv" 
  param {
 	 lr_mult: 1
 	 decay_mult: 1
 }
 param {
 	 lr_mult: 2
 	 decay_mult: 0
 }
 convolution_param { 
 num_output: 256
 pad: 0
 kernel_size: 1
 stride:1
 weight_filler { 
 type: "gaussian"
 std: 0.01 
 }
 bias_filler {
 type: "constant"
 }
 }
 }
layer {
 name: "hourglass1_branch1_level4_branch1_level3_branch1_res3"
 type: "Eltwise" 
 bottom: "hourglass1_branch1_level4_branch1_level3_branch1_res3_branch1_conv3" 
 top: "hourglass1_branch1_level4_branch1_level3_branch1_res3" 
 bottom: "hourglass1_branch1_level4_branch1_level3_branch1_res3_branch2_conv" 
 eltwise_param { 
 operation: SUM 
 } 
 }
layer {
 name: "hourglass1_branch1_level4_branch1_level3_branch1_level2_pooling"
 type: "Pooling" 
 bottom: "hourglass1_branch1_level4_branch1_level3_branch1_res3" 
 top: "hourglass1_branch1_level4_branch1_level3_branch1_level2_pooling" 
 pooling_param { 
 pool: MAX 
 kernel_size: 2 
 stride: 2 
 } 
 }
layer {
 name: "hourglass1_branch1_level4_branch1_level3_branch1_level2_branch1_res1_branch1_bn1"
 type: "BatchNorm" 
 bottom: "hourglass1_branch1_level4_branch1_level3_branch1_level2_pooling" 
 top: "hourglass1_branch1_level4_branch1_level3_branch1_level2_branch1_res1_branch1_bn1" 
 param { 
 lr_mult: 0 
 } 
 param { 
 lr_mult: 0 
 } 
 param { 
 lr_mult: 0 
 } 
 batch_norm_param {
        use_global_stats: false
 }
}
layer {
 name: "hourglass1_branch1_level4_branch1_level3_branch1_level2_branch1_res1_branch1_scale1"
 type: "Scale" 
 bottom: "hourglass1_branch1_level4_branch1_level3_branch1_level2_branch1_res1_branch1_bn1" 
 top: "hourglass1_branch1_level4_branch1_level3_branch1_level2_branch1_res1_branch1_scale1" 
 scale_param { 
 bias_term: true 
 } 
 }
layer {
 name: "hourglass1_branch1_level4_branch1_level3_branch1_level2_branch1_res1_branch1_relu1"
 type: "ReLU" 
 bottom: "hourglass1_branch1_level4_branch1_level3_branch1_level2_branch1_res1_branch1_scale1" 
 top: "hourglass1_branch1_level4_branch1_level3_branch1_level2_branch1_res1_branch1_relu1" 
}
layer {
 name: "hourglass1_branch1_level4_branch1_level3_branch1_level2_branch1_res1_branch1_conv1"
 type: "Convolution" 
 bottom: "hourglass1_branch1_level4_branch1_level3_branch1_level2_branch1_res1_branch1_relu1" 
 top: "hourglass1_branch1_level4_branch1_level3_branch1_level2_branch1_res1_branch1_conv1" 
  param {
 	 lr_mult: 1
 	 decay_mult: 1
 }
 param {
 	 lr_mult: 2
 	 decay_mult: 0
 }
 convolution_param { 
 num_output: 128
 pad: 0
 kernel_size: 1
 stride:1
 weight_filler { 
 type: "gaussian"
 std: 0.01 
 }
 bias_filler {
 type: "constant"
 }
 }
 }
layer {
 name: "hourglass1_branch1_level4_branch1_level3_branch1_level2_branch1_res1_branch1_bn2"
 type: "BatchNorm" 
 bottom: "hourglass1_branch1_level4_branch1_level3_branch1_level2_branch1_res1_branch1_conv1" 
 top: "hourglass1_branch1_level4_branch1_level3_branch1_level2_branch1_res1_branch1_bn2" 
 param { 
 lr_mult: 0 
 } 
 param { 
 lr_mult: 0 
 } 
 param { 
 lr_mult: 0 
 } 
 batch_norm_param {
        use_global_stats: false
 }
}
layer {
 name: "hourglass1_branch1_level4_branch1_level3_branch1_level2_branch1_res1_branch1_scale2"
 type: "Scale" 
 bottom: "hourglass1_branch1_level4_branch1_level3_branch1_level2_branch1_res1_branch1_bn2" 
 top: "hourglass1_branch1_level4_branch1_level3_branch1_level2_branch1_res1_branch1_scale2" 
 scale_param { 
 bias_term: true 
 } 
 }
layer {
 name: "hourglass1_branch1_level4_branch1_level3_branch1_level2_branch1_res1_branch1_relu2"
 type: "ReLU" 
 bottom: "hourglass1_branch1_level4_branch1_level3_branch1_level2_branch1_res1_branch1_scale2" 
 top: "hourglass1_branch1_level4_branch1_level3_branch1_level2_branch1_res1_branch1_relu2" 
}
layer {
 name: "hourglass1_branch1_level4_branch1_level3_branch1_level2_branch1_res1_branch1_conv2"
 type: "Convolution" 
 bottom: "hourglass1_branch1_level4_branch1_level3_branch1_level2_branch1_res1_branch1_relu2" 
 top: "hourglass1_branch1_level4_branch1_level3_branch1_level2_branch1_res1_branch1_conv2" 
  param {
 	 lr_mult: 1
 	 decay_mult: 1
 }
 param {
 	 lr_mult: 2
 	 decay_mult: 0
 }
 convolution_param { 
 num_output: 128
 pad: 1
 kernel_size: 3
 stride:1
 weight_filler { 
 type: "gaussian"
 std: 0.01 
 }
 bias_filler {
 type: "constant"
 }
 }
 }
layer {
 name: "hourglass1_branch1_level4_branch1_level3_branch1_level2_branch1_res1_branch1_bn3"
 type: "BatchNorm" 
 bottom: "hourglass1_branch1_level4_branch1_level3_branch1_level2_branch1_res1_branch1_conv2" 
 top: "hourglass1_branch1_level4_branch1_level3_branch1_level2_branch1_res1_branch1_bn3" 
 param { 
 lr_mult: 0 
 } 
 param { 
 lr_mult: 0 
 } 
 param { 
 lr_mult: 0 
 } 
 batch_norm_param {
        use_global_stats: false
 }
}
layer {
 name: "hourglass1_branch1_level4_branch1_level3_branch1_level2_branch1_res1_branch1_scale3"
 type: "Scale" 
 bottom: "hourglass1_branch1_level4_branch1_level3_branch1_level2_branch1_res1_branch1_bn3" 
 top: "hourglass1_branch1_level4_branch1_level3_branch1_level2_branch1_res1_branch1_scale3" 
 scale_param { 
 bias_term: true 
 } 
 }
layer {
 name: "hourglass1_branch1_level4_branch1_level3_branch1_level2_branch1_res1_branch1_relu3"
 type: "ReLU" 
 bottom: "hourglass1_branch1_level4_branch1_level3_branch1_level2_branch1_res1_branch1_scale3" 
 top: "hourglass1_branch1_level4_branch1_level3_branch1_level2_branch1_res1_branch1_relu3" 
}
layer {
 name: "hourglass1_branch1_level4_branch1_level3_branch1_level2_branch1_res1_branch1_conv3"
 type: "Convolution" 
 bottom: "hourglass1_branch1_level4_branch1_level3_branch1_level2_branch1_res1_branch1_relu3" 
 top: "hourglass1_branch1_level4_branch1_level3_branch1_level2_branch1_res1_branch1_conv3" 
  param {
 	 lr_mult: 1
 	 decay_mult: 1
 }
 param {
 	 lr_mult: 2
 	 decay_mult: 0
 }
 convolution_param { 
 num_output: 256
 pad: 0
 kernel_size: 1
 stride:1
 weight_filler { 
 type: "gaussian"
 std: 0.01 
 }
 bias_filler {
 type: "constant"
 }
 }
 }
layer {
 name: "hourglass1_branch1_level4_branch1_level3_branch1_level2_branch1_res1_branch2_conv"
 type: "Convolution" 
 bottom: "hourglass1_branch1_level4_branch1_level3_branch1_level2_pooling" 
 top: "hourglass1_branch1_level4_branch1_level3_branch1_level2_branch1_res1_branch2_conv" 
  param {
 	 lr_mult: 1
 	 decay_mult: 1
 }
 param {
 	 lr_mult: 2
 	 decay_mult: 0
 }
 convolution_param { 
 num_output: 256
 pad: 0
 kernel_size: 1
 stride:1
 weight_filler { 
 type: "gaussian"
 std: 0.01 
 }
 bias_filler {
 type: "constant"
 }
 }
 }
layer {
 name: "hourglass1_branch1_level4_branch1_level3_branch1_level2_branch1_res1"
 type: "Eltwise" 
 bottom: "hourglass1_branch1_level4_branch1_level3_branch1_level2_branch1_res1_branch1_conv3" 
 top: "hourglass1_branch1_level4_branch1_level3_branch1_level2_branch1_res1" 
 bottom: "hourglass1_branch1_level4_branch1_level3_branch1_level2_branch1_res1_branch2_conv" 
 eltwise_param { 
 operation: SUM 
 } 
 }
layer {
 name: "hourglass1_branch1_level4_branch1_level3_branch1_level2_branch1_res2_branch1_bn1"
 type: "BatchNorm" 
 bottom: "hourglass1_branch1_level4_branch1_level3_branch1_level2_branch1_res1" 
 top: "hourglass1_branch1_level4_branch1_level3_branch1_level2_branch1_res2_branch1_bn1" 
 param { 
 lr_mult: 0 
 } 
 param { 
 lr_mult: 0 
 } 
 param { 
 lr_mult: 0 
 } 
 batch_norm_param {
        use_global_stats: false
 }
}
layer {
 name: "hourglass1_branch1_level4_branch1_level3_branch1_level2_branch1_res2_branch1_scale1"
 type: "Scale" 
 bottom: "hourglass1_branch1_level4_branch1_level3_branch1_level2_branch1_res2_branch1_bn1" 
 top: "hourglass1_branch1_level4_branch1_level3_branch1_level2_branch1_res2_branch1_scale1" 
 scale_param { 
 bias_term: true 
 } 
 }
layer {
 name: "hourglass1_branch1_level4_branch1_level3_branch1_level2_branch1_res2_branch1_relu1"
 type: "ReLU" 
 bottom: "hourglass1_branch1_level4_branch1_level3_branch1_level2_branch1_res2_branch1_scale1" 
 top: "hourglass1_branch1_level4_branch1_level3_branch1_level2_branch1_res2_branch1_relu1" 
}
layer {
 name: "hourglass1_branch1_level4_branch1_level3_branch1_level2_branch1_res2_branch1_conv1"
 type: "Convolution" 
 bottom: "hourglass1_branch1_level4_branch1_level3_branch1_level2_branch1_res2_branch1_relu1" 
 top: "hourglass1_branch1_level4_branch1_level3_branch1_level2_branch1_res2_branch1_conv1" 
  param {
 	 lr_mult: 1
 	 decay_mult: 1
 }
 param {
 	 lr_mult: 2
 	 decay_mult: 0
 }
 convolution_param { 
 num_output: 128
 pad: 0
 kernel_size: 1
 stride:1
 weight_filler { 
 type: "gaussian"
 std: 0.01 
 }
 bias_filler {
 type: "constant"
 }
 }
 }
layer {
 name: "hourglass1_branch1_level4_branch1_level3_branch1_level2_branch1_res2_branch1_bn2"
 type: "BatchNorm" 
 bottom: "hourglass1_branch1_level4_branch1_level3_branch1_level2_branch1_res2_branch1_conv1" 
 top: "hourglass1_branch1_level4_branch1_level3_branch1_level2_branch1_res2_branch1_bn2" 
 param { 
 lr_mult: 0 
 } 
 param { 
 lr_mult: 0 
 } 
 param { 
 lr_mult: 0 
 } 
 batch_norm_param {
        use_global_stats: false
 }
}
layer {
 name: "hourglass1_branch1_level4_branch1_level3_branch1_level2_branch1_res2_branch1_scale2"
 type: "Scale" 
 bottom: "hourglass1_branch1_level4_branch1_level3_branch1_level2_branch1_res2_branch1_bn2" 
 top: "hourglass1_branch1_level4_branch1_level3_branch1_level2_branch1_res2_branch1_scale2" 
 scale_param { 
 bias_term: true 
 } 
 }
layer {
 name: "hourglass1_branch1_level4_branch1_level3_branch1_level2_branch1_res2_branch1_relu2"
 type: "ReLU" 
 bottom: "hourglass1_branch1_level4_branch1_level3_branch1_level2_branch1_res2_branch1_scale2" 
 top: "hourglass1_branch1_level4_branch1_level3_branch1_level2_branch1_res2_branch1_relu2" 
}
layer {
 name: "hourglass1_branch1_level4_branch1_level3_branch1_level2_branch1_res2_branch1_conv2"
 type: "Convolution" 
 bottom: "hourglass1_branch1_level4_branch1_level3_branch1_level2_branch1_res2_branch1_relu2" 
 top: "hourglass1_branch1_level4_branch1_level3_branch1_level2_branch1_res2_branch1_conv2" 
  param {
 	 lr_mult: 1
 	 decay_mult: 1
 }
 param {
 	 lr_mult: 2
 	 decay_mult: 0
 }
 convolution_param { 
 num_output: 128
 pad: 1
 kernel_size: 3
 stride:1
 weight_filler { 
 type: "gaussian"
 std: 0.01 
 }
 bias_filler {
 type: "constant"
 }
 }
 }
layer {
 name: "hourglass1_branch1_level4_branch1_level3_branch1_level2_branch1_res2_branch1_bn3"
 type: "BatchNorm" 
 bottom: "hourglass1_branch1_level4_branch1_level3_branch1_level2_branch1_res2_branch1_conv2" 
 top: "hourglass1_branch1_level4_branch1_level3_branch1_level2_branch1_res2_branch1_bn3" 
 param { 
 lr_mult: 0 
 } 
 param { 
 lr_mult: 0 
 } 
 param { 
 lr_mult: 0 
 } 
 batch_norm_param {
        use_global_stats: false
 }
}
layer {
 name: "hourglass1_branch1_level4_branch1_level3_branch1_level2_branch1_res2_branch1_scale3"
 type: "Scale" 
 bottom: "hourglass1_branch1_level4_branch1_level3_branch1_level2_branch1_res2_branch1_bn3" 
 top: "hourglass1_branch1_level4_branch1_level3_branch1_level2_branch1_res2_branch1_scale3" 
 scale_param { 
 bias_term: true 
 } 
 }
layer {
 name: "hourglass1_branch1_level4_branch1_level3_branch1_level2_branch1_res2_branch1_relu3"
 type: "ReLU" 
 bottom: "hourglass1_branch1_level4_branch1_level3_branch1_level2_branch1_res2_branch1_scale3" 
 top: "hourglass1_branch1_level4_branch1_level3_branch1_level2_branch1_res2_branch1_relu3" 
}
layer {
 name: "hourglass1_branch1_level4_branch1_level3_branch1_level2_branch1_res2_branch1_conv3"
 type: "Convolution" 
 bottom: "hourglass1_branch1_level4_branch1_level3_branch1_level2_branch1_res2_branch1_relu3" 
 top: "hourglass1_branch1_level4_branch1_level3_branch1_level2_branch1_res2_branch1_conv3" 
  param {
 	 lr_mult: 1
 	 decay_mult: 1
 }
 param {
 	 lr_mult: 2
 	 decay_mult: 0
 }
 convolution_param { 
 num_output: 256
 pad: 0
 kernel_size: 1
 stride:1
 weight_filler { 
 type: "gaussian"
 std: 0.01 
 }
 bias_filler {
 type: "constant"
 }
 }
 }
layer {
 name: "hourglass1_branch1_level4_branch1_level3_branch1_level2_branch1_res2_branch2_conv"
 type: "Convolution" 
 bottom: "hourglass1_branch1_level4_branch1_level3_branch1_level2_branch1_res1" 
 top: "hourglass1_branch1_level4_branch1_level3_branch1_level2_branch1_res2_branch2_conv" 
  param {
 	 lr_mult: 1
 	 decay_mult: 1
 }
 param {
 	 lr_mult: 2
 	 decay_mult: 0
 }
 convolution_param { 
 num_output: 256
 pad: 0
 kernel_size: 1
 stride:1
 weight_filler { 
 type: "gaussian"
 std: 0.01 
 }
 bias_filler {
 type: "constant"
 }
 }
 }
layer {
 name: "hourglass1_branch1_level4_branch1_level3_branch1_level2_branch1_res2"
 type: "Eltwise" 
 bottom: "hourglass1_branch1_level4_branch1_level3_branch1_level2_branch1_res2_branch1_conv3" 
 top: "hourglass1_branch1_level4_branch1_level3_branch1_level2_branch1_res2" 
 bottom: "hourglass1_branch1_level4_branch1_level3_branch1_level2_branch1_res2_branch2_conv" 
 eltwise_param { 
 operation: SUM 
 } 
 }
layer {
 name: "hourglass1_branch1_level4_branch1_level3_branch1_level2_branch1_res3_branch1_bn1"
 type: "BatchNorm" 
 bottom: "hourglass1_branch1_level4_branch1_level3_branch1_level2_branch1_res2" 
 top: "hourglass1_branch1_level4_branch1_level3_branch1_level2_branch1_res3_branch1_bn1" 
 param { 
 lr_mult: 0 
 } 
 param { 
 lr_mult: 0 
 } 
 param { 
 lr_mult: 0 
 } 
 batch_norm_param {
        use_global_stats: false
 }
}
layer {
 name: "hourglass1_branch1_level4_branch1_level3_branch1_level2_branch1_res3_branch1_scale1"
 type: "Scale" 
 bottom: "hourglass1_branch1_level4_branch1_level3_branch1_level2_branch1_res3_branch1_bn1" 
 top: "hourglass1_branch1_level4_branch1_level3_branch1_level2_branch1_res3_branch1_scale1" 
 scale_param { 
 bias_term: true 
 } 
 }
layer {
 name: "hourglass1_branch1_level4_branch1_level3_branch1_level2_branch1_res3_branch1_relu1"
 type: "ReLU" 
 bottom: "hourglass1_branch1_level4_branch1_level3_branch1_level2_branch1_res3_branch1_scale1" 
 top: "hourglass1_branch1_level4_branch1_level3_branch1_level2_branch1_res3_branch1_relu1" 
}
layer {
 name: "hourglass1_branch1_level4_branch1_level3_branch1_level2_branch1_res3_branch1_conv1"
 type: "Convolution" 
 bottom: "hourglass1_branch1_level4_branch1_level3_branch1_level2_branch1_res3_branch1_relu1" 
 top: "hourglass1_branch1_level4_branch1_level3_branch1_level2_branch1_res3_branch1_conv1" 
  param {
 	 lr_mult: 1
 	 decay_mult: 1
 }
 param {
 	 lr_mult: 2
 	 decay_mult: 0
 }
 convolution_param { 
 num_output: 128
 pad: 0
 kernel_size: 1
 stride:1
 weight_filler { 
 type: "gaussian"
 std: 0.01 
 }
 bias_filler {
 type: "constant"
 }
 }
 }
layer {
 name: "hourglass1_branch1_level4_branch1_level3_branch1_level2_branch1_res3_branch1_bn2"
 type: "BatchNorm" 
 bottom: "hourglass1_branch1_level4_branch1_level3_branch1_level2_branch1_res3_branch1_conv1" 
 top: "hourglass1_branch1_level4_branch1_level3_branch1_level2_branch1_res3_branch1_bn2" 
 param { 
 lr_mult: 0 
 } 
 param { 
 lr_mult: 0 
 } 
 param { 
 lr_mult: 0 
 } 
 batch_norm_param {
        use_global_stats: false
 }
}
layer {
 name: "hourglass1_branch1_level4_branch1_level3_branch1_level2_branch1_res3_branch1_scale2"
 type: "Scale" 
 bottom: "hourglass1_branch1_level4_branch1_level3_branch1_level2_branch1_res3_branch1_bn2" 
 top: "hourglass1_branch1_level4_branch1_level3_branch1_level2_branch1_res3_branch1_scale2" 
 scale_param { 
 bias_term: true 
 } 
 }
layer {
 name: "hourglass1_branch1_level4_branch1_level3_branch1_level2_branch1_res3_branch1_relu2"
 type: "ReLU" 
 bottom: "hourglass1_branch1_level4_branch1_level3_branch1_level2_branch1_res3_branch1_scale2" 
 top: "hourglass1_branch1_level4_branch1_level3_branch1_level2_branch1_res3_branch1_relu2" 
}
layer {
 name: "hourglass1_branch1_level4_branch1_level3_branch1_level2_branch1_res3_branch1_conv2"
 type: "Convolution" 
 bottom: "hourglass1_branch1_level4_branch1_level3_branch1_level2_branch1_res3_branch1_relu2" 
 top: "hourglass1_branch1_level4_branch1_level3_branch1_level2_branch1_res3_branch1_conv2" 
  param {
 	 lr_mult: 1
 	 decay_mult: 1
 }
 param {
 	 lr_mult: 2
 	 decay_mult: 0
 }
 convolution_param { 
 num_output: 128
 pad: 1
 kernel_size: 3
 stride:1
 weight_filler { 
 type: "gaussian"
 std: 0.01 
 }
 bias_filler {
 type: "constant"
 }
 }
 }
layer {
 name: "hourglass1_branch1_level4_branch1_level3_branch1_level2_branch1_res3_branch1_bn3"
 type: "BatchNorm" 
 bottom: "hourglass1_branch1_level4_branch1_level3_branch1_level2_branch1_res3_branch1_conv2" 
 top: "hourglass1_branch1_level4_branch1_level3_branch1_level2_branch1_res3_branch1_bn3" 
 param { 
 lr_mult: 0 
 } 
 param { 
 lr_mult: 0 
 } 
 param { 
 lr_mult: 0 
 } 
 batch_norm_param {
        use_global_stats: false
 }
}
layer {
 name: "hourglass1_branch1_level4_branch1_level3_branch1_level2_branch1_res3_branch1_scale3"
 type: "Scale" 
 bottom: "hourglass1_branch1_level4_branch1_level3_branch1_level2_branch1_res3_branch1_bn3" 
 top: "hourglass1_branch1_level4_branch1_level3_branch1_level2_branch1_res3_branch1_scale3" 
 scale_param { 
 bias_term: true 
 } 
 }
layer {
 name: "hourglass1_branch1_level4_branch1_level3_branch1_level2_branch1_res3_branch1_relu3"
 type: "ReLU" 
 bottom: "hourglass1_branch1_level4_branch1_level3_branch1_level2_branch1_res3_branch1_scale3" 
 top: "hourglass1_branch1_level4_branch1_level3_branch1_level2_branch1_res3_branch1_relu3" 
}
layer {
 name: "hourglass1_branch1_level4_branch1_level3_branch1_level2_branch1_res3_branch1_conv3"
 type: "Convolution" 
 bottom: "hourglass1_branch1_level4_branch1_level3_branch1_level2_branch1_res3_branch1_relu3" 
 top: "hourglass1_branch1_level4_branch1_level3_branch1_level2_branch1_res3_branch1_conv3" 
  param {
 	 lr_mult: 1
 	 decay_mult: 1
 }
 param {
 	 lr_mult: 2
 	 decay_mult: 0
 }
 convolution_param { 
 num_output: 256
 pad: 0
 kernel_size: 1
 stride:1
 weight_filler { 
 type: "gaussian"
 std: 0.01 
 }
 bias_filler {
 type: "constant"
 }
 }
 }
layer {
 name: "hourglass1_branch1_level4_branch1_level3_branch1_level2_branch1_res3_branch2_conv"
 type: "Convolution" 
 bottom: "hourglass1_branch1_level4_branch1_level3_branch1_level2_branch1_res2" 
 top: "hourglass1_branch1_level4_branch1_level3_branch1_level2_branch1_res3_branch2_conv" 
  param {
 	 lr_mult: 1
 	 decay_mult: 1
 }
 param {
 	 lr_mult: 2
 	 decay_mult: 0
 }
 convolution_param { 
 num_output: 256
 pad: 0
 kernel_size: 1
 stride:1
 weight_filler { 
 type: "gaussian"
 std: 0.01 
 }
 bias_filler {
 type: "constant"
 }
 }
 }
layer {
 name: "hourglass1_branch1_level4_branch1_level3_branch1_level2_branch1_res3"
 type: "Eltwise" 
 bottom: "hourglass1_branch1_level4_branch1_level3_branch1_level2_branch1_res3_branch1_conv3" 
 top: "hourglass1_branch1_level4_branch1_level3_branch1_level2_branch1_res3" 
 bottom: "hourglass1_branch1_level4_branch1_level3_branch1_level2_branch1_res3_branch2_conv" 
 eltwise_param { 
 operation: SUM 
 } 
 }
layer {
 name: "hourglass1_branch1_level4_branch1_level3_branch1_level2_branch1_level1_branch1_bn1"
 type: "BatchNorm" 
 bottom: "hourglass1_branch1_level4_branch1_level3_branch1_level2_branch1_res3" 
 top: "hourglass1_branch1_level4_branch1_level3_branch1_level2_branch1_level1_branch1_bn1" 
 param { 
 lr_mult: 0 
 } 
 param { 
 lr_mult: 0 
 } 
 param { 
 lr_mult: 0 
 } 
 batch_norm_param {
        use_global_stats: false
 }
}
layer {
 name: "hourglass1_branch1_level4_branch1_level3_branch1_level2_branch1_level1_branch1_scale1"
 type: "Scale" 
 bottom: "hourglass1_branch1_level4_branch1_level3_branch1_level2_branch1_level1_branch1_bn1" 
 top: "hourglass1_branch1_level4_branch1_level3_branch1_level2_branch1_level1_branch1_scale1" 
 scale_param { 
 bias_term: true 
 } 
 }
layer {
 name: "hourglass1_branch1_level4_branch1_level3_branch1_level2_branch1_level1_branch1_relu1"
 type: "ReLU" 
 bottom: "hourglass1_branch1_level4_branch1_level3_branch1_level2_branch1_level1_branch1_scale1" 
 top: "hourglass1_branch1_level4_branch1_level3_branch1_level2_branch1_level1_branch1_relu1" 
}
layer {
 name: "hourglass1_branch1_level4_branch1_level3_branch1_level2_branch1_level1_branch1_conv1"
 type: "Convolution" 
 bottom: "hourglass1_branch1_level4_branch1_level3_branch1_level2_branch1_level1_branch1_relu1" 
 top: "hourglass1_branch1_level4_branch1_level3_branch1_level2_branch1_level1_branch1_conv1" 
  param {
 	 lr_mult: 1
 	 decay_mult: 1
 }
 param {
 	 lr_mult: 2
 	 decay_mult: 0
 }
 convolution_param { 
 num_output: 256
 pad: 0
 kernel_size: 1
 stride:1
 weight_filler { 
 type: "gaussian"
 std: 0.01 
 }
 bias_filler {
 type: "constant"
 }
 }
 }
layer {
 name: "hourglass1_branch1_level4_branch1_level3_branch1_level2_branch1_level1_branch1_bn2"
 type: "BatchNorm" 
 bottom: "hourglass1_branch1_level4_branch1_level3_branch1_level2_branch1_level1_branch1_conv1" 
 top: "hourglass1_branch1_level4_branch1_level3_branch1_level2_branch1_level1_branch1_bn2" 
 param { 
 lr_mult: 0 
 } 
 param { 
 lr_mult: 0 
 } 
 param { 
 lr_mult: 0 
 } 
 batch_norm_param {
        use_global_stats: false
 }
}
layer {
 name: "hourglass1_branch1_level4_branch1_level3_branch1_level2_branch1_level1_branch1_scale2"
 type: "Scale" 
 bottom: "hourglass1_branch1_level4_branch1_level3_branch1_level2_branch1_level1_branch1_bn2" 
 top: "hourglass1_branch1_level4_branch1_level3_branch1_level2_branch1_level1_branch1_scale2" 
 scale_param { 
 bias_term: true 
 } 
 }
layer {
 name: "hourglass1_branch1_level4_branch1_level3_branch1_level2_branch1_level1_branch1_relu2"
 type: "ReLU" 
 bottom: "hourglass1_branch1_level4_branch1_level3_branch1_level2_branch1_level1_branch1_scale2" 
 top: "hourglass1_branch1_level4_branch1_level3_branch1_level2_branch1_level1_branch1_relu2" 
}
layer {
 name: "hourglass1_branch1_level4_branch1_level3_branch1_level2_branch1_level1_branch1_conv2"
 type: "Convolution" 
 bottom: "hourglass1_branch1_level4_branch1_level3_branch1_level2_branch1_level1_branch1_relu2" 
 top: "hourglass1_branch1_level4_branch1_level3_branch1_level2_branch1_level1_branch1_conv2" 
  param {
 	 lr_mult: 1
 	 decay_mult: 1
 }
 param {
 	 lr_mult: 2
 	 decay_mult: 0
 }
 convolution_param { 
 num_output: 256
 pad: 1
 kernel_size: 3
 stride:1
 weight_filler { 
 type: "gaussian"
 std: 0.01 
 }
 bias_filler {
 type: "constant"
 }
 }
 }
layer {
 name: "hourglass1_branch1_level4_branch1_level3_branch1_level2_branch1_level1_branch1_bn3"
 type: "BatchNorm" 
 bottom: "hourglass1_branch1_level4_branch1_level3_branch1_level2_branch1_level1_branch1_conv2" 
 top: "hourglass1_branch1_level4_branch1_level3_branch1_level2_branch1_level1_branch1_bn3" 
 param { 
 lr_mult: 0 
 } 
 param { 
 lr_mult: 0 
 } 
 param { 
 lr_mult: 0 
 } 
 batch_norm_param {
        use_global_stats: false
 }
}
layer {
 name: "hourglass1_branch1_level4_branch1_level3_branch1_level2_branch1_level1_branch1_scale3"
 type: "Scale" 
 bottom: "hourglass1_branch1_level4_branch1_level3_branch1_level2_branch1_level1_branch1_bn3" 
 top: "hourglass1_branch1_level4_branch1_level3_branch1_level2_branch1_level1_branch1_scale3" 
 scale_param { 
 bias_term: true 
 } 
 }
layer {
 name: "hourglass1_branch1_level4_branch1_level3_branch1_level2_branch1_level1_branch1_relu3"
 type: "ReLU" 
 bottom: "hourglass1_branch1_level4_branch1_level3_branch1_level2_branch1_level1_branch1_scale3" 
 top: "hourglass1_branch1_level4_branch1_level3_branch1_level2_branch1_level1_branch1_relu3" 
}
layer {
 name: "hourglass1_branch1_level4_branch1_level3_branch1_level2_branch1_level1_branch1_conv3"
 type: "Convolution" 
 bottom: "hourglass1_branch1_level4_branch1_level3_branch1_level2_branch1_level1_branch1_relu3" 
 top: "hourglass1_branch1_level4_branch1_level3_branch1_level2_branch1_level1_branch1_conv3" 
  param {
 	 lr_mult: 1
 	 decay_mult: 1
 }
 param {
 	 lr_mult: 2
 	 decay_mult: 0
 }
 convolution_param { 
 num_output: 512
 pad: 0
 kernel_size: 1
 stride:1
 weight_filler { 
 type: "gaussian"
 std: 0.01 
 }
 bias_filler {
 type: "constant"
 }
 }
 }
layer {
 name: "hourglass1_branch1_level4_branch1_level3_branch1_level2_branch1_level1_branch2_conv"
 type: "Convolution" 
 bottom: "hourglass1_branch1_level4_branch1_level3_branch1_level2_branch1_res3" 
 top: "hourglass1_branch1_level4_branch1_level3_branch1_level2_branch1_level1_branch2_conv" 
  param {
 	 lr_mult: 1
 	 decay_mult: 1
 }
 param {
 	 lr_mult: 2
 	 decay_mult: 0
 }
 convolution_param { 
 num_output: 512
 pad: 0
 kernel_size: 1
 stride:1
 weight_filler { 
 type: "gaussian"
 std: 0.01 
 }
 bias_filler {
 type: "constant"
 }
 }
 }
layer {
 name: "hourglass1_branch1_level4_branch1_level3_branch1_level2_branch1_level1"
 type: "Eltwise" 
 bottom: "hourglass1_branch1_level4_branch1_level3_branch1_level2_branch1_level1_branch1_conv3" 
 top: "hourglass1_branch1_level4_branch1_level3_branch1_level2_branch1_level1" 
 bottom: "hourglass1_branch1_level4_branch1_level3_branch1_level2_branch1_level1_branch2_conv" 
 eltwise_param { 
 operation: SUM 
 } 
 }
layer {
 name: "hourglass1_branch1_level4_branch1_level3_branch1_level2_branch1_res5_branch1_bn1"
 type: "BatchNorm" 
 bottom: "hourglass1_branch1_level4_branch1_level3_branch1_level2_branch1_level1" 
 top: "hourglass1_branch1_level4_branch1_level3_branch1_level2_branch1_res5_branch1_bn1" 
 param { 
 lr_mult: 0 
 } 
 param { 
 lr_mult: 0 
 } 
 param { 
 lr_mult: 0 
 } 
 batch_norm_param {
        use_global_stats: false
 }
}
layer {
 name: "hourglass1_branch1_level4_branch1_level3_branch1_level2_branch1_res5_branch1_scale1"
 type: "Scale" 
 bottom: "hourglass1_branch1_level4_branch1_level3_branch1_level2_branch1_res5_branch1_bn1" 
 top: "hourglass1_branch1_level4_branch1_level3_branch1_level2_branch1_res5_branch1_scale1" 
 scale_param { 
 bias_term: true 
 } 
 }
layer {
 name: "hourglass1_branch1_level4_branch1_level3_branch1_level2_branch1_res5_branch1_relu1"
 type: "ReLU" 
 bottom: "hourglass1_branch1_level4_branch1_level3_branch1_level2_branch1_res5_branch1_scale1" 
 top: "hourglass1_branch1_level4_branch1_level3_branch1_level2_branch1_res5_branch1_relu1" 
}
layer {
 name: "hourglass1_branch1_level4_branch1_level3_branch1_level2_branch1_res5_branch1_conv1"
 type: "Convolution" 
 bottom: "hourglass1_branch1_level4_branch1_level3_branch1_level2_branch1_res5_branch1_relu1" 
 top: "hourglass1_branch1_level4_branch1_level3_branch1_level2_branch1_res5_branch1_conv1" 
  param {
 	 lr_mult: 1
 	 decay_mult: 1
 }
 param {
 	 lr_mult: 2
 	 decay_mult: 0
 }
 convolution_param { 
 num_output: 256
 pad: 0
 kernel_size: 1
 stride:1
 weight_filler { 
 type: "gaussian"
 std: 0.01 
 }
 bias_filler {
 type: "constant"
 }
 }
 }
layer {
 name: "hourglass1_branch1_level4_branch1_level3_branch1_level2_branch1_res5_branch1_bn2"
 type: "BatchNorm" 
 bottom: "hourglass1_branch1_level4_branch1_level3_branch1_level2_branch1_res5_branch1_conv1" 
 top: "hourglass1_branch1_level4_branch1_level3_branch1_level2_branch1_res5_branch1_bn2" 
 param { 
 lr_mult: 0 
 } 
 param { 
 lr_mult: 0 
 } 
 param { 
 lr_mult: 0 
 } 
 batch_norm_param {
        use_global_stats: false
 }
}
layer {
 name: "hourglass1_branch1_level4_branch1_level3_branch1_level2_branch1_res5_branch1_scale2"
 type: "Scale" 
 bottom: "hourglass1_branch1_level4_branch1_level3_branch1_level2_branch1_res5_branch1_bn2" 
 top: "hourglass1_branch1_level4_branch1_level3_branch1_level2_branch1_res5_branch1_scale2" 
 scale_param { 
 bias_term: true 
 } 
 }
layer {
 name: "hourglass1_branch1_level4_branch1_level3_branch1_level2_branch1_res5_branch1_relu2"
 type: "ReLU" 
 bottom: "hourglass1_branch1_level4_branch1_level3_branch1_level2_branch1_res5_branch1_scale2" 
 top: "hourglass1_branch1_level4_branch1_level3_branch1_level2_branch1_res5_branch1_relu2" 
}
layer {
 name: "hourglass1_branch1_level4_branch1_level3_branch1_level2_branch1_res5_branch1_conv2"
 type: "Convolution" 
 bottom: "hourglass1_branch1_level4_branch1_level3_branch1_level2_branch1_res5_branch1_relu2" 
 top: "hourglass1_branch1_level4_branch1_level3_branch1_level2_branch1_res5_branch1_conv2" 
  param {
 	 lr_mult: 1
 	 decay_mult: 1
 }
 param {
 	 lr_mult: 2
 	 decay_mult: 0
 }
 convolution_param { 
 num_output: 256
 pad: 1
 kernel_size: 3
 stride:1
 weight_filler { 
 type: "gaussian"
 std: 0.01 
 }
 bias_filler {
 type: "constant"
 }
 }
 }
layer {
 name: "hourglass1_branch1_level4_branch1_level3_branch1_level2_branch1_res5_branch1_bn3"
 type: "BatchNorm" 
 bottom: "hourglass1_branch1_level4_branch1_level3_branch1_level2_branch1_res5_branch1_conv2" 
 top: "hourglass1_branch1_level4_branch1_level3_branch1_level2_branch1_res5_branch1_bn3" 
 param { 
 lr_mult: 0 
 } 
 param { 
 lr_mult: 0 
 } 
 param { 
 lr_mult: 0 
 } 
 batch_norm_param {
        use_global_stats: false
 }
}
layer {
 name: "hourglass1_branch1_level4_branch1_level3_branch1_level2_branch1_res5_branch1_scale3"
 type: "Scale" 
 bottom: "hourglass1_branch1_level4_branch1_level3_branch1_level2_branch1_res5_branch1_bn3" 
 top: "hourglass1_branch1_level4_branch1_level3_branch1_level2_branch1_res5_branch1_scale3" 
 scale_param { 
 bias_term: true 
 } 
 }
layer {
 name: "hourglass1_branch1_level4_branch1_level3_branch1_level2_branch1_res5_branch1_relu3"
 type: "ReLU" 
 bottom: "hourglass1_branch1_level4_branch1_level3_branch1_level2_branch1_res5_branch1_scale3" 
 top: "hourglass1_branch1_level4_branch1_level3_branch1_level2_branch1_res5_branch1_relu3" 
}
layer {
 name: "hourglass1_branch1_level4_branch1_level3_branch1_level2_branch1_res5_branch1_conv3"
 type: "Convolution" 
 bottom: "hourglass1_branch1_level4_branch1_level3_branch1_level2_branch1_res5_branch1_relu3" 
 top: "hourglass1_branch1_level4_branch1_level3_branch1_level2_branch1_res5_branch1_conv3" 
  param {
 	 lr_mult: 1
 	 decay_mult: 1
 }
 param {
 	 lr_mult: 2
 	 decay_mult: 0
 }
 convolution_param { 
 num_output: 512
 pad: 0
 kernel_size: 1
 stride:1
 weight_filler { 
 type: "gaussian"
 std: 0.01 
 }
 bias_filler {
 type: "constant"
 }
 }
 }
layer {
 name: "hourglass1_branch1_level4_branch1_level3_branch1_level2_branch1_res5_branch2_conv"
 type: "Convolution" 
 bottom: "hourglass1_branch1_level4_branch1_level3_branch1_level2_branch1_level1" 
 top: "hourglass1_branch1_level4_branch1_level3_branch1_level2_branch1_res5_branch2_conv" 
  param {
 	 lr_mult: 1
 	 decay_mult: 1
 }
 param {
 	 lr_mult: 2
 	 decay_mult: 0
 }
 convolution_param { 
 num_output: 512
 pad: 0
 kernel_size: 1
 stride:1
 weight_filler { 
 type: "gaussian"
 std: 0.01 
 }
 bias_filler {
 type: "constant"
 }
 }
 }
layer {
 name: "hourglass1_branch1_level4_branch1_level3_branch1_level2_branch1_res5"
 type: "Eltwise" 
 bottom: "hourglass1_branch1_level4_branch1_level3_branch1_level2_branch1_res5_branch1_conv3" 
 top: "hourglass1_branch1_level4_branch1_level3_branch1_level2_branch1_res5" 
 bottom: "hourglass1_branch1_level4_branch1_level3_branch1_level2_branch1_res5_branch2_conv" 
 eltwise_param { 
 operation: SUM 
 } 
 }
layer {
 name: "hourglass1_branch1_level4_branch1_level3_branch1_level2_upsampling"
 type: "Deconvolution" 
 bottom: "hourglass1_branch1_level4_branch1_level3_branch1_level2_branch1_res5" 
 top: "hourglass1_branch1_level4_branch1_level3_branch1_level2_upsampling" 
 convolution_param { 
 num_output: 512
 pad: 1
 kernel_size: 4
 stride: 2
 group: 512
 weight_filler: { type: "bilinear" }
 bias_term: false
 }
 param {
 	 lr_mult: 0
 	 decay_mult: 0
 }
 }
layer {
 name: "hourglass1_branch1_level4_branch1_level3_branch1_level2_branch2_res1_branch1_bn1"
 type: "BatchNorm" 
 bottom: "hourglass1_branch1_level4_branch1_level3_branch1_res3" 
 top: "hourglass1_branch1_level4_branch1_level3_branch1_level2_branch2_res1_branch1_bn1" 
 param { 
 lr_mult: 0 
 } 
 param { 
 lr_mult: 0 
 } 
 param { 
 lr_mult: 0 
 } 
 batch_norm_param {
        use_global_stats: false
 }
}
layer {
 name: "hourglass1_branch1_level4_branch1_level3_branch1_level2_branch2_res1_branch1_scale1"
 type: "Scale" 
 bottom: "hourglass1_branch1_level4_branch1_level3_branch1_level2_branch2_res1_branch1_bn1" 
 top: "hourglass1_branch1_level4_branch1_level3_branch1_level2_branch2_res1_branch1_scale1" 
 scale_param { 
 bias_term: true 
 } 
 }
layer {
 name: "hourglass1_branch1_level4_branch1_level3_branch1_level2_branch2_res1_branch1_relu1"
 type: "ReLU" 
 bottom: "hourglass1_branch1_level4_branch1_level3_branch1_level2_branch2_res1_branch1_scale1" 
 top: "hourglass1_branch1_level4_branch1_level3_branch1_level2_branch2_res1_branch1_relu1" 
}
layer {
 name: "hourglass1_branch1_level4_branch1_level3_branch1_level2_branch2_res1_branch1_conv1"
 type: "Convolution" 
 bottom: "hourglass1_branch1_level4_branch1_level3_branch1_level2_branch2_res1_branch1_relu1" 
 top: "hourglass1_branch1_level4_branch1_level3_branch1_level2_branch2_res1_branch1_conv1" 
  param {
 	 lr_mult: 1
 	 decay_mult: 1
 }
 param {
 	 lr_mult: 2
 	 decay_mult: 0
 }
 convolution_param { 
 num_output: 128
 pad: 0
 kernel_size: 1
 stride:1
 weight_filler { 
 type: "gaussian"
 std: 0.01 
 }
 bias_filler {
 type: "constant"
 }
 }
 }
layer {
 name: "hourglass1_branch1_level4_branch1_level3_branch1_level2_branch2_res1_branch1_bn2"
 type: "BatchNorm" 
 bottom: "hourglass1_branch1_level4_branch1_level3_branch1_level2_branch2_res1_branch1_conv1" 
 top: "hourglass1_branch1_level4_branch1_level3_branch1_level2_branch2_res1_branch1_bn2" 
 param { 
 lr_mult: 0 
 } 
 param { 
 lr_mult: 0 
 } 
 param { 
 lr_mult: 0 
 } 
 batch_norm_param {
        use_global_stats: false
 }
}
layer {
 name: "hourglass1_branch1_level4_branch1_level3_branch1_level2_branch2_res1_branch1_scale2"
 type: "Scale" 
 bottom: "hourglass1_branch1_level4_branch1_level3_branch1_level2_branch2_res1_branch1_bn2" 
 top: "hourglass1_branch1_level4_branch1_level3_branch1_level2_branch2_res1_branch1_scale2" 
 scale_param { 
 bias_term: true 
 } 
 }
layer {
 name: "hourglass1_branch1_level4_branch1_level3_branch1_level2_branch2_res1_branch1_relu2"
 type: "ReLU" 
 bottom: "hourglass1_branch1_level4_branch1_level3_branch1_level2_branch2_res1_branch1_scale2" 
 top: "hourglass1_branch1_level4_branch1_level3_branch1_level2_branch2_res1_branch1_relu2" 
}
layer {
 name: "hourglass1_branch1_level4_branch1_level3_branch1_level2_branch2_res1_branch1_conv2"
 type: "Convolution" 
 bottom: "hourglass1_branch1_level4_branch1_level3_branch1_level2_branch2_res1_branch1_relu2" 
 top: "hourglass1_branch1_level4_branch1_level3_branch1_level2_branch2_res1_branch1_conv2" 
  param {
 	 lr_mult: 1
 	 decay_mult: 1
 }
 param {
 	 lr_mult: 2
 	 decay_mult: 0
 }
 convolution_param { 
 num_output: 128
 pad: 1
 kernel_size: 3
 stride:1
 weight_filler { 
 type: "gaussian"
 std: 0.01 
 }
 bias_filler {
 type: "constant"
 }
 }
 }
layer {
 name: "hourglass1_branch1_level4_branch1_level3_branch1_level2_branch2_res1_branch1_bn3"
 type: "BatchNorm" 
 bottom: "hourglass1_branch1_level4_branch1_level3_branch1_level2_branch2_res1_branch1_conv2" 
 top: "hourglass1_branch1_level4_branch1_level3_branch1_level2_branch2_res1_branch1_bn3" 
 param { 
 lr_mult: 0 
 } 
 param { 
 lr_mult: 0 
 } 
 param { 
 lr_mult: 0 
 } 
 batch_norm_param {
        use_global_stats: false
 }
}
layer {
 name: "hourglass1_branch1_level4_branch1_level3_branch1_level2_branch2_res1_branch1_scale3"
 type: "Scale" 
 bottom: "hourglass1_branch1_level4_branch1_level3_branch1_level2_branch2_res1_branch1_bn3" 
 top: "hourglass1_branch1_level4_branch1_level3_branch1_level2_branch2_res1_branch1_scale3" 
 scale_param { 
 bias_term: true 
 } 
 }
layer {
 name: "hourglass1_branch1_level4_branch1_level3_branch1_level2_branch2_res1_branch1_relu3"
 type: "ReLU" 
 bottom: "hourglass1_branch1_level4_branch1_level3_branch1_level2_branch2_res1_branch1_scale3" 
 top: "hourglass1_branch1_level4_branch1_level3_branch1_level2_branch2_res1_branch1_relu3" 
}
layer {
 name: "hourglass1_branch1_level4_branch1_level3_branch1_level2_branch2_res1_branch1_conv3"
 type: "Convolution" 
 bottom: "hourglass1_branch1_level4_branch1_level3_branch1_level2_branch2_res1_branch1_relu3" 
 top: "hourglass1_branch1_level4_branch1_level3_branch1_level2_branch2_res1_branch1_conv3" 
  param {
 	 lr_mult: 1
 	 decay_mult: 1
 }
 param {
 	 lr_mult: 2
 	 decay_mult: 0
 }
 convolution_param { 
 num_output: 256
 pad: 0
 kernel_size: 1
 stride:1
 weight_filler { 
 type: "gaussian"
 std: 0.01 
 }
 bias_filler {
 type: "constant"
 }
 }
 }
layer {
 name: "hourglass1_branch1_level4_branch1_level3_branch1_level2_branch2_res1_branch2_conv"
 type: "Convolution" 
 bottom: "hourglass1_branch1_level4_branch1_level3_branch1_res3" 
 top: "hourglass1_branch1_level4_branch1_level3_branch1_level2_branch2_res1_branch2_conv" 
  param {
 	 lr_mult: 1
 	 decay_mult: 1
 }
 param {
 	 lr_mult: 2
 	 decay_mult: 0
 }
 convolution_param { 
 num_output: 256
 pad: 0
 kernel_size: 1
 stride:1
 weight_filler { 
 type: "gaussian"
 std: 0.01 
 }
 bias_filler {
 type: "constant"
 }
 }
 }
layer {
 name: "hourglass1_branch1_level4_branch1_level3_branch1_level2_branch2_res1"
 type: "Eltwise" 
 bottom: "hourglass1_branch1_level4_branch1_level3_branch1_level2_branch2_res1_branch1_conv3" 
 top: "hourglass1_branch1_level4_branch1_level3_branch1_level2_branch2_res1" 
 bottom: "hourglass1_branch1_level4_branch1_level3_branch1_level2_branch2_res1_branch2_conv" 
 eltwise_param { 
 operation: SUM 
 } 
 }
layer {
 name: "hourglass1_branch1_level4_branch1_level3_branch1_level2_branch2_res2_branch1_bn1"
 type: "BatchNorm" 
 bottom: "hourglass1_branch1_level4_branch1_level3_branch1_level2_branch2_res1" 
 top: "hourglass1_branch1_level4_branch1_level3_branch1_level2_branch2_res2_branch1_bn1" 
 param { 
 lr_mult: 0 
 } 
 param { 
 lr_mult: 0 
 } 
 param { 
 lr_mult: 0 
 } 
 batch_norm_param {
        use_global_stats: false
 }
}
layer {
 name: "hourglass1_branch1_level4_branch1_level3_branch1_level2_branch2_res2_branch1_scale1"
 type: "Scale" 
 bottom: "hourglass1_branch1_level4_branch1_level3_branch1_level2_branch2_res2_branch1_bn1" 
 top: "hourglass1_branch1_level4_branch1_level3_branch1_level2_branch2_res2_branch1_scale1" 
 scale_param { 
 bias_term: true 
 } 
 }
layer {
 name: "hourglass1_branch1_level4_branch1_level3_branch1_level2_branch2_res2_branch1_relu1"
 type: "ReLU" 
 bottom: "hourglass1_branch1_level4_branch1_level3_branch1_level2_branch2_res2_branch1_scale1" 
 top: "hourglass1_branch1_level4_branch1_level3_branch1_level2_branch2_res2_branch1_relu1" 
}
layer {
 name: "hourglass1_branch1_level4_branch1_level3_branch1_level2_branch2_res2_branch1_conv1"
 type: "Convolution" 
 bottom: "hourglass1_branch1_level4_branch1_level3_branch1_level2_branch2_res2_branch1_relu1" 
 top: "hourglass1_branch1_level4_branch1_level3_branch1_level2_branch2_res2_branch1_conv1" 
  param {
 	 lr_mult: 1
 	 decay_mult: 1
 }
 param {
 	 lr_mult: 2
 	 decay_mult: 0
 }
 convolution_param { 
 num_output: 128
 pad: 0
 kernel_size: 1
 stride:1
 weight_filler { 
 type: "gaussian"
 std: 0.01 
 }
 bias_filler {
 type: "constant"
 }
 }
 }
layer {
 name: "hourglass1_branch1_level4_branch1_level3_branch1_level2_branch2_res2_branch1_bn2"
 type: "BatchNorm" 
 bottom: "hourglass1_branch1_level4_branch1_level3_branch1_level2_branch2_res2_branch1_conv1" 
 top: "hourglass1_branch1_level4_branch1_level3_branch1_level2_branch2_res2_branch1_bn2" 
 param { 
 lr_mult: 0 
 } 
 param { 
 lr_mult: 0 
 } 
 param { 
 lr_mult: 0 
 } 
 batch_norm_param {
        use_global_stats: false
 }
}
layer {
 name: "hourglass1_branch1_level4_branch1_level3_branch1_level2_branch2_res2_branch1_scale2"
 type: "Scale" 
 bottom: "hourglass1_branch1_level4_branch1_level3_branch1_level2_branch2_res2_branch1_bn2" 
 top: "hourglass1_branch1_level4_branch1_level3_branch1_level2_branch2_res2_branch1_scale2" 
 scale_param { 
 bias_term: true 
 } 
 }
layer {
 name: "hourglass1_branch1_level4_branch1_level3_branch1_level2_branch2_res2_branch1_relu2"
 type: "ReLU" 
 bottom: "hourglass1_branch1_level4_branch1_level3_branch1_level2_branch2_res2_branch1_scale2" 
 top: "hourglass1_branch1_level4_branch1_level3_branch1_level2_branch2_res2_branch1_relu2" 
}
layer {
 name: "hourglass1_branch1_level4_branch1_level3_branch1_level2_branch2_res2_branch1_conv2"
 type: "Convolution" 
 bottom: "hourglass1_branch1_level4_branch1_level3_branch1_level2_branch2_res2_branch1_relu2" 
 top: "hourglass1_branch1_level4_branch1_level3_branch1_level2_branch2_res2_branch1_conv2" 
  param {
 	 lr_mult: 1
 	 decay_mult: 1
 }
 param {
 	 lr_mult: 2
 	 decay_mult: 0
 }
 convolution_param { 
 num_output: 128
 pad: 1
 kernel_size: 3
 stride:1
 weight_filler { 
 type: "gaussian"
 std: 0.01 
 }
 bias_filler {
 type: "constant"
 }
 }
 }
layer {
 name: "hourglass1_branch1_level4_branch1_level3_branch1_level2_branch2_res2_branch1_bn3"
 type: "BatchNorm" 
 bottom: "hourglass1_branch1_level4_branch1_level3_branch1_level2_branch2_res2_branch1_conv2" 
 top: "hourglass1_branch1_level4_branch1_level3_branch1_level2_branch2_res2_branch1_bn3" 
 param { 
 lr_mult: 0 
 } 
 param { 
 lr_mult: 0 
 } 
 param { 
 lr_mult: 0 
 } 
 batch_norm_param {
        use_global_stats: false
 }
}
layer {
 name: "hourglass1_branch1_level4_branch1_level3_branch1_level2_branch2_res2_branch1_scale3"
 type: "Scale" 
 bottom: "hourglass1_branch1_level4_branch1_level3_branch1_level2_branch2_res2_branch1_bn3" 
 top: "hourglass1_branch1_level4_branch1_level3_branch1_level2_branch2_res2_branch1_scale3" 
 scale_param { 
 bias_term: true 
 } 
 }
layer {
 name: "hourglass1_branch1_level4_branch1_level3_branch1_level2_branch2_res2_branch1_relu3"
 type: "ReLU" 
 bottom: "hourglass1_branch1_level4_branch1_level3_branch1_level2_branch2_res2_branch1_scale3" 
 top: "hourglass1_branch1_level4_branch1_level3_branch1_level2_branch2_res2_branch1_relu3" 
}
layer {
 name: "hourglass1_branch1_level4_branch1_level3_branch1_level2_branch2_res2_branch1_conv3"
 type: "Convolution" 
 bottom: "hourglass1_branch1_level4_branch1_level3_branch1_level2_branch2_res2_branch1_relu3" 
 top: "hourglass1_branch1_level4_branch1_level3_branch1_level2_branch2_res2_branch1_conv3" 
  param {
 	 lr_mult: 1
 	 decay_mult: 1
 }
 param {
 	 lr_mult: 2
 	 decay_mult: 0
 }
 convolution_param { 
 num_output: 256
 pad: 0
 kernel_size: 1
 stride:1
 weight_filler { 
 type: "gaussian"
 std: 0.01 
 }
 bias_filler {
 type: "constant"
 }
 }
 }
layer {
 name: "hourglass1_branch1_level4_branch1_level3_branch1_level2_branch2_res2_branch2_conv"
 type: "Convolution" 
 bottom: "hourglass1_branch1_level4_branch1_level3_branch1_level2_branch2_res1" 
 top: "hourglass1_branch1_level4_branch1_level3_branch1_level2_branch2_res2_branch2_conv" 
  param {
 	 lr_mult: 1
 	 decay_mult: 1
 }
 param {
 	 lr_mult: 2
 	 decay_mult: 0
 }
 convolution_param { 
 num_output: 256
 pad: 0
 kernel_size: 1
 stride:1
 weight_filler { 
 type: "gaussian"
 std: 0.01 
 }
 bias_filler {
 type: "constant"
 }
 }
 }
layer {
 name: "hourglass1_branch1_level4_branch1_level3_branch1_level2_branch2_res2"
 type: "Eltwise" 
 bottom: "hourglass1_branch1_level4_branch1_level3_branch1_level2_branch2_res2_branch1_conv3" 
 top: "hourglass1_branch1_level4_branch1_level3_branch1_level2_branch2_res2" 
 bottom: "hourglass1_branch1_level4_branch1_level3_branch1_level2_branch2_res2_branch2_conv" 
 eltwise_param { 
 operation: SUM 
 } 
 }
layer {
 name: "hourglass1_branch1_level4_branch1_level3_branch1_level2_branch2_res3_branch1_bn1"
 type: "BatchNorm" 
 bottom: "hourglass1_branch1_level4_branch1_level3_branch1_level2_branch2_res2" 
 top: "hourglass1_branch1_level4_branch1_level3_branch1_level2_branch2_res3_branch1_bn1" 
 param { 
 lr_mult: 0 
 } 
 param { 
 lr_mult: 0 
 } 
 param { 
 lr_mult: 0 
 } 
 batch_norm_param {
        use_global_stats: false
 }
}
layer {
 name: "hourglass1_branch1_level4_branch1_level3_branch1_level2_branch2_res3_branch1_scale1"
 type: "Scale" 
 bottom: "hourglass1_branch1_level4_branch1_level3_branch1_level2_branch2_res3_branch1_bn1" 
 top: "hourglass1_branch1_level4_branch1_level3_branch1_level2_branch2_res3_branch1_scale1" 
 scale_param { 
 bias_term: true 
 } 
 }
layer {
 name: "hourglass1_branch1_level4_branch1_level3_branch1_level2_branch2_res3_branch1_relu1"
 type: "ReLU" 
 bottom: "hourglass1_branch1_level4_branch1_level3_branch1_level2_branch2_res3_branch1_scale1" 
 top: "hourglass1_branch1_level4_branch1_level3_branch1_level2_branch2_res3_branch1_relu1" 
}
layer {
 name: "hourglass1_branch1_level4_branch1_level3_branch1_level2_branch2_res3_branch1_conv1"
 type: "Convolution" 
 bottom: "hourglass1_branch1_level4_branch1_level3_branch1_level2_branch2_res3_branch1_relu1" 
 top: "hourglass1_branch1_level4_branch1_level3_branch1_level2_branch2_res3_branch1_conv1" 
  param {
 	 lr_mult: 1
 	 decay_mult: 1
 }
 param {
 	 lr_mult: 2
 	 decay_mult: 0
 }
 convolution_param { 
 num_output: 256
 pad: 0
 kernel_size: 1
 stride:1
 weight_filler { 
 type: "gaussian"
 std: 0.01 
 }
 bias_filler {
 type: "constant"
 }
 }
 }
layer {
 name: "hourglass1_branch1_level4_branch1_level3_branch1_level2_branch2_res3_branch1_bn2"
 type: "BatchNorm" 
 bottom: "hourglass1_branch1_level4_branch1_level3_branch1_level2_branch2_res3_branch1_conv1" 
 top: "hourglass1_branch1_level4_branch1_level3_branch1_level2_branch2_res3_branch1_bn2" 
 param { 
 lr_mult: 0 
 } 
 param { 
 lr_mult: 0 
 } 
 param { 
 lr_mult: 0 
 } 
 batch_norm_param {
        use_global_stats: false
 }
}
layer {
 name: "hourglass1_branch1_level4_branch1_level3_branch1_level2_branch2_res3_branch1_scale2"
 type: "Scale" 
 bottom: "hourglass1_branch1_level4_branch1_level3_branch1_level2_branch2_res3_branch1_bn2" 
 top: "hourglass1_branch1_level4_branch1_level3_branch1_level2_branch2_res3_branch1_scale2" 
 scale_param { 
 bias_term: true 
 } 
 }
layer {
 name: "hourglass1_branch1_level4_branch1_level3_branch1_level2_branch2_res3_branch1_relu2"
 type: "ReLU" 
 bottom: "hourglass1_branch1_level4_branch1_level3_branch1_level2_branch2_res3_branch1_scale2" 
 top: "hourglass1_branch1_level4_branch1_level3_branch1_level2_branch2_res3_branch1_relu2" 
}
layer {
 name: "hourglass1_branch1_level4_branch1_level3_branch1_level2_branch2_res3_branch1_conv2"
 type: "Convolution" 
 bottom: "hourglass1_branch1_level4_branch1_level3_branch1_level2_branch2_res3_branch1_relu2" 
 top: "hourglass1_branch1_level4_branch1_level3_branch1_level2_branch2_res3_branch1_conv2" 
  param {
 	 lr_mult: 1
 	 decay_mult: 1
 }
 param {
 	 lr_mult: 2
 	 decay_mult: 0
 }
 convolution_param { 
 num_output: 256
 pad: 1
 kernel_size: 3
 stride:1
 weight_filler { 
 type: "gaussian"
 std: 0.01 
 }
 bias_filler {
 type: "constant"
 }
 }
 }
layer {
 name: "hourglass1_branch1_level4_branch1_level3_branch1_level2_branch2_res3_branch1_bn3"
 type: "BatchNorm" 
 bottom: "hourglass1_branch1_level4_branch1_level3_branch1_level2_branch2_res3_branch1_conv2" 
 top: "hourglass1_branch1_level4_branch1_level3_branch1_level2_branch2_res3_branch1_bn3" 
 param { 
 lr_mult: 0 
 } 
 param { 
 lr_mult: 0 
 } 
 param { 
 lr_mult: 0 
 } 
 batch_norm_param {
        use_global_stats: false
 }
}
layer {
 name: "hourglass1_branch1_level4_branch1_level3_branch1_level2_branch2_res3_branch1_scale3"
 type: "Scale" 
 bottom: "hourglass1_branch1_level4_branch1_level3_branch1_level2_branch2_res3_branch1_bn3" 
 top: "hourglass1_branch1_level4_branch1_level3_branch1_level2_branch2_res3_branch1_scale3" 
 scale_param { 
 bias_term: true 
 } 
 }
layer {
 name: "hourglass1_branch1_level4_branch1_level3_branch1_level2_branch2_res3_branch1_relu3"
 type: "ReLU" 
 bottom: "hourglass1_branch1_level4_branch1_level3_branch1_level2_branch2_res3_branch1_scale3" 
 top: "hourglass1_branch1_level4_branch1_level3_branch1_level2_branch2_res3_branch1_relu3" 
}
layer {
 name: "hourglass1_branch1_level4_branch1_level3_branch1_level2_branch2_res3_branch1_conv3"
 type: "Convolution" 
 bottom: "hourglass1_branch1_level4_branch1_level3_branch1_level2_branch2_res3_branch1_relu3" 
 top: "hourglass1_branch1_level4_branch1_level3_branch1_level2_branch2_res3_branch1_conv3" 
  param {
 	 lr_mult: 1
 	 decay_mult: 1
 }
 param {
 	 lr_mult: 2
 	 decay_mult: 0
 }
 convolution_param { 
 num_output: 512
 pad: 0
 kernel_size: 1
 stride:1
 weight_filler { 
 type: "gaussian"
 std: 0.01 
 }
 bias_filler {
 type: "constant"
 }
 }
 }
layer {
 name: "hourglass1_branch1_level4_branch1_level3_branch1_level2_branch2_res3_branch2_conv"
 type: "Convolution" 
 bottom: "hourglass1_branch1_level4_branch1_level3_branch1_level2_branch2_res2" 
 top: "hourglass1_branch1_level4_branch1_level3_branch1_level2_branch2_res3_branch2_conv" 
  param {
 	 lr_mult: 1
 	 decay_mult: 1
 }
 param {
 	 lr_mult: 2
 	 decay_mult: 0
 }
 convolution_param { 
 num_output: 512
 pad: 0
 kernel_size: 1
 stride:1
 weight_filler { 
 type: "gaussian"
 std: 0.01 
 }
 bias_filler {
 type: "constant"
 }
 }
 }
layer {
 name: "hourglass1_branch1_level4_branch1_level3_branch1_level2_branch2_res3"
 type: "Eltwise" 
 bottom: "hourglass1_branch1_level4_branch1_level3_branch1_level2_branch2_res3_branch1_conv3" 
 top: "hourglass1_branch1_level4_branch1_level3_branch1_level2_branch2_res3" 
 bottom: "hourglass1_branch1_level4_branch1_level3_branch1_level2_branch2_res3_branch2_conv" 
 eltwise_param { 
 operation: SUM 
 } 
 }
layer {
 name: "hourglass1_branch1_level4_branch1_level3_branch1_level2"
 type: "Eltwise" 
 bottom: "hourglass1_branch1_level4_branch1_level3_branch1_level2_upsampling" 
 top: "hourglass1_branch1_level4_branch1_level3_branch1_level2" 
 bottom: "hourglass1_branch1_level4_branch1_level3_branch1_level2_branch2_res3" 
 eltwise_param { 
 operation: SUM 
 } 
 }
layer {
 name: "hourglass1_branch1_level4_branch1_level3_branch1_res5_branch1_bn1"
 type: "BatchNorm" 
 bottom: "hourglass1_branch1_level4_branch1_level3_branch1_level2" 
 top: "hourglass1_branch1_level4_branch1_level3_branch1_res5_branch1_bn1" 
 param { 
 lr_mult: 0 
 } 
 param { 
 lr_mult: 0 
 } 
 param { 
 lr_mult: 0 
 } 
 batch_norm_param {
        use_global_stats: false
 }
}
layer {
 name: "hourglass1_branch1_level4_branch1_level3_branch1_res5_branch1_scale1"
 type: "Scale" 
 bottom: "hourglass1_branch1_level4_branch1_level3_branch1_res5_branch1_bn1" 
 top: "hourglass1_branch1_level4_branch1_level3_branch1_res5_branch1_scale1" 
 scale_param { 
 bias_term: true 
 } 
 }
layer {
 name: "hourglass1_branch1_level4_branch1_level3_branch1_res5_branch1_relu1"
 type: "ReLU" 
 bottom: "hourglass1_branch1_level4_branch1_level3_branch1_res5_branch1_scale1" 
 top: "hourglass1_branch1_level4_branch1_level3_branch1_res5_branch1_relu1" 
}
layer {
 name: "hourglass1_branch1_level4_branch1_level3_branch1_res5_branch1_conv1"
 type: "Convolution" 
 bottom: "hourglass1_branch1_level4_branch1_level3_branch1_res5_branch1_relu1" 
 top: "hourglass1_branch1_level4_branch1_level3_branch1_res5_branch1_conv1" 
  param {
 	 lr_mult: 1
 	 decay_mult: 1
 }
 param {
 	 lr_mult: 2
 	 decay_mult: 0
 }
 convolution_param { 
 num_output: 256
 pad: 0
 kernel_size: 1
 stride:1
 weight_filler { 
 type: "gaussian"
 std: 0.01 
 }
 bias_filler {
 type: "constant"
 }
 }
 }
layer {
 name: "hourglass1_branch1_level4_branch1_level3_branch1_res5_branch1_bn2"
 type: "BatchNorm" 
 bottom: "hourglass1_branch1_level4_branch1_level3_branch1_res5_branch1_conv1" 
 top: "hourglass1_branch1_level4_branch1_level3_branch1_res5_branch1_bn2" 
 param { 
 lr_mult: 0 
 } 
 param { 
 lr_mult: 0 
 } 
 param { 
 lr_mult: 0 
 } 
 batch_norm_param {
        use_global_stats: false
 }
}
layer {
 name: "hourglass1_branch1_level4_branch1_level3_branch1_res5_branch1_scale2"
 type: "Scale" 
 bottom: "hourglass1_branch1_level4_branch1_level3_branch1_res5_branch1_bn2" 
 top: "hourglass1_branch1_level4_branch1_level3_branch1_res5_branch1_scale2" 
 scale_param { 
 bias_term: true 
 } 
 }
layer {
 name: "hourglass1_branch1_level4_branch1_level3_branch1_res5_branch1_relu2"
 type: "ReLU" 
 bottom: "hourglass1_branch1_level4_branch1_level3_branch1_res5_branch1_scale2" 
 top: "hourglass1_branch1_level4_branch1_level3_branch1_res5_branch1_relu2" 
}
layer {
 name: "hourglass1_branch1_level4_branch1_level3_branch1_res5_branch1_conv2"
 type: "Convolution" 
 bottom: "hourglass1_branch1_level4_branch1_level3_branch1_res5_branch1_relu2" 
 top: "hourglass1_branch1_level4_branch1_level3_branch1_res5_branch1_conv2" 
  param {
 	 lr_mult: 1
 	 decay_mult: 1
 }
 param {
 	 lr_mult: 2
 	 decay_mult: 0
 }
 convolution_param { 
 num_output: 256
 pad: 1
 kernel_size: 3
 stride:1
 weight_filler { 
 type: "gaussian"
 std: 0.01 
 }
 bias_filler {
 type: "constant"
 }
 }
 }
layer {
 name: "hourglass1_branch1_level4_branch1_level3_branch1_res5_branch1_bn3"
 type: "BatchNorm" 
 bottom: "hourglass1_branch1_level4_branch1_level3_branch1_res5_branch1_conv2" 
 top: "hourglass1_branch1_level4_branch1_level3_branch1_res5_branch1_bn3" 
 param { 
 lr_mult: 0 
 } 
 param { 
 lr_mult: 0 
 } 
 param { 
 lr_mult: 0 
 } 
 batch_norm_param {
        use_global_stats: false
 }
}
layer {
 name: "hourglass1_branch1_level4_branch1_level3_branch1_res5_branch1_scale3"
 type: "Scale" 
 bottom: "hourglass1_branch1_level4_branch1_level3_branch1_res5_branch1_bn3" 
 top: "hourglass1_branch1_level4_branch1_level3_branch1_res5_branch1_scale3" 
 scale_param { 
 bias_term: true 
 } 
 }
layer {
 name: "hourglass1_branch1_level4_branch1_level3_branch1_res5_branch1_relu3"
 type: "ReLU" 
 bottom: "hourglass1_branch1_level4_branch1_level3_branch1_res5_branch1_scale3" 
 top: "hourglass1_branch1_level4_branch1_level3_branch1_res5_branch1_relu3" 
}
layer {
 name: "hourglass1_branch1_level4_branch1_level3_branch1_res5_branch1_conv3"
 type: "Convolution" 
 bottom: "hourglass1_branch1_level4_branch1_level3_branch1_res5_branch1_relu3" 
 top: "hourglass1_branch1_level4_branch1_level3_branch1_res5_branch1_conv3" 
  param {
 	 lr_mult: 1
 	 decay_mult: 1
 }
 param {
 	 lr_mult: 2
 	 decay_mult: 0
 }
 convolution_param { 
 num_output: 512
 pad: 0
 kernel_size: 1
 stride:1
 weight_filler { 
 type: "gaussian"
 std: 0.01 
 }
 bias_filler {
 type: "constant"
 }
 }
 }
layer {
 name: "hourglass1_branch1_level4_branch1_level3_branch1_res5_branch2_conv"
 type: "Convolution" 
 bottom: "hourglass1_branch1_level4_branch1_level3_branch1_level2" 
 top: "hourglass1_branch1_level4_branch1_level3_branch1_res5_branch2_conv" 
  param {
 	 lr_mult: 1
 	 decay_mult: 1
 }
 param {
 	 lr_mult: 2
 	 decay_mult: 0
 }
 convolution_param { 
 num_output: 512
 pad: 0
 kernel_size: 1
 stride:1
 weight_filler { 
 type: "gaussian"
 std: 0.01 
 }
 bias_filler {
 type: "constant"
 }
 }
 }
layer {
 name: "hourglass1_branch1_level4_branch1_level3_branch1_res5"
 type: "Eltwise" 
 bottom: "hourglass1_branch1_level4_branch1_level3_branch1_res5_branch1_conv3" 
 top: "hourglass1_branch1_level4_branch1_level3_branch1_res5" 
 bottom: "hourglass1_branch1_level4_branch1_level3_branch1_res5_branch2_conv" 
 eltwise_param { 
 operation: SUM 
 } 
 }
layer {
 name: "hourglass1_branch1_level4_branch1_level3_upsampling"
 type: "Deconvolution" 
 bottom: "hourglass1_branch1_level4_branch1_level3_branch1_res5" 
 top: "hourglass1_branch1_level4_branch1_level3_upsampling" 
 convolution_param { 
 num_output: 512
 pad: 1
 kernel_size: 4
 stride: 2
 group: 512
 weight_filler: { type: "bilinear" }
 bias_term: false
 }
 param {
 	 lr_mult: 0
 	 decay_mult: 0
 }
 }
layer {
 name: "hourglass1_branch1_level4_branch1_level3_branch2_res1_branch1_bn1"
 type: "BatchNorm" 
 bottom: "hourglass1_branch1_level4_branch1_res3" 
 top: "hourglass1_branch1_level4_branch1_level3_branch2_res1_branch1_bn1" 
 param { 
 lr_mult: 0 
 } 
 param { 
 lr_mult: 0 
 } 
 param { 
 lr_mult: 0 
 } 
 batch_norm_param {
        use_global_stats: false
 }
}
layer {
 name: "hourglass1_branch1_level4_branch1_level3_branch2_res1_branch1_scale1"
 type: "Scale" 
 bottom: "hourglass1_branch1_level4_branch1_level3_branch2_res1_branch1_bn1" 
 top: "hourglass1_branch1_level4_branch1_level3_branch2_res1_branch1_scale1" 
 scale_param { 
 bias_term: true 
 } 
 }
layer {
 name: "hourglass1_branch1_level4_branch1_level3_branch2_res1_branch1_relu1"
 type: "ReLU" 
 bottom: "hourglass1_branch1_level4_branch1_level3_branch2_res1_branch1_scale1" 
 top: "hourglass1_branch1_level4_branch1_level3_branch2_res1_branch1_relu1" 
}
layer {
 name: "hourglass1_branch1_level4_branch1_level3_branch2_res1_branch1_conv1"
 type: "Convolution" 
 bottom: "hourglass1_branch1_level4_branch1_level3_branch2_res1_branch1_relu1" 
 top: "hourglass1_branch1_level4_branch1_level3_branch2_res1_branch1_conv1" 
  param {
 	 lr_mult: 1
 	 decay_mult: 1
 }
 param {
 	 lr_mult: 2
 	 decay_mult: 0
 }
 convolution_param { 
 num_output: 128
 pad: 0
 kernel_size: 1
 stride:1
 weight_filler { 
 type: "gaussian"
 std: 0.01 
 }
 bias_filler {
 type: "constant"
 }
 }
 }
layer {
 name: "hourglass1_branch1_level4_branch1_level3_branch2_res1_branch1_bn2"
 type: "BatchNorm" 
 bottom: "hourglass1_branch1_level4_branch1_level3_branch2_res1_branch1_conv1" 
 top: "hourglass1_branch1_level4_branch1_level3_branch2_res1_branch1_bn2" 
 param { 
 lr_mult: 0 
 } 
 param { 
 lr_mult: 0 
 } 
 param { 
 lr_mult: 0 
 } 
 batch_norm_param {
        use_global_stats: false
 }
}
layer {
 name: "hourglass1_branch1_level4_branch1_level3_branch2_res1_branch1_scale2"
 type: "Scale" 
 bottom: "hourglass1_branch1_level4_branch1_level3_branch2_res1_branch1_bn2" 
 top: "hourglass1_branch1_level4_branch1_level3_branch2_res1_branch1_scale2" 
 scale_param { 
 bias_term: true 
 } 
 }
layer {
 name: "hourglass1_branch1_level4_branch1_level3_branch2_res1_branch1_relu2"
 type: "ReLU" 
 bottom: "hourglass1_branch1_level4_branch1_level3_branch2_res1_branch1_scale2" 
 top: "hourglass1_branch1_level4_branch1_level3_branch2_res1_branch1_relu2" 
}
layer {
 name: "hourglass1_branch1_level4_branch1_level3_branch2_res1_branch1_conv2"
 type: "Convolution" 
 bottom: "hourglass1_branch1_level4_branch1_level3_branch2_res1_branch1_relu2" 
 top: "hourglass1_branch1_level4_branch1_level3_branch2_res1_branch1_conv2" 
  param {
 	 lr_mult: 1
 	 decay_mult: 1
 }
 param {
 	 lr_mult: 2
 	 decay_mult: 0
 }
 convolution_param { 
 num_output: 128
 pad: 1
 kernel_size: 3
 stride:1
 weight_filler { 
 type: "gaussian"
 std: 0.01 
 }
 bias_filler {
 type: "constant"
 }
 }
 }
layer {
 name: "hourglass1_branch1_level4_branch1_level3_branch2_res1_branch1_bn3"
 type: "BatchNorm" 
 bottom: "hourglass1_branch1_level4_branch1_level3_branch2_res1_branch1_conv2" 
 top: "hourglass1_branch1_level4_branch1_level3_branch2_res1_branch1_bn3" 
 param { 
 lr_mult: 0 
 } 
 param { 
 lr_mult: 0 
 } 
 param { 
 lr_mult: 0 
 } 
 batch_norm_param {
        use_global_stats: false
 }
}
layer {
 name: "hourglass1_branch1_level4_branch1_level3_branch2_res1_branch1_scale3"
 type: "Scale" 
 bottom: "hourglass1_branch1_level4_branch1_level3_branch2_res1_branch1_bn3" 
 top: "hourglass1_branch1_level4_branch1_level3_branch2_res1_branch1_scale3" 
 scale_param { 
 bias_term: true 
 } 
 }
layer {
 name: "hourglass1_branch1_level4_branch1_level3_branch2_res1_branch1_relu3"
 type: "ReLU" 
 bottom: "hourglass1_branch1_level4_branch1_level3_branch2_res1_branch1_scale3" 
 top: "hourglass1_branch1_level4_branch1_level3_branch2_res1_branch1_relu3" 
}
layer {
 name: "hourglass1_branch1_level4_branch1_level3_branch2_res1_branch1_conv3"
 type: "Convolution" 
 bottom: "hourglass1_branch1_level4_branch1_level3_branch2_res1_branch1_relu3" 
 top: "hourglass1_branch1_level4_branch1_level3_branch2_res1_branch1_conv3" 
  param {
 	 lr_mult: 1
 	 decay_mult: 1
 }
 param {
 	 lr_mult: 2
 	 decay_mult: 0
 }
 convolution_param { 
 num_output: 256
 pad: 0
 kernel_size: 1
 stride:1
 weight_filler { 
 type: "gaussian"
 std: 0.01 
 }
 bias_filler {
 type: "constant"
 }
 }
 }
layer {
 name: "hourglass1_branch1_level4_branch1_level3_branch2_res1_branch2_conv"
 type: "Convolution" 
 bottom: "hourglass1_branch1_level4_branch1_res3" 
 top: "hourglass1_branch1_level4_branch1_level3_branch2_res1_branch2_conv" 
  param {
 	 lr_mult: 1
 	 decay_mult: 1
 }
 param {
 	 lr_mult: 2
 	 decay_mult: 0
 }
 convolution_param { 
 num_output: 256
 pad: 0
 kernel_size: 1
 stride:1
 weight_filler { 
 type: "gaussian"
 std: 0.01 
 }
 bias_filler {
 type: "constant"
 }
 }
 }
layer {
 name: "hourglass1_branch1_level4_branch1_level3_branch2_res1"
 type: "Eltwise" 
 bottom: "hourglass1_branch1_level4_branch1_level3_branch2_res1_branch1_conv3" 
 top: "hourglass1_branch1_level4_branch1_level3_branch2_res1" 
 bottom: "hourglass1_branch1_level4_branch1_level3_branch2_res1_branch2_conv" 
 eltwise_param { 
 operation: SUM 
 } 
 }
layer {
 name: "hourglass1_branch1_level4_branch1_level3_branch2_res2_branch1_bn1"
 type: "BatchNorm" 
 bottom: "hourglass1_branch1_level4_branch1_level3_branch2_res1" 
 top: "hourglass1_branch1_level4_branch1_level3_branch2_res2_branch1_bn1" 
 param { 
 lr_mult: 0 
 } 
 param { 
 lr_mult: 0 
 } 
 param { 
 lr_mult: 0 
 } 
 batch_norm_param {
        use_global_stats: false
 }
}
layer {
 name: "hourglass1_branch1_level4_branch1_level3_branch2_res2_branch1_scale1"
 type: "Scale" 
 bottom: "hourglass1_branch1_level4_branch1_level3_branch2_res2_branch1_bn1" 
 top: "hourglass1_branch1_level4_branch1_level3_branch2_res2_branch1_scale1" 
 scale_param { 
 bias_term: true 
 } 
 }
layer {
 name: "hourglass1_branch1_level4_branch1_level3_branch2_res2_branch1_relu1"
 type: "ReLU" 
 bottom: "hourglass1_branch1_level4_branch1_level3_branch2_res2_branch1_scale1" 
 top: "hourglass1_branch1_level4_branch1_level3_branch2_res2_branch1_relu1" 
}
layer {
 name: "hourglass1_branch1_level4_branch1_level3_branch2_res2_branch1_conv1"
 type: "Convolution" 
 bottom: "hourglass1_branch1_level4_branch1_level3_branch2_res2_branch1_relu1" 
 top: "hourglass1_branch1_level4_branch1_level3_branch2_res2_branch1_conv1" 
  param {
 	 lr_mult: 1
 	 decay_mult: 1
 }
 param {
 	 lr_mult: 2
 	 decay_mult: 0
 }
 convolution_param { 
 num_output: 128
 pad: 0
 kernel_size: 1
 stride:1
 weight_filler { 
 type: "gaussian"
 std: 0.01 
 }
 bias_filler {
 type: "constant"
 }
 }
 }
layer {
 name: "hourglass1_branch1_level4_branch1_level3_branch2_res2_branch1_bn2"
 type: "BatchNorm" 
 bottom: "hourglass1_branch1_level4_branch1_level3_branch2_res2_branch1_conv1" 
 top: "hourglass1_branch1_level4_branch1_level3_branch2_res2_branch1_bn2" 
 param { 
 lr_mult: 0 
 } 
 param { 
 lr_mult: 0 
 } 
 param { 
 lr_mult: 0 
 } 
 batch_norm_param {
        use_global_stats: false
 }
}
layer {
 name: "hourglass1_branch1_level4_branch1_level3_branch2_res2_branch1_scale2"
 type: "Scale" 
 bottom: "hourglass1_branch1_level4_branch1_level3_branch2_res2_branch1_bn2" 
 top: "hourglass1_branch1_level4_branch1_level3_branch2_res2_branch1_scale2" 
 scale_param { 
 bias_term: true 
 } 
 }
layer {
 name: "hourglass1_branch1_level4_branch1_level3_branch2_res2_branch1_relu2"
 type: "ReLU" 
 bottom: "hourglass1_branch1_level4_branch1_level3_branch2_res2_branch1_scale2" 
 top: "hourglass1_branch1_level4_branch1_level3_branch2_res2_branch1_relu2" 
}
layer {
 name: "hourglass1_branch1_level4_branch1_level3_branch2_res2_branch1_conv2"
 type: "Convolution" 
 bottom: "hourglass1_branch1_level4_branch1_level3_branch2_res2_branch1_relu2" 
 top: "hourglass1_branch1_level4_branch1_level3_branch2_res2_branch1_conv2" 
  param {
 	 lr_mult: 1
 	 decay_mult: 1
 }
 param {
 	 lr_mult: 2
 	 decay_mult: 0
 }
 convolution_param { 
 num_output: 128
 pad: 1
 kernel_size: 3
 stride:1
 weight_filler { 
 type: "gaussian"
 std: 0.01 
 }
 bias_filler {
 type: "constant"
 }
 }
 }
layer {
 name: "hourglass1_branch1_level4_branch1_level3_branch2_res2_branch1_bn3"
 type: "BatchNorm" 
 bottom: "hourglass1_branch1_level4_branch1_level3_branch2_res2_branch1_conv2" 
 top: "hourglass1_branch1_level4_branch1_level3_branch2_res2_branch1_bn3" 
 param { 
 lr_mult: 0 
 } 
 param { 
 lr_mult: 0 
 } 
 param { 
 lr_mult: 0 
 } 
 batch_norm_param {
        use_global_stats: false
 }
}
layer {
 name: "hourglass1_branch1_level4_branch1_level3_branch2_res2_branch1_scale3"
 type: "Scale" 
 bottom: "hourglass1_branch1_level4_branch1_level3_branch2_res2_branch1_bn3" 
 top: "hourglass1_branch1_level4_branch1_level3_branch2_res2_branch1_scale3" 
 scale_param { 
 bias_term: true 
 } 
 }
layer {
 name: "hourglass1_branch1_level4_branch1_level3_branch2_res2_branch1_relu3"
 type: "ReLU" 
 bottom: "hourglass1_branch1_level4_branch1_level3_branch2_res2_branch1_scale3" 
 top: "hourglass1_branch1_level4_branch1_level3_branch2_res2_branch1_relu3" 
}
layer {
 name: "hourglass1_branch1_level4_branch1_level3_branch2_res2_branch1_conv3"
 type: "Convolution" 
 bottom: "hourglass1_branch1_level4_branch1_level3_branch2_res2_branch1_relu3" 
 top: "hourglass1_branch1_level4_branch1_level3_branch2_res2_branch1_conv3" 
  param {
 	 lr_mult: 1
 	 decay_mult: 1
 }
 param {
 	 lr_mult: 2
 	 decay_mult: 0
 }
 convolution_param { 
 num_output: 256
 pad: 0
 kernel_size: 1
 stride:1
 weight_filler { 
 type: "gaussian"
 std: 0.01 
 }
 bias_filler {
 type: "constant"
 }
 }
 }
layer {
 name: "hourglass1_branch1_level4_branch1_level3_branch2_res2_branch2_conv"
 type: "Convolution" 
 bottom: "hourglass1_branch1_level4_branch1_level3_branch2_res1" 
 top: "hourglass1_branch1_level4_branch1_level3_branch2_res2_branch2_conv" 
  param {
 	 lr_mult: 1
 	 decay_mult: 1
 }
 param {
 	 lr_mult: 2
 	 decay_mult: 0
 }
 convolution_param { 
 num_output: 256
 pad: 0
 kernel_size: 1
 stride:1
 weight_filler { 
 type: "gaussian"
 std: 0.01 
 }
 bias_filler {
 type: "constant"
 }
 }
 }
layer {
 name: "hourglass1_branch1_level4_branch1_level3_branch2_res2"
 type: "Eltwise" 
 bottom: "hourglass1_branch1_level4_branch1_level3_branch2_res2_branch1_conv3" 
 top: "hourglass1_branch1_level4_branch1_level3_branch2_res2" 
 bottom: "hourglass1_branch1_level4_branch1_level3_branch2_res2_branch2_conv" 
 eltwise_param { 
 operation: SUM 
 } 
 }
layer {
 name: "hourglass1_branch1_level4_branch1_level3_branch2_res3_branch1_bn1"
 type: "BatchNorm" 
 bottom: "hourglass1_branch1_level4_branch1_level3_branch2_res2" 
 top: "hourglass1_branch1_level4_branch1_level3_branch2_res3_branch1_bn1" 
 param { 
 lr_mult: 0 
 } 
 param { 
 lr_mult: 0 
 } 
 param { 
 lr_mult: 0 
 } 
 batch_norm_param {
        use_global_stats: false
 }
}
layer {
 name: "hourglass1_branch1_level4_branch1_level3_branch2_res3_branch1_scale1"
 type: "Scale" 
 bottom: "hourglass1_branch1_level4_branch1_level3_branch2_res3_branch1_bn1" 
 top: "hourglass1_branch1_level4_branch1_level3_branch2_res3_branch1_scale1" 
 scale_param { 
 bias_term: true 
 } 
 }
layer {
 name: "hourglass1_branch1_level4_branch1_level3_branch2_res3_branch1_relu1"
 type: "ReLU" 
 bottom: "hourglass1_branch1_level4_branch1_level3_branch2_res3_branch1_scale1" 
 top: "hourglass1_branch1_level4_branch1_level3_branch2_res3_branch1_relu1" 
}
layer {
 name: "hourglass1_branch1_level4_branch1_level3_branch2_res3_branch1_conv1"
 type: "Convolution" 
 bottom: "hourglass1_branch1_level4_branch1_level3_branch2_res3_branch1_relu1" 
 top: "hourglass1_branch1_level4_branch1_level3_branch2_res3_branch1_conv1" 
  param {
 	 lr_mult: 1
 	 decay_mult: 1
 }
 param {
 	 lr_mult: 2
 	 decay_mult: 0
 }
 convolution_param { 
 num_output: 256
 pad: 0
 kernel_size: 1
 stride:1
 weight_filler { 
 type: "gaussian"
 std: 0.01 
 }
 bias_filler {
 type: "constant"
 }
 }
 }
layer {
 name: "hourglass1_branch1_level4_branch1_level3_branch2_res3_branch1_bn2"
 type: "BatchNorm" 
 bottom: "hourglass1_branch1_level4_branch1_level3_branch2_res3_branch1_conv1" 
 top: "hourglass1_branch1_level4_branch1_level3_branch2_res3_branch1_bn2" 
 param { 
 lr_mult: 0 
 } 
 param { 
 lr_mult: 0 
 } 
 param { 
 lr_mult: 0 
 } 
 batch_norm_param {
        use_global_stats: false
 }
}
layer {
 name: "hourglass1_branch1_level4_branch1_level3_branch2_res3_branch1_scale2"
 type: "Scale" 
 bottom: "hourglass1_branch1_level4_branch1_level3_branch2_res3_branch1_bn2" 
 top: "hourglass1_branch1_level4_branch1_level3_branch2_res3_branch1_scale2" 
 scale_param { 
 bias_term: true 
 } 
 }
layer {
 name: "hourglass1_branch1_level4_branch1_level3_branch2_res3_branch1_relu2"
 type: "ReLU" 
 bottom: "hourglass1_branch1_level4_branch1_level3_branch2_res3_branch1_scale2" 
 top: "hourglass1_branch1_level4_branch1_level3_branch2_res3_branch1_relu2" 
}
layer {
 name: "hourglass1_branch1_level4_branch1_level3_branch2_res3_branch1_conv2"
 type: "Convolution" 
 bottom: "hourglass1_branch1_level4_branch1_level3_branch2_res3_branch1_relu2" 
 top: "hourglass1_branch1_level4_branch1_level3_branch2_res3_branch1_conv2" 
  param {
 	 lr_mult: 1
 	 decay_mult: 1
 }
 param {
 	 lr_mult: 2
 	 decay_mult: 0
 }
 convolution_param { 
 num_output: 256
 pad: 1
 kernel_size: 3
 stride:1
 weight_filler { 
 type: "gaussian"
 std: 0.01 
 }
 bias_filler {
 type: "constant"
 }
 }
 }
layer {
 name: "hourglass1_branch1_level4_branch1_level3_branch2_res3_branch1_bn3"
 type: "BatchNorm" 
 bottom: "hourglass1_branch1_level4_branch1_level3_branch2_res3_branch1_conv2" 
 top: "hourglass1_branch1_level4_branch1_level3_branch2_res3_branch1_bn3" 
 param { 
 lr_mult: 0 
 } 
 param { 
 lr_mult: 0 
 } 
 param { 
 lr_mult: 0 
 } 
 batch_norm_param {
        use_global_stats: false
 }
}
layer {
 name: "hourglass1_branch1_level4_branch1_level3_branch2_res3_branch1_scale3"
 type: "Scale" 
 bottom: "hourglass1_branch1_level4_branch1_level3_branch2_res3_branch1_bn3" 
 top: "hourglass1_branch1_level4_branch1_level3_branch2_res3_branch1_scale3" 
 scale_param { 
 bias_term: true 
 } 
 }
layer {
 name: "hourglass1_branch1_level4_branch1_level3_branch2_res3_branch1_relu3"
 type: "ReLU" 
 bottom: "hourglass1_branch1_level4_branch1_level3_branch2_res3_branch1_scale3" 
 top: "hourglass1_branch1_level4_branch1_level3_branch2_res3_branch1_relu3" 
}
layer {
 name: "hourglass1_branch1_level4_branch1_level3_branch2_res3_branch1_conv3"
 type: "Convolution" 
 bottom: "hourglass1_branch1_level4_branch1_level3_branch2_res3_branch1_relu3" 
 top: "hourglass1_branch1_level4_branch1_level3_branch2_res3_branch1_conv3" 
  param {
 	 lr_mult: 1
 	 decay_mult: 1
 }
 param {
 	 lr_mult: 2
 	 decay_mult: 0
 }
 convolution_param { 
 num_output: 512
 pad: 0
 kernel_size: 1
…
 	 decay_mult: 1
 }
 param {
 	 lr_mult: 2
 	 decay_mult: 0
 }
 convolution_param { 
 num_output: 256
 pad: 0
 kernel_size: 1
 stride:1
 weight_filler { 
 type: "gaussian"
 std: 0.01 
 }
 bias_filler {
 type: "constant"
 }
 }
 }
layer {
 name: "hourglass2_branch2_res3_branch1_sub1_bn2"
 type: "BatchNorm" 
 bottom: "hourglass2_branch2_res3_branch1_sub1_conv1" 
 top: "hourglass2_branch2_res3_branch1_sub1_bn2" 
 param { 
 lr_mult: 0 
 } 
 param { 
 lr_mult: 0 
 } 
 param { 
 lr_mult: 0 
 } 
 batch_norm_param {
        use_global_stats: false
 }
}
layer {
 name: "hourglass2_branch2_res3_branch1_sub1_scale2"
 type: "Scale" 
 bottom: "hourglass2_branch2_res3_branch1_sub1_bn2" 
 top: "hourglass2_branch2_res3_branch1_sub1_scale2" 
 scale_param { 
 bias_term: true 
 } 
 }
layer {
 name: "hourglass2_branch2_res3_branch1_sub1_relu2"
 type: "ReLU" 
 bottom: "hourglass2_branch2_res3_branch1_sub1_scale2" 
 top: "hourglass2_branch2_res3_branch1_sub1_relu2" 
}
layer {
 name: "hourglass2_branch2_res3_branch1_sub1_conv2"
 type: "Convolution" 
 bottom: "hourglass2_branch2_res3_branch1_sub1_relu2" 
 top: "hourglass2_branch2_res3_branch1_sub1_conv2" 
  param {
 	 lr_mult: 1
 	 decay_mult: 1
 }
 param {
 	 lr_mult: 2
 	 decay_mult: 0
 }
 convolution_param { 
 num_output: 256
 pad: 1
 kernel_size: 3
 stride:1
 weight_filler { 
 type: "gaussian"
 std: 0.01 
 }
 bias_filler {
 type: "constant"
 }
 }
 }
layer {
 name: "hourglass2_branch2_res3_branch1_sub1_bn3"
 type: "BatchNorm" 
 bottom: "hourglass2_branch2_res3_branch1_sub1_conv2" 
 top: "hourglass2_branch2_res3_branch1_sub1_bn3" 
 param { 
 lr_mult: 0 
 } 
 param { 
 lr_mult: 0 
 } 
 param { 
 lr_mult: 0 
 } 
 batch_norm_param {
        use_global_stats: false
 }
}
layer {
 name: "hourglass2_branch2_res3_branch1_sub1_scale3"
 type: "Scale" 
 bottom: "hourglass2_branch2_res3_branch1_sub1_bn3" 
 top: "hourglass2_branch2_res3_branch1_sub1_scale3" 
 scale_param { 
 bias_term: true 
 } 
 }
layer {
 name: "hourglass2_branch2_res3_branch1_sub1_relu3"
 type: "ReLU" 
 bottom: "hourglass2_branch2_res3_branch1_sub1_scale3" 
 top: "hourglass2_branch2_res3_branch1_sub1_relu3" 
}
layer {
 name: "hourglass2_branch2_res3_branch1_sub1_conv3"
 type: "Convolution" 
 bottom: "hourglass2_branch2_res3_branch1_sub1_relu3" 
 top: "hourglass2_branch2_res3_branch1_sub1_conv3" 
  param {
 	 lr_mult: 1
 	 decay_mult: 1
 }
 param {
 	 lr_mult: 2
 	 decay_mult: 0
 }
 convolution_param { 
 num_output: 256
 pad: 1
 kernel_size: 3
 stride:1
 weight_filler { 
 type: "gaussian"
 std: 0.01 
 }
 bias_filler {
 type: "constant"
 }
 }
 }
layer {
 name: "hourglass2_branch2_res3_branch1_sub2_bn1"
 type: "BatchNorm" 
 bottom: "hourglass2_branch2_res2" 
 top: "hourglass2_branch2_res3_branch1_sub2_bn1" 
 param { 
 lr_mult: 0 
 } 
 param { 
 lr_mult: 0 
 } 
 param { 
 lr_mult: 0 
 } 
 batch_norm_param {
        use_global_stats: false
 }
}
layer {
 name: "hourglass2_branch2_res3_branch1_sub2_scale1"
 type: "Scale" 
 bottom: "hourglass2_branch2_res3_branch1_sub2_bn1" 
 top: "hourglass2_branch2_res3_branch1_sub2_scale1" 
 scale_param { 
 bias_term: true 
 } 
 }
layer {
 name: "hourglass2_branch2_res3_branch1_sub2_relu1"
 type: "ReLU" 
 bottom: "hourglass2_branch2_res3_branch1_sub2_scale1" 
 top: "hourglass2_branch2_res3_branch1_sub2_relu1" 
}
layer {
 name: "hourglass2_branch2_res3_branch1_sub2_conv1"
 type: "Convolution" 
 bottom: "hourglass2_branch2_res3_branch1_sub2_relu1" 
 top: "hourglass2_branch2_res3_branch1_sub2_conv1" 
  param {
 	 lr_mult: 1
 	 decay_mult: 1
 }
 param {
 	 lr_mult: 2
 	 decay_mult: 0
 }
 convolution_param { 
 num_output: 256
 pad: 0
 kernel_size: 1
 stride:1
 weight_filler { 
 type: "gaussian"
 std: 0.01 
 }
 bias_filler {
 type: "constant"
 }
 }
 }
layer {
 name: "hourglass2_branch2_res3_branch1_sub2_bn2"
 type: "BatchNorm" 
 bottom: "hourglass2_branch2_res3_branch1_sub2_conv1" 
 top: "hourglass2_branch2_res3_branch1_sub2_bn2" 
 param { 
 lr_mult: 0 
 } 
 param { 
 lr_mult: 0 
 } 
 param { 
 lr_mult: 0 
 } 
 batch_norm_param {
        use_global_stats: false
 }
}
layer {
 name: "hourglass2_branch2_res3_branch1_sub2_scale2"
 type: "Scale" 
 bottom: "hourglass2_branch2_res3_branch1_sub2_bn2" 
 top: "hourglass2_branch2_res3_branch1_sub2_scale2" 
 scale_param { 
 bias_term: true 
 } 
 }
layer {
 name: "hourglass2_branch2_res3_branch1_sub2_relu2"
 type: "ReLU" 
 bottom: "hourglass2_branch2_res3_branch1_sub2_scale2" 
 top: "hourglass2_branch2_res3_branch1_sub2_relu2" 
}
layer {
 name: "hourglass2_branch2_res3_branch1_sub2_conv2"
 type: "Convolution" 
 bottom: "hourglass2_branch2_res3_branch1_sub2_relu2" 
 top: "hourglass2_branch2_res3_branch1_sub2_conv2" 
  param {
 	 lr_mult: 1
 	 decay_mult: 1
 }
 param {
 	 lr_mult: 2
 	 decay_mult: 0
 }
 convolution_param { 
 num_output: 256
 pad: 1
 kernel_size: 3
 stride:1
 weight_filler { 
 type: "gaussian"
 std: 0.01 
 }
 bias_filler {
 type: "constant"
 }
 }
 }
layer {
 name: "hourglass2_branch2_res3_branch1_concat"
 type: "Concat" 
 bottom: "hourglass2_branch2_res3_branch1_sub1_conv3" 
 top: "hourglass2_branch2_res3_branch1_concat" 
 bottom: "hourglass2_branch2_res3_branch1_sub2_conv2"
 concat_param { 
 axis: 1
 } 
}
layer {
 name: "hourglass2_branch2_res3_branch1_conv_linear"
 type: "Convolution" 
 bottom: "hourglass2_branch2_res3_branch1_concat" 
 top: "hourglass2_branch2_res3_branch1_conv_linear" 
  param {
 	 lr_mult: 1
 	 decay_mult: 1
 }
 param {
 	 lr_mult: 2
 	 decay_mult: 0
 }
 convolution_param { 
 num_output: 512
 pad: 0
 kernel_size: 1
 stride:1
 weight_filler { 
 type: "gaussian"
 std: 0.01 
 }
 bias_filler {
 type: "constant"
 }
 }
 }
layer {
 name: "hourglass2_branch2_res3_branch1_linear_batch"
 type: "BatchNorm" 
 bottom: "hourglass2_branch2_res3_branch1_conv_linear" 
 top: "hourglass2_branch2_res3_branch1_linear_batch" 
 param { 
 lr_mult: 0 
 } 
 param { 
 lr_mult: 0 
 } 
 param { 
 lr_mult: 0 
 } 
 batch_norm_param {
        use_global_stats: false
 }
}
layer {
 name: "hourglass2_branch2_res3_branch1_linear_scale"
 type: "Scale" 
 bottom: "hourglass2_branch2_res3_branch1_linear_batch" 
 top: "hourglass2_branch2_res3_branch1_linear_scale" 
 scale_param { 
 bias_term: true 
 } 
 }
layer {
 name: "hourglass2_branch2_res3_branch2_conv"
 type: "Convolution" 
 bottom: "hourglass2_branch2_res2" 
 top: "hourglass2_branch2_res3_branch2_conv" 
  param {
 	 lr_mult: 1
 	 decay_mult: 1
 }
 param {
 	 lr_mult: 2
 	 decay_mult: 0
 }
 convolution_param { 
 num_output: 512
 pad: 0
 kernel_size: 1
 stride:1
 weight_filler { 
 type: "gaussian"
 std: 0.01 
 }
 bias_filler {
 type: "constant"
 }
 }
 }
layer {
 name: "hourglass2_branch2_res3"
 type: "Eltwise" 
 bottom: "hourglass2_branch2_res3_branch1_linear_scale" 
 top: "hourglass2_branch2_res3" 
 bottom: "hourglass2_branch2_res3_branch2_conv" 
 eltwise_param { 
 operation: SUM 
 } 
 }
layer {
 name: "hourglass2"
 type: "Eltwise" 
 bottom: "hourglass2_upsampling" 
 top: "hourglass2" 
 bottom: "hourglass2_branch2_res3" 
 eltwise_param { 
 operation: SUM 
 } 
 }
layer {
 name: "fc_3"
 type: "Convolution" 
 bottom: "hourglass2" 
 top: "fc_3" 
  param {
 	 lr_mult: 1
 	 decay_mult: 1
 }
 param {
 	 lr_mult: 2
 	 decay_mult: 0
 }
 convolution_param { 
 num_output: 512
 pad: 0
 kernel_size: 1
 stride:1
 weight_filler { 
 type: "gaussian"
 std: 0.01 
 }
 bias_filler {
 type: "constant"
 }
 }
 }
layer {
 name: "fc_4"
 type: "Convolution" 
 bottom: "fc_3" 
 top: "fc_4" 
  param {
 	 lr_mult: 1
 	 decay_mult: 1
 }
 param {
 	 lr_mult: 2
 	 decay_mult: 0
 }
 convolution_param { 
 num_output: 256
 pad: 0
 kernel_size: 1
 stride:1
 weight_filler { 
 type: "gaussian"
 std: 0.01 
 }
 bias_filler {
 type: "constant"
 }
 }
 }
layer {
 name: "conv_5_new"
 type: "Convolution" 
 bottom: "fc_4" 
 top: "heatmap2" 
  param {
 	 lr_mult: 1
 	 decay_mult: 1
 }
 param {
 	 lr_mult: 2
 	 decay_mult: 0
 }
 convolution_param { 
 num_output: 1344
 pad: 0
 kernel_size: 1
 stride:1
 weight_filler { 
 type: "gaussian"
 std: 0.01 
 }
 bias_filler {
 type: "constant"
 }
 }
 }

 
 
layer {
 name: "loss2_joints"
 type: "EuclideanLoss" 
 bottom: "heatmap2"
 top: "loss2_joints" 
 bottom: "label"
 loss_weight: 1

}






#-----slice cube 16 joints
layer {
  name: "slice_cube"
  bottom: "heatmap2"
  top: "cube_0"
  top: "cube_1"
  top: "cube_2"
  top: "cube_3"
  top: "cube_4"
  top: "cube_5"
  top: "cube_6"
  top: "cube_7"
  top: "cube_8"
  top: "cube_9"
  top: "cube_10"
  top: "cube_11"
  top: "cube_12"
  top: "cube_13"
  top: "cube_14"
  top: "cube_15"
  top: "cube_16"
  top: "cube_17"
  top: "cube_18"
  top: "cube_19"
  top: "cube_20"
  type: "Slice"
  slice_param {
     axis: 1	 
	 slice_point: 64
	 slice_point: 128
	 slice_point: 192
	 slice_point: 256
	 slice_point: 320
	 slice_point: 384
	 slice_point: 448
	 slice_point: 512
	 slice_point: 576
	 slice_point: 640
	 slice_point: 704
	 slice_point: 768
	 slice_point: 832
	 slice_point: 896
	 slice_point: 960	 
	 slice_point: 1024
	 slice_point: 1088	 
	 slice_point: 1152	 
	 slice_point: 1216	 
	 slice_point: 1280	 
  }
}







#----flatten cube_0
layer {
  name: "flat_cube_0"
  bottom: "cube_0"
  top: "cube_0_flat"
  type: "Flatten"
}



#---norm vector cube_0
layer {
  name: "norm_vec_cube_0"
  bottom: "cube_0_flat"
  top: "cube_0_flat_norm"
  type: "DeepHandModelNormalizationVector"
}



#---reshape cube_0
layer {
  name: "reshape_norm_vec_cube_0"
  type: "Reshape"
  bottom: "cube_0_flat_norm"
  top: "pred_cube_0"
  reshape_param {
    shape  {
	  dim: 0
	  dim: 64
	  dim: 64
	  dim: 64
	}
  }
}





#----integral x cube_0
layer {
  name: "integral_x_cube_0_vec"
  type: "DeepHandModelIntegralX"
  bottom: "pred_cube_0"
  top: "pred_cube_0_x_vec"  
}






layer {
  name: "integral_x_cube_0_vaue"
  type: "DeepHandModelIntegralVector"
  bottom: "pred_cube_0_x_vec"
  top: "pred_cube_0_x"  
  deep_hand_model_integral_vector_param { 
     dim_lb: 0.0
	 dim_ub: 1.0
  }
}


#layer {
  #name: "output_pred_cube_0_x_vec"
  #type: "OutputBlob"
  #bottom: "pred_cube_0_x"
  #bottom: "image_index"
  #output_blob_param {
    #save_path: "X:\\wqf\\HandChallenge3DIntegral\\cube_0\\"
	#blob_name: "cube_0"
  #}
  #include {
    #phase: TRAIN
  #}
#}


#----integral y cube_0
layer {
  name: "integral_y_cube_0_vec"
  type: "DeepHandModelIntegralY"
  bottom: "pred_cube_0"
  top: "pred_cube_0_y_vec"  
}

layer {
  name: "integral_y_cube_0_vaue"
  type: "DeepHandModelIntegralVector"
  bottom: "pred_cube_0_y_vec"
  top: "pred_cube_0_y"  
  deep_hand_model_integral_vector_param { 
     dim_lb: 0.0
	 dim_ub: 1.0
  }
}

#----integral z cube_0
layer {
  name: "integral_z_cube_0_vec"
  type: "DeepHandModelIntegralZ"
  bottom: "pred_cube_0"
  top: "pred_cube_0_z_vec"  
}

layer {
  name: "integral_z_cube_0_vaue"
  type: "DeepHandModelIntegralVector"
  bottom: "pred_cube_0_z_vec"
  top: "pred_cube_0_z"  
  deep_hand_model_integral_vector_param { 
     dim_lb: -1.0
	 dim_ub: 1.0
  }
}



#----flatten cube_1
layer {
  name: "flat_cube_1"
  bottom: "cube_1"
  top: "cube_1_flat"
  type: "Flatten"
}


#---norm vector cube_1
layer {
  name: "norm_vec_cube_1"
  bottom: "cube_1_flat"
  top: "cube_1_flat_norm"
  type: "DeepHandModelNormalizationVector"
}


#---reshape cube_1
layer {
  name: "reshape_norm_vec_cube_1"
  type: "Reshape"
  bottom: "cube_1_flat_norm"
  top: "pred_cube_1"
  reshape_param {
    shape  {
	  dim: 0
	  dim: 64
	  dim: 64
	  dim: 64
	}
  }
}

#----integral x cube_1
layer {
  name: "integral_x_cube_1_vec"
  type: "DeepHandModelIntegralX"
  bottom: "pred_cube_1"
  top: "pred_cube_1_x_vec"  
}

layer {
  name: "integral_x_cube_1_vaue"
  type: "DeepHandModelIntegralVector"
  bottom: "pred_cube_1_x_vec"
  top: "pred_cube_1_x"  
  deep_hand_model_integral_vector_param { 
     dim_lb: 0.0
	 dim_ub: 1.0
  }
}


#----integral y cube_1
layer {
  name: "integral_y_cube_1_vec"
  type: "DeepHandModelIntegralY"
  bottom: "pred_cube_1"
  top: "pred_cube_1_y_vec"  
}

layer {
  name: "integral_y_cube_1_vaue"
  type: "DeepHandModelIntegralVector"
  bottom: "pred_cube_1_y_vec"
  top: "pred_cube_1_y"  
  deep_hand_model_integral_vector_param { 
     dim_lb: 0.0
	 dim_ub: 1.0
  }
}

#----integral z cube_1
layer {
  name: "integral_z_cube_1_vec"
  type: "DeepHandModelIntegralZ"
  bottom: "pred_cube_1"
  top: "pred_cube_1_z_vec"  
}

layer {
  name: "integral_z_cube_1_vaue"
  type: "DeepHandModelIntegralVector"
  bottom: "pred_cube_1_z_vec"
  top: "pred_cube_1_z"  
  deep_hand_model_integral_vector_param { 
     dim_lb: -1.0
	 dim_ub: 1.0
  }
}



#----flatten cube_2
layer {
  name: "flat_cube_2"
  bottom: "cube_2"
  top: "cube_2_flat"
  type: "Flatten"
}


#---norm vector cube_2
layer {
  name: "norm_vec_cube_2"
  bottom: "cube_2_flat"
  top: "cube_2_flat_norm"
  type: "DeepHandModelNormalizationVector"
}


#---reshape cube_2
layer {
  name: "reshape_norm_vec_cube_2"
  type: "Reshape"
  bottom: "cube_2_flat_norm"
  top: "pred_cube_2"
  reshape_param {
    shape  {
	  dim: 0
	  dim: 64
	  dim: 64
	  dim: 64
	}
  }
}

#----integral x cube_2
layer {
  name: "integral_x_cube_2_vec"
  type: "DeepHandModelIntegralX"
  bottom: "pred_cube_2"
  top: "pred_cube_2_x_vec"  
}

layer {
  name: "integral_x_cube_2_vaue"
  type: "DeepHandModelIntegralVector"
  bottom: "pred_cube_2_x_vec"
  top: "pred_cube_2_x"  
  deep_hand_model_integral_vector_param { 
     dim_lb: 0.0
	 dim_ub: 1.0
  }
}


#----integral y cube_2
layer {
  name: "integral_y_cube_2_vec"
  type: "DeepHandModelIntegralY"
  bottom: "pred_cube_2"
  top: "pred_cube_2_y_vec"  
}

layer {
  name: "integral_y_cube_2_vaue"
  type: "DeepHandModelIntegralVector"
  bottom: "pred_cube_2_y_vec"
  top: "pred_cube_2_y"  
  deep_hand_model_integral_vector_param { 
     dim_lb: 0.0
	 dim_ub: 1.0
  }
}

#----integral z cube_2
layer {
  name: "integral_z_cube_2_vec"
  type: "DeepHandModelIntegralZ"
  bottom: "pred_cube_2"
  top: "pred_cube_2_z_vec"  
}

layer {
  name: "integral_z_cube_2_vaue"
  type: "DeepHandModelIntegralVector"
  bottom: "pred_cube_2_z_vec"
  top: "pred_cube_2_z"  
  deep_hand_model_integral_vector_param { 
     dim_lb: -1.0
	 dim_ub: 1.0
  }
}





#----flatten cube_3
layer {
  name: "flat_cube_3"
  bottom: "cube_3"
  top: "cube_3_flat"
  type: "Flatten"
}


#---norm vector cube_3
layer {
  name: "norm_vec_cube_3"
  bottom: "cube_3_flat"
  top: "cube_3_flat_norm"
  type: "DeepHandModelNormalizationVector"
}


#---reshape cube_3
layer {
  name: "reshape_norm_vec_cube_3"
  type: "Reshape"
  bottom: "cube_3_flat_norm"
  top: "pred_cube_3"
  reshape_param {
    shape  {
	  dim: 0
	  dim: 64
	  dim: 64
	  dim: 64
	}
  }
}

#----integral x cube_3
layer {
  name: "integral_x_cube_3_vec"
  type: "DeepHandModelIntegralX"
  bottom: "pred_cube_3"
  top: "pred_cube_3_x_vec"  
}

layer {
  name: "integral_x_cube_3_vaue"
  type: "DeepHandModelIntegralVector"
  bottom: "pred_cube_3_x_vec"
  top: "pred_cube_3_x"  
  deep_hand_model_integral_vector_param { 
     dim_lb: 0.0
	 dim_ub: 1.0
  }
}


#----integral y cube_3
layer {
  name: "integral_y_cube_3_vec"
  type: "DeepHandModelIntegralY"
  bottom: "pred_cube_3"
  top: "pred_cube_3_y_vec"  
}

layer {
  name: "integral_y_cube_3_vaue"
  type: "DeepHandModelIntegralVector"
  bottom: "pred_cube_3_y_vec"
  top: "pred_cube_3_y"  
  deep_hand_model_integral_vector_param { 
     dim_lb: 0.0
	 dim_ub: 1.0
  }
}

#----integral z cube_3
layer {
  name: "integral_z_cube_3_vec"
  type: "DeepHandModelIntegralZ"
  bottom: "pred_cube_3"
  top: "pred_cube_3_z_vec"  
}

layer {
  name: "integral_z_cube_3_vaue"
  type: "DeepHandModelIntegralVector"
  bottom: "pred_cube_3_z_vec"
  top: "pred_cube_3_z"  
  deep_hand_model_integral_vector_param { 
     dim_lb: -1.0
	 dim_ub: 1.0
  }
}





#----flatten cube_4
layer {
  name: "flat_cube_4"
  bottom: "cube_4"
  top: "cube_4_flat"
  type: "Flatten"
}


#---norm vector cube_4
layer {
  name: "norm_vec_cube_4"
  bottom: "cube_4_flat"
  top: "cube_4_flat_norm"
  type: "DeepHandModelNormalizationVector"
}


#---reshape cube_4
layer {
  name: "reshape_norm_vec_cube_4"
  type: "Reshape"
  bottom: "cube_4_flat_norm"
  top: "pred_cube_4"
  reshape_param {
    shape  {
	  dim: 0
	  dim: 64
	  dim: 64
	  dim: 64
	}
  }
}

#----integral x cube_4
layer {
  name: "integral_x_cube_4_vec"
  type: "DeepHandModelIntegralX"
  bottom: "pred_cube_4"
  top: "pred_cube_4_x_vec"  
}

layer {
  name: "integral_x_cube_4_vaue"
  type: "DeepHandModelIntegralVector"
  bottom: "pred_cube_4_x_vec"
  top: "pred_cube_4_x"  
  deep_hand_model_integral_vector_param { 
     dim_lb: 0.0
	 dim_ub: 1.0
  }
}


#----integral y cube_4
layer {
  name: "integral_y_cube_4_vec"
  type: "DeepHandModelIntegralY"
  bottom: "pred_cube_4"
  top: "pred_cube_4_y_vec"  
}

layer {
  name: "integral_y_cube_4_vaue"
  type: "DeepHandModelIntegralVector"
  bottom: "pred_cube_4_y_vec"
  top: "pred_cube_4_y"  
  deep_hand_model_integral_vector_param { 
     dim_lb: 0.0
	 dim_ub: 1.0
  }
}

#----integral z cube_4
layer {
  name: "integral_z_cube_4_vec"
  type: "DeepHandModelIntegralZ"
  bottom: "pred_cube_4"
  top: "pred_cube_4_z_vec"  
}

layer {
  name: "integral_z_cube_4_vaue"
  type: "DeepHandModelIntegralVector"
  bottom: "pred_cube_4_z_vec"
  top: "pred_cube_4_z"  
  deep_hand_model_integral_vector_param { 
     dim_lb: -1.0
	 dim_ub: 1.0
  }
}





#----flatten cube_5
layer {
  name: "flat_cube_5"
  bottom: "cube_5"
  top: "cube_5_flat"
  type: "Flatten"
}


#---norm vector cube_5
layer {
  name: "norm_vec_cube_5"
  bottom: "cube_5_flat"
  top: "cube_5_flat_norm"
  type: "DeepHandModelNormalizationVector"
}


#---reshape cube_5
layer {
  name: "reshape_norm_vec_cube_5"
  type: "Reshape"
  bottom: "cube_5_flat_norm"
  top: "pred_cube_5"
  reshape_param {
    shape  {
	  dim: 0
	  dim: 64
	  dim: 64
	  dim: 64
	}
  }
}

#----integral x cube_5
layer {
  name: "integral_x_cube_5_vec"
  type: "DeepHandModelIntegralX"
  bottom: "pred_cube_5"
  top: "pred_cube_5_x_vec"  
}

layer {
  name: "integral_x_cube_5_vaue"
  type: "DeepHandModelIntegralVector"
  bottom: "pred_cube_5_x_vec"
  top: "pred_cube_5_x"  
  deep_hand_model_integral_vector_param { 
     dim_lb: 0.0
	 dim_ub: 1.0
  }
}


#----integral y cube_5
layer {
  name: "integral_y_cube_5_vec"
  type: "DeepHandModelIntegralY"
  bottom: "pred_cube_5"
  top: "pred_cube_5_y_vec"  
}

layer {
  name: "integral_y_cube_5_vaue"
  type: "DeepHandModelIntegralVector"
  bottom: "pred_cube_5_y_vec"
  top: "pred_cube_5_y"  
  deep_hand_model_integral_vector_param { 
     dim_lb: 0.0
	 dim_ub: 1.0
  }
}

#----integral z cube_5
layer {
  name: "integral_z_cube_5_vec"
  type: "DeepHandModelIntegralZ"
  bottom: "pred_cube_5"
  top: "pred_cube_5_z_vec"  
}

layer {
  name: "integral_z_cube_5_vaue"
  type: "DeepHandModelIntegralVector"
  bottom: "pred_cube_5_z_vec"
  top: "pred_cube_5_z"  
  deep_hand_model_integral_vector_param { 
     dim_lb: -1.0
	 dim_ub: 1.0
  }
}





#----flatten cube_6
layer {
  name: "flat_cube_6"
  bottom: "cube_6"
  top: "cube_6_flat"
  type: "Flatten"
}


#---norm vector cube_6
layer {
  name: "norm_vec_cube_6"
  bottom: "cube_6_flat"
  top: "cube_6_flat_norm"
  type: "DeepHandModelNormalizationVector"
}


#---reshape cube_6
layer {
  name: "reshape_norm_vec_cube_6"
  type: "Reshape"
  bottom: "cube_6_flat_norm"
  top: "pred_cube_6"
  reshape_param {
    shape  {
	  dim: 0
	  dim: 64
	  dim: 64
	  dim: 64
	}
  }
}

#----integral x cube_6
layer {
  name: "integral_x_cube_6_vec"
  type: "DeepHandModelIntegralX"
  bottom: "pred_cube_6"
  top: "pred_cube_6_x_vec"  
}

layer {
  name: "integral_x_cube_6_vaue"
  type: "DeepHandModelIntegralVector"
  bottom: "pred_cube_6_x_vec"
  top: "pred_cube_6_x"  
  deep_hand_model_integral_vector_param { 
     dim_lb: 0.0
	 dim_ub: 1.0
  }
}


#----integral y cube_6
layer {
  name: "integral_y_cube_6_vec"
  type: "DeepHandModelIntegralY"
  bottom: "pred_cube_6"
  top: "pred_cube_6_y_vec"  
}

layer {
  name: "integral_y_cube_6_vaue"
  type: "DeepHandModelIntegralVector"
  bottom: "pred_cube_6_y_vec"
  top: "pred_cube_6_y"  
  deep_hand_model_integral_vector_param { 
     dim_lb: 0.0
	 dim_ub: 1.0
  }
}

#----integral z cube_6
layer {
  name: "integral_z_cube_6_vec"
  type: "DeepHandModelIntegralZ"
  bottom: "pred_cube_6"
  top: "pred_cube_6_z_vec"  
}

layer {
  name: "integral_z_cube_6_vaue"
  type: "DeepHandModelIntegralVector"
  bottom: "pred_cube_6_z_vec"
  top: "pred_cube_6_z"  
  deep_hand_model_integral_vector_param { 
     dim_lb: -1.0
	 dim_ub: 1.0
  }
}





#----flatten cube_7
layer {
  name: "flat_cube_7"
  bottom: "cube_7"
  top: "cube_7_flat"
  type: "Flatten"
}


#---norm vector cube_7
layer {
  name: "norm_vec_cube_7"
  bottom: "cube_7_flat"
  top: "cube_7_flat_norm"
  type: "DeepHandModelNormalizationVector"
}


#---reshape cube_7
layer {
  name: "reshape_norm_vec_cube_7"
  type: "Reshape"
  bottom: "cube_7_flat_norm"
  top: "pred_cube_7"
  reshape_param {
    shape  {
	  dim: 0
	  dim: 64
	  dim: 64
	  dim: 64
	}
  }
}

#----integral x cube_7
layer {
  name: "integral_x_cube_7_vec"
  type: "DeepHandModelIntegralX"
  bottom: "pred_cube_7"
  top: "pred_cube_7_x_vec"  
}

layer {
  name: "integral_x_cube_7_vaue"
  type: "DeepHandModelIntegralVector"
  bottom: "pred_cube_7_x_vec"
  top: "pred_cube_7_x"  
  deep_hand_model_integral_vector_param { 
     dim_lb: 0.0
	 dim_ub: 1.0
  }
}


#----integral y cube_7
layer {
  name: "integral_y_cube_7_vec"
  type: "DeepHandModelIntegralY"
  bottom: "pred_cube_7"
  top: "pred_cube_7_y_vec"  
}

layer {
  name: "integral_y_cube_7_vaue"
  type: "DeepHandModelIntegralVector"
  bottom: "pred_cube_7_y_vec"
  top: "pred_cube_7_y"  
  deep_hand_model_integral_vector_param { 
     dim_lb: 0.0
	 dim_ub: 1.0
  }
}

#----integral z cube_7
layer {
  name: "integral_z_cube_7_vec"
  type: "DeepHandModelIntegralZ"
  bottom: "pred_cube_7"
  top: "pred_cube_7_z_vec"  
}

layer {
  name: "integral_z_cube_7_vaue"
  type: "DeepHandModelIntegralVector"
  bottom: "pred_cube_7_z_vec"
  top: "pred_cube_7_z"  
  deep_hand_model_integral_vector_param { 
     dim_lb: -1.0
	 dim_ub: 1.0
  }
}





#----flatten cube_8
layer {
  name: "flat_cube_8"
  bottom: "cube_8"
  top: "cube_8_flat"
  type: "Flatten"
}


#---norm vector cube_8
layer {
  name: "norm_vec_cube_8"
  bottom: "cube_8_flat"
  top: "cube_8_flat_norm"
  type: "DeepHandModelNormalizationVector"
}


#---reshape cube_8
layer {
  name: "reshape_norm_vec_cube_8"
  type: "Reshape"
  bottom: "cube_8_flat_norm"
  top: "pred_cube_8"
  reshape_param {
    shape  {
	  dim: 0
	  dim: 64
	  dim: 64
	  dim: 64
	}
  }
}

#----integral x cube_8
layer {
  name: "integral_x_cube_8_vec"
  type: "DeepHandModelIntegralX"
  bottom: "pred_cube_8"
  top: "pred_cube_8_x_vec"  
}

layer {
  name: "integral_x_cube_8_vaue"
  type: "DeepHandModelIntegralVector"
  bottom: "pred_cube_8_x_vec"
  top: "pred_cube_8_x"  
  deep_hand_model_integral_vector_param { 
     dim_lb: 0.0
	 dim_ub: 1.0
  }
}


#----integral y cube_8
layer {
  name: "integral_y_cube_8_vec"
  type: "DeepHandModelIntegralY"
  bottom: "pred_cube_8"
  top: "pred_cube_8_y_vec"  
}

layer {
  name: "integral_y_cube_8_vaue"
  type: "DeepHandModelIntegralVector"
  bottom: "pred_cube_8_y_vec"
  top: "pred_cube_8_y"  
  deep_hand_model_integral_vector_param { 
     dim_lb: 0.0
	 dim_ub: 1.0
  }
}

#----integral z cube_8
layer {
  name: "integral_z_cube_8_vec"
  type: "DeepHandModelIntegralZ"
  bottom: "pred_cube_8"
  top: "pred_cube_8_z_vec"  
}

layer {
  name: "integral_z_cube_8_vaue"
  type: "DeepHandModelIntegralVector"
  bottom: "pred_cube_8_z_vec"
  top: "pred_cube_8_z"  
  deep_hand_model_integral_vector_param { 
     dim_lb: -1.0
	 dim_ub: 1.0
  }
}





#----flatten cube_9
layer {
  name: "flat_cube_9"
  bottom: "cube_9"
  top: "cube_9_flat"
  type: "Flatten"
}


#---norm vector cube_9
layer {
  name: "norm_vec_cube_9"
  bottom: "cube_9_flat"
  top: "cube_9_flat_norm"
  type: "DeepHandModelNormalizationVector"
}


#---reshape cube_9
layer {
  name: "reshape_norm_vec_cube_9"
  type: "Reshape"
  bottom: "cube_9_flat_norm"
  top: "pred_cube_9"
  reshape_param {
    shape  {
	  dim: 0
	  dim: 64
	  dim: 64
	  dim: 64
	}
  }
}

#----integral x cube_9
layer {
  name: "integral_x_cube_9_vec"
  type: "DeepHandModelIntegralX"
  bottom: "pred_cube_9"
  top: "pred_cube_9_x_vec"  
}

layer {
  name: "integral_x_cube_9_vaue"
  type: "DeepHandModelIntegralVector"
  bottom: "pred_cube_9_x_vec"
  top: "pred_cube_9_x"  
  deep_hand_model_integral_vector_param { 
     dim_lb: 0.0
	 dim_ub: 1.0
  }
}


#----integral y cube_9
layer {
  name: "integral_y_cube_9_vec"
  type: "DeepHandModelIntegralY"
  bottom: "pred_cube_9"
  top: "pred_cube_9_y_vec"  
}

layer {
  name: "integral_y_cube_9_vaue"
  type: "DeepHandModelIntegralVector"
  bottom: "pred_cube_9_y_vec"
  top: "pred_cube_9_y"  
  deep_hand_model_integral_vector_param { 
     dim_lb: 0.0
	 dim_ub: 1.0
  }
}

#----integral z cube_9
layer {
  name: "integral_z_cube_9_vec"
  type: "DeepHandModelIntegralZ"
  bottom: "pred_cube_9"
  top: "pred_cube_9_z_vec"  
}

layer {
  name: "integral_z_cube_9_vaue"
  type: "DeepHandModelIntegralVector"
  bottom: "pred_cube_9_z_vec"
  top: "pred_cube_9_z"  
  deep_hand_model_integral_vector_param { 
     dim_lb: -1.0
	 dim_ub: 1.0
  }
}





#----flatten cube_10
layer {
  name: "flat_cube_10"
  bottom: "cube_10"
  top: "cube_10_flat"
  type: "Flatten"
}


#---norm vector cube_10
layer {
  name: "norm_vec_cube_10"
  bottom: "cube_10_flat"
  top: "cube_10_flat_norm"
  type: "DeepHandModelNormalizationVector"
}


#---reshape cube_10
layer {
  name: "reshape_norm_vec_cube_10"
  type: "Reshape"
  bottom: "cube_10_flat_norm"
  top: "pred_cube_10"
  reshape_param {
    shape  {
	  dim: 0
	  dim: 64
	  dim: 64
	  dim: 64
	}
  }
}

#----integral x cube_10
layer {
  name: "integral_x_cube_10_vec"
  type: "DeepHandModelIntegralX"
  bottom: "pred_cube_10"
  top: "pred_cube_10_x_vec"  
}

layer {
  name: "integral_x_cube_10_vaue"
  type: "DeepHandModelIntegralVector"
  bottom: "pred_cube_10_x_vec"
  top: "pred_cube_10_x"  
  deep_hand_model_integral_vector_param { 
     dim_lb: 0.0
	 dim_ub: 1.0
  }
}


#----integral y cube_10
layer {
  name: "integral_y_cube_10_vec"
  type: "DeepHandModelIntegralY"
  bottom: "pred_cube_10"
  top: "pred_cube_10_y_vec"  
}

layer {
  name: "integral_y_cube_10_vaue"
  type: "DeepHandModelIntegralVector"
  bottom: "pred_cube_10_y_vec"
  top: "pred_cube_10_y"  
  deep_hand_model_integral_vector_param { 
     dim_lb: 0.0
	 dim_ub: 1.0
  }
}

#----integral z cube_10
layer {
  name: "integral_z_cube_10_vec"
  type: "DeepHandModelIntegralZ"
  bottom: "pred_cube_10"
  top: "pred_cube_10_z_vec"  
}

layer {
  name: "integral_z_cube_10_vaue"
  type: "DeepHandModelIntegralVector"
  bottom: "pred_cube_10_z_vec"
  top: "pred_cube_10_z"  
  deep_hand_model_integral_vector_param { 
     dim_lb: -1.0
	 dim_ub: 1.0
  }
}





#----flatten cube_11
layer {
  name: "flat_cube_11"
  bottom: "cube_11"
  top: "cube_11_flat"
  type: "Flatten"
}


#---norm vector cube_11
layer {
  name: "norm_vec_cube_11"
  bottom: "cube_11_flat"
  top: "cube_11_flat_norm"
  type: "DeepHandModelNormalizationVector"
}


#---reshape cube_11
layer {
  name: "reshape_norm_vec_cube_11"
  type: "Reshape"
  bottom: "cube_11_flat_norm"
  top: "pred_cube_11"
  reshape_param {
    shape  {
	  dim: 0
	  dim: 64
	  dim: 64
	  dim: 64
	}
  }
}

#----integral x cube_11
layer {
  name: "integral_x_cube_11_vec"
  type: "DeepHandModelIntegralX"
  bottom: "pred_cube_11"
  top: "pred_cube_11_x_vec"  
}

layer {
  name: "integral_x_cube_11_vaue"
  type: "DeepHandModelIntegralVector"
  bottom: "pred_cube_11_x_vec"
  top: "pred_cube_11_x"  
  deep_hand_model_integral_vector_param { 
     dim_lb: 0.0
	 dim_ub: 1.0
  }
}


#----integral y cube_11
layer {
  name: "integral_y_cube_11_vec"
  type: "DeepHandModelIntegralY"
  bottom: "pred_cube_11"
  top: "pred_cube_11_y_vec"  
}

layer {
  name: "integral_y_cube_11_vaue"
  type: "DeepHandModelIntegralVector"
  bottom: "pred_cube_11_y_vec"
  top: "pred_cube_11_y"  
  deep_hand_model_integral_vector_param { 
     dim_lb: 0.0
	 dim_ub: 1.0
  }
}

#----integral z cube_11
layer {
  name: "integral_z_cube_11_vec"
  type: "DeepHandModelIntegralZ"
  bottom: "pred_cube_11"
  top: "pred_cube_11_z_vec"  
}

layer {
  name: "integral_z_cube_11_vaue"
  type: "DeepHandModelIntegralVector"
  bottom: "pred_cube_11_z_vec"
  top: "pred_cube_11_z"  
  deep_hand_model_integral_vector_param { 
     dim_lb: -1.0
	 dim_ub: 1.0
  }
}





#----flatten cube_12
layer {
  name: "flat_cube_12"
  bottom: "cube_12"
  top: "cube_12_flat"
  type: "Flatten"
}


#---norm vector cube_12
layer {
  name: "norm_vec_cube_12"
  bottom: "cube_12_flat"
  top: "cube_12_flat_norm"
  type: "DeepHandModelNormalizationVector"
}


#---reshape cube_12
layer {
  name: "reshape_norm_vec_cube_12"
  type: "Reshape"
  bottom: "cube_12_flat_norm"
  top: "pred_cube_12"
  reshape_param {
    shape  {
	  dim: 0
	  dim: 64
	  dim: 64
	  dim: 64
	}
  }
}

#----integral x cube_12
layer {
  name: "integral_x_cube_12_vec"
  type: "DeepHandModelIntegralX"
  bottom: "pred_cube_12"
  top: "pred_cube_12_x_vec"  
}

layer {
  name: "integral_x_cube_12_vaue"
  type: "DeepHandModelIntegralVector"
  bottom: "pred_cube_12_x_vec"
  top: "pred_cube_12_x"  
  deep_hand_model_integral_vector_param { 
     dim_lb: 0.0
	 dim_ub: 1.0
  }
}


#----integral y cube_12
layer {
  name: "integral_y_cube_12_vec"
  type: "DeepHandModelIntegralY"
  bottom: "pred_cube_12"
  top: "pred_cube_12_y_vec"  
}

layer {
  name: "integral_y_cube_12_vaue"
  type: "DeepHandModelIntegralVector"
  bottom: "pred_cube_12_y_vec"
  top: "pred_cube_12_y"  
  deep_hand_model_integral_vector_param { 
     dim_lb: 0.0
	 dim_ub: 1.0
  }
}

#----integral z cube_12
layer {
  name: "integral_z_cube_12_vec"
  type: "DeepHandModelIntegralZ"
  bottom: "pred_cube_12"
  top: "pred_cube_12_z_vec"  
}

layer {
  name: "integral_z_cube_12_vaue"
  type: "DeepHandModelIntegralVector"
  bottom: "pred_cube_12_z_vec"
  top: "pred_cube_12_z"  
  deep_hand_model_integral_vector_param { 
     dim_lb: -1.0
	 dim_ub: 1.0
  }
}





#----flatten cube_13
layer {
  name: "flat_cube_13"
  bottom: "cube_13"
  top: "cube_13_flat"
  type: "Flatten"
}


#---norm vector cube_13
layer {
  name: "norm_vec_cube_13"
  bottom: "cube_13_flat"
  top: "cube_13_flat_norm"
  type: "DeepHandModelNormalizationVector"
}


#---reshape cube_13
layer {
  name: "reshape_norm_vec_cube_13"
  type: "Reshape"
  bottom: "cube_13_flat_norm"
  top: "pred_cube_13"
  reshape_param {
    shape  {
	  dim: 0
	  dim: 64
	  dim: 64
	  dim: 64
	}
  }
}

#----integral x cube_13
layer {
  name: "integral_x_cube_13_vec"
  type: "DeepHandModelIntegralX"
  bottom: "pred_cube_13"
  top: "pred_cube_13_x_vec"  
}

layer {
  name: "integral_x_cube_13_vaue"
  type: "DeepHandModelIntegralVector"
  bottom: "pred_cube_13_x_vec"
  top: "pred_cube_13_x"  
  deep_hand_model_integral_vector_param { 
     dim_lb: 0.0
	 dim_ub: 1.0
  }
}


#----integral y cube_13
layer {
  name: "integral_y_cube_13_vec"
  type: "DeepHandModelIntegralY"
  bottom: "pred_cube_13"
  top: "pred_cube_13_y_vec"  
}

layer {
  name: "integral_y_cube_13_vaue"
  type: "DeepHandModelIntegralVector"
  bottom: "pred_cube_13_y_vec"
  top: "pred_cube_13_y"  
  deep_hand_model_integral_vector_param { 
     dim_lb: 0.0
	 dim_ub: 1.0
  }
}

#----integral z cube_13
layer {
  name: "integral_z_cube_13_vec"
  type: "DeepHandModelIntegralZ"
  bottom: "pred_cube_13"
  top: "pred_cube_13_z_vec"  
}

layer {
  name: "integral_z_cube_13_vaue"
  type: "DeepHandModelIntegralVector"
  bottom: "pred_cube_13_z_vec"
  top: "pred_cube_13_z"  
  deep_hand_model_integral_vector_param { 
     dim_lb: -1.0
	 dim_ub: 1.0
  }
}





#----flatten cube_14
layer {
  name: "flat_cube_14"
  bottom: "cube_14"
  top: "cube_14_flat"
  type: "Flatten"
}


#---norm vector cube_14
layer {
  name: "norm_vec_cube_14"
  bottom: "cube_14_flat"
  top: "cube_14_flat_norm"
  type: "DeepHandModelNormalizationVector"
}


#---reshape cube_14
layer {
  name: "reshape_norm_vec_cube_14"
  type: "Reshape"
  bottom: "cube_14_flat_norm"
  top: "pred_cube_14"
  reshape_param {
    shape  {
	  dim: 0
	  dim: 64
	  dim: 64
	  dim: 64
	}
  }
}

#----integral x cube_14
layer {
  name: "integral_x_cube_14_vec"
  type: "DeepHandModelIntegralX"
  bottom: "pred_cube_14"
  top: "pred_cube_14_x_vec"  
}

layer {
  name: "integral_x_cube_14_vaue"
  type: "DeepHandModelIntegralVector"
  bottom: "pred_cube_14_x_vec"
  top: "pred_cube_14_x"  
  deep_hand_model_integral_vector_param { 
     dim_lb: 0.0
	 dim_ub: 1.0
  }
}


#----integral y cube_14
layer {
  name: "integral_y_cube_14_vec"
  type: "DeepHandModelIntegralY"
  bottom: "pred_cube_14"
  top: "pred_cube_14_y_vec"  
}

layer {
  name: "integral_y_cube_14_vaue"
  type: "DeepHandModelIntegralVector"
  bottom: "pred_cube_14_y_vec"
  top: "pred_cube_14_y"  
  deep_hand_model_integral_vector_param { 
     dim_lb: 0.0
	 dim_ub: 1.0
  }
}

#----integral z cube_14
layer {
  name: "integral_z_cube_14_vec"
  type: "DeepHandModelIntegralZ"
  bottom: "pred_cube_14"
  top: "pred_cube_14_z_vec"  
}

layer {
  name: "integral_z_cube_14_vaue"
  type: "DeepHandModelIntegralVector"
  bottom: "pred_cube_14_z_vec"
  top: "pred_cube_14_z"  
  deep_hand_model_integral_vector_param { 
     dim_lb: -1.0
	 dim_ub: 1.0
  }
}





#----flatten cube_15
layer {
  name: "flat_cube_15"
  bottom: "cube_15"
  top: "cube_15_flat"
  type: "Flatten"
}


#---norm vector cube_15
layer {
  name: "norm_vec_cube_15"
  bottom: "cube_15_flat"
  top: "cube_15_flat_norm"
  type: "DeepHandModelNormalizationVector"
}


#---reshape cube_15
layer {
  name: "reshape_norm_vec_cube_15"
  type: "Reshape"
  bottom: "cube_15_flat_norm"
  top: "pred_cube_15"
  reshape_param {
    shape  {
	  dim: 0
	  dim: 64
	  dim: 64
	  dim: 64
	}
  }
}

#----integral x cube_15
layer {
  name: "integral_x_cube_15_vec"
  type: "DeepHandModelIntegralX"
  bottom: "pred_cube_15"
  top: "pred_cube_15_x_vec"  
}

layer {
  name: "integral_x_cube_15_vaue"
  type: "DeepHandModelIntegralVector"
  bottom: "pred_cube_15_x_vec"
  top: "pred_cube_15_x"  
  deep_hand_model_integral_vector_param { 
     dim_lb: 0.0
	 dim_ub: 1.0
  }
}


#----integral y cube_15
layer {
  name: "integral_y_cube_15_vec"
  type: "DeepHandModelIntegralY"
  bottom: "pred_cube_15"
  top: "pred_cube_15_y_vec"  
}

layer {
  name: "integral_y_cube_15_vaue"
  type: "DeepHandModelIntegralVector"
  bottom: "pred_cube_15_y_vec"
  top: "pred_cube_15_y"  
  deep_hand_model_integral_vector_param { 
     dim_lb: 0.0
	 dim_ub: 1.0
  }
}

#----integral z cube_15
layer {
  name: "integral_z_cube_15_vec"
  type: "DeepHandModelIntegralZ"
  bottom: "pred_cube_15"
  top: "pred_cube_15_z_vec"  
}

layer {
  name: "integral_z_cube_15_vaue"
  type: "DeepHandModelIntegralVector"
  bottom: "pred_cube_15_z_vec"
  top: "pred_cube_15_z"  
  deep_hand_model_integral_vector_param { 
     dim_lb: -1.0
	 dim_ub: 1.0
  }
}






#----flatten cube_16
layer {
  name: "flat_cube_16"
  bottom: "cube_16"
  top: "cube_16_flat"
  type: "Flatten"
}


#---norm vector cube_16
layer {
  name: "norm_vec_cube_16"
  bottom: "cube_16_flat"
  top: "cube_16_flat_norm"
  type: "DeepHandModelNormalizationVector"
}


#---reshape cube_16
layer {
  name: "reshape_norm_vec_cube_16"
  type: "Reshape"
  bottom: "cube_16_flat_norm"
  top: "pred_cube_16"
  reshape_param {
    shape  {
	  dim: 0
	  dim: 64
	  dim: 64
	  dim: 64
	}
  }
}

#----integral x cube_16
layer {
  name: "integral_x_cube_16_vec"
  type: "DeepHandModelIntegralX"
  bottom: "pred_cube_16"
  top: "pred_cube_16_x_vec"  
}

layer {
  name: "integral_x_cube_16_vaue"
  type: "DeepHandModelIntegralVector"
  bottom: "pred_cube_16_x_vec"
  top: "pred_cube_16_x"  
  deep_hand_model_integral_vector_param { 
     dim_lb: 0.0
	 dim_ub: 1.0
  }
}


#----integral y cube_16
layer {
  name: "integral_y_cube_16_vec"
  type: "DeepHandModelIntegralY"
  bottom: "pred_cube_16"
  top: "pred_cube_16_y_vec"  
}

layer {
  name: "integral_y_cube_16_vaue"
  type: "DeepHandModelIntegralVector"
  bottom: "pred_cube_16_y_vec"
  top: "pred_cube_16_y"  
  deep_hand_model_integral_vector_param { 
     dim_lb: 0.0
	 dim_ub: 1.0
  }
}

#----integral z cube_16
layer {
  name: "integral_z_cube_16_vec"
  type: "DeepHandModelIntegralZ"
  bottom: "pred_cube_16"
  top: "pred_cube_16_z_vec"  
}

layer {
  name: "integral_z_cube_16_vaue"
  type: "DeepHandModelIntegralVector"
  bottom: "pred_cube_16_z_vec"
  top: "pred_cube_16_z"  
  deep_hand_model_integral_vector_param { 
     dim_lb: -1.0
	 dim_ub: 1.0
  }
}






#----flatten cube_17
layer {
  name: "flat_cube_17"
  bottom: "cube_17"
  top: "cube_17_flat"
  type: "Flatten"
}


#---norm vector cube_17
layer {
  name: "norm_vec_cube_17"
  bottom: "cube_17_flat"
  top: "cube_17_flat_norm"
  type: "DeepHandModelNormalizationVector"
}


#---reshape cube_17
layer {
  name: "reshape_norm_vec_cube_17"
  type: "Reshape"
  bottom: "cube_17_flat_norm"
  top: "pred_cube_17"
  reshape_param {
    shape  {
	  dim: 0
	  dim: 64
	  dim: 64
	  dim: 64
	}
  }
}

#----integral x cube_17
layer {
  name: "integral_x_cube_17_vec"
  type: "DeepHandModelIntegralX"
  bottom: "pred_cube_17"
  top: "pred_cube_17_x_vec"  
}

layer {
  name: "integral_x_cube_17_vaue"
  type: "DeepHandModelIntegralVector"
  bottom: "pred_cube_17_x_vec"
  top: "pred_cube_17_x"  
  deep_hand_model_integral_vector_param { 
     dim_lb: 0.0
	 dim_ub: 1.0
  }
}


#----integral y cube_17
layer {
  name: "integral_y_cube_17_vec"
  type: "DeepHandModelIntegralY"
  bottom: "pred_cube_17"
  top: "pred_cube_17_y_vec"  
}

layer {
  name: "integral_y_cube_17_vaue"
  type: "DeepHandModelIntegralVector"
  bottom: "pred_cube_17_y_vec"
  top: "pred_cube_17_y"  
  deep_hand_model_integral_vector_param { 
     dim_lb: 0.0
	 dim_ub: 1.0
  }
}

#----integral z cube_17
layer {
  name: "integral_z_cube_17_vec"
  type: "DeepHandModelIntegralZ"
  bottom: "pred_cube_17"
  top: "pred_cube_17_z_vec"  
}

layer {
  name: "integral_z_cube_17_vaue"
  type: "DeepHandModelIntegralVector"
  bottom: "pred_cube_17_z_vec"
  top: "pred_cube_17_z"  
  deep_hand_model_integral_vector_param { 
     dim_lb: -1.0
	 dim_ub: 1.0
  }
}



#----flatten cube_18
layer {
  name: "flat_cube_18"
  bottom: "cube_18"
  top: "cube_18_flat"
  type: "Flatten"
}


#---norm vector cube_18
layer {
  name: "norm_vec_cube_18"
  bottom: "cube_18_flat"
  top: "cube_18_flat_norm"
  type: "DeepHandModelNormalizationVector"
}


#---reshape cube_18
layer {
  name: "reshape_norm_vec_cube_18"
  type: "Reshape"
  bottom: "cube_18_flat_norm"
  top: "pred_cube_18"
  reshape_param {
    shape  {
	  dim: 0
	  dim: 64
	  dim: 64
	  dim: 64
	}
  }
}

#----integral x cube_18
layer {
  name: "integral_x_cube_18_vec"
  type: "DeepHandModelIntegralX"
  bottom: "pred_cube_18"
  top: "pred_cube_18_x_vec"  
}

layer {
  name: "integral_x_cube_18_vaue"
  type: "DeepHandModelIntegralVector"
  bottom: "pred_cube_18_x_vec"
  top: "pred_cube_18_x"  
  deep_hand_model_integral_vector_param { 
     dim_lb: 0.0
	 dim_ub: 1.0
  }
}


#----integral y cube_18
layer {
  name: "integral_y_cube_18_vec"
  type: "DeepHandModelIntegralY"
  bottom: "pred_cube_18"
  top: "pred_cube_18_y_vec"  
}

layer {
  name: "integral_y_cube_18_vaue"
  type: "DeepHandModelIntegralVector"
  bottom: "pred_cube_18_y_vec"
  top: "pred_cube_18_y"  
  deep_hand_model_integral_vector_param { 
     dim_lb: 0.0
	 dim_ub: 1.0
  }
}

#----integral z cube_18
layer {
  name: "integral_z_cube_18_vec"
  type: "DeepHandModelIntegralZ"
  bottom: "pred_cube_18"
  top: "pred_cube_18_z_vec"  
}

layer {
  name: "integral_z_cube_18_vaue"
  type: "DeepHandModelIntegralVector"
  bottom: "pred_cube_18_z_vec"
  top: "pred_cube_18_z"  
  deep_hand_model_integral_vector_param { 
     dim_lb: -1.0
	 dim_ub: 1.0
  }
}






#----flatten cube_19
layer {
  name: "flat_cube_19"
  bottom: "cube_19"
  top: "cube_19_flat"
  type: "Flatten"
}


#---norm vector cube_19
layer {
  name: "norm_vec_cube_19"
  bottom: "cube_19_flat"
  top: "cube_19_flat_norm"
  type: "DeepHandModelNormalizationVector"
}


#---reshape cube_19
layer {
  name: "reshape_norm_vec_cube_19"
  type: "Reshape"
  bottom: "cube_19_flat_norm"
  top: "pred_cube_19"
  reshape_param {
    shape  {
	  dim: 0
	  dim: 64
	  dim: 64
	  dim: 64
	}
  }
}

#----integral x cube_19
layer {
  name: "integral_x_cube_19_vec"
  type: "DeepHandModelIntegralX"
  bottom: "pred_cube_19"
  top: "pred_cube_19_x_vec"  
}

layer {
  name: "integral_x_cube_19_vaue"
  type: "DeepHandModelIntegralVector"
  bottom: "pred_cube_19_x_vec"
  top: "pred_cube_19_x"  
  deep_hand_model_integral_vector_param { 
     dim_lb: 0.0
	 dim_ub: 1.0
  }
}


#----integral y cube_19
layer {
  name: "integral_y_cube_19_vec"
  type: "DeepHandModelIntegralY"
  bottom: "pred_cube_19"
  top: "pred_cube_19_y_vec"  
}

layer {
  name: "integral_y_cube_19_vaue"
  type: "DeepHandModelIntegralVector"
  bottom: "pred_cube_19_y_vec"
  top: "pred_cube_19_y"  
  deep_hand_model_integral_vector_param { 
     dim_lb: 0.0
	 dim_ub: 1.0
  }
}

#----integral z cube_19
layer {
  name: "integral_z_cube_19_vec"
  type: "DeepHandModelIntegralZ"
  bottom: "pred_cube_19"
  top: "pred_cube_19_z_vec"  
}

layer {
  name: "integral_z_cube_19_vaue"
  type: "DeepHandModelIntegralVector"
  bottom: "pred_cube_19_z_vec"
  top: "pred_cube_19_z"  
  deep_hand_model_integral_vector_param { 
     dim_lb: -1.0
	 dim_ub: 1.0
  }
}





#----flatten cube_20
layer {
  name: "flat_cube_20"
  bottom: "cube_20"
  top: "cube_20_flat"
  type: "Flatten"
}


#---norm vector cube_20
layer {
  name: "norm_vec_cube_20"
  bottom: "cube_20_flat"
  top: "cube_20_flat_norm"
  type: "DeepHandModelNormalizationVector"
}


#---reshape cube_20
layer {
  name: "reshape_norm_vec_cube_20"
  type: "Reshape"
  bottom: "cube_20_flat_norm"
  top: "pred_cube_20"
  reshape_param {
    shape  {
	  dim: 0
	  dim: 64
	  dim: 64
	  dim: 64
	}
  }
}

#----integral x cube_20
layer {
  name: "integral_x_cube_20_vec"
  type: "DeepHandModelIntegralX"
  bottom: "pred_cube_20"
  top: "pred_cube_20_x_vec"  
}

layer {
  name: "integral_x_cube_20_vaue"
  type: "DeepHandModelIntegralVector"
  bottom: "pred_cube_20_x_vec"
  top: "pred_cube_20_x"  
  deep_hand_model_integral_vector_param { 
     dim_lb: 0.0
	 dim_ub: 1.0
  }
}


#----integral y cube_20
layer {
  name: "integral_y_cube_20_vec"
  type: "DeepHandModelIntegralY"
  bottom: "pred_cube_20"
  top: "pred_cube_20_y_vec"  
}

layer {
  name: "integral_y_cube_20_vaue"
  type: "DeepHandModelIntegralVector"
  bottom: "pred_cube_20_y_vec"
  top: "pred_cube_20_y"  
  deep_hand_model_integral_vector_param { 
     dim_lb: 0.0
	 dim_ub: 1.0
  }
}

#----integral z cube_20
layer {
  name: "integral_z_cube_20_vec"
  type: "DeepHandModelIntegralZ"
  bottom: "pred_cube_20"
  top: "pred_cube_20_z_vec"  
}

layer {
  name: "integral_z_cube_20_vaue"
  type: "DeepHandModelIntegralVector"
  bottom: "pred_cube_20_z_vec"
  top: "pred_cube_20_z"  
  deep_hand_model_integral_vector_param { 
     dim_lb: -1.0
	 dim_ub: 1.0
  }
}







layer {
  name: "gen_pred_joint_2d"
  type: "Concat"
  bottom: "pred_cube_0_x"
  bottom: "pred_cube_0_y"
  bottom: "pred_cube_1_x"
  bottom: "pred_cube_1_y"
  bottom: "pred_cube_2_x"
  bottom: "pred_cube_2_y"
  bottom: "pred_cube_3_x"
  bottom: "pred_cube_3_y"
  bottom: "pred_cube_4_x"
  bottom: "pred_cube_4_y"
  bottom: "pred_cube_5_x"
  bottom: "pred_cube_5_y"
  bottom: "pred_cube_6_x"
  bottom: "pred_cube_6_y"
  bottom: "pred_cube_7_x"
  bottom: "pred_cube_7_y"
  bottom: "pred_cube_8_x"
  bottom: "pred_cube_8_y"
  bottom: "pred_cube_9_x"
  bottom: "pred_cube_9_y"
  bottom: "pred_cube_10_x"
  bottom: "pred_cube_10_y"
  bottom: "pred_cube_11_x"
  bottom: "pred_cube_11_y"
  bottom: "pred_cube_12_x"
  bottom: "pred_cube_12_y"
  bottom: "pred_cube_13_x"
  bottom: "pred_cube_13_y"
  bottom: "pred_cube_14_x"
  bottom: "pred_cube_14_y"
  bottom: "pred_cube_15_x"
  bottom: "pred_cube_15_y"
  bottom: "pred_cube_16_x"
  bottom: "pred_cube_16_y"
  bottom: "pred_cube_17_x"
  bottom: "pred_cube_17_y"
  bottom: "pred_cube_18_x"
  bottom: "pred_cube_18_y"
  bottom: "pred_cube_19_x"
  bottom: "pred_cube_19_y"
  bottom: "pred_cube_20_x"
  bottom: "pred_cube_20_y"
  top: "pred_joint_2d"
}



layer {
  name: "gen_pred_depth"
  type: "Concat"
  bottom: "pred_cube_0_z"  
  bottom: "pred_cube_1_z"  
  bottom: "pred_cube_2_z"  
  bottom: "pred_cube_3_z"  
  bottom: "pred_cube_4_z"  
  bottom: "pred_cube_5_z"  
  bottom: "pred_cube_6_z"  
  bottom: "pred_cube_7_z"  
  bottom: "pred_cube_8_z"  
  bottom: "pred_cube_9_z"  
  bottom: "pred_cube_10_z"  
  bottom: "pred_cube_11_z"  
  bottom: "pred_cube_12_z"  
  bottom: "pred_cube_13_z"  
  bottom: "pred_cube_14_z"  
  bottom: "pred_cube_15_z" 
  bottom: "pred_cube_16_z"
  bottom: "pred_cube_17_z"
  bottom: "pred_cube_18_z"
  bottom: "pred_cube_19_z"
  bottom: "pred_cube_20_z"
  top: "pred_depth"
}












#-----Loss of projection in the local window  range [0, 1]
layer {
  name: "joint2dloss"
  type: "EuclideanLoss"
  bottom: "pred_joint_2d"
  bottom: "gt_joint_2d"
  
  top: "joint2dloss"
  loss_weight: 0.0
}








#-----Loss of depth range [-1, 1]  root is always 0 both pred and gt
layer {
  name: "depthloss"
  type: "EuclideanLoss"
  bottom: "pred_depth"
  bottom: "gt_depth"
  
  top: "depthloss"
  loss_weight: 0.0
}





#------Visualize predicted joint on the map
layer {
  name: "vis_pred_joint"
  type: "DeepHandModelOutputJointOnSkeletonMap"
  bottom: "image"  
  bottom: "image"
  
  bottom: "image_index"
  bottom: "pred_joint_2d"
  bottom: "pred_joint_2d"
  
  output_joint_on_skeleton_param {
	use_raw_rgb_image: true
	read_from_disk: false
	
	show_gt: false
	save_path: "E:\\tmp\\exp\\HandChallenge3DIntegral\\train\\"
	save_size: 224
	
	skeleton_size: 224
	load_skeleton: false
  }
  include {
    phase: TRAIN
  }
}



#------Visualize predicted joint on the map
layer {
  name: "vis_pred_joint"
  type: "DeepHandModelOutputJointOnSkeletonMap"
  bottom: "image"  
  bottom: "image"
  
  bottom: "image_index"
  bottom: "pred_joint_2d"
  bottom: "pred_joint_2d"
  
  output_joint_on_skeleton_param {
	use_raw_rgb_image: true
	read_from_disk: false
	
	show_gt: false
	save_path: "E:\\tmp\\exp\\HandChallenge3DIntegral\\test\\"
	save_size: 224
	
	skeleton_size: 224
	load_skeleton: false
  }
  include {
    phase: TEST
  }
}




#slice pred 2d
layer {
  name: "slice_pred_joint_2d"
  type: "Slice"
  bottom: "pred_joint_2d"
  slice_param {
     axis: 1
	 slice_point: 2
	 slice_point: 4
	 slice_point: 6
	 slice_point: 8
	 slice_point: 10
	 slice_point: 12
	 slice_point: 14
	 slice_point: 16
	 slice_point: 18
	 slice_point: 20
	 slice_point: 22
	 slice_point: 24
	 slice_point: 26
	 slice_point: 28
	 slice_point: 30
	 slice_point: 32
	 slice_point: 34
	 slice_point: 36
	 slice_point: 38
	 slice_point: 40	 
  }
  top: "pred_joint_2d_0"  
  top: "pred_joint_2d_1"  
  top: "pred_joint_2d_2"  
  top: "pred_joint_2d_3"  
  top: "pred_joint_2d_4"  
  top: "pred_joint_2d_5" 
  top: "pred_joint_2d_6"  
  top: "pred_joint_2d_7"  
  top: "pred_joint_2d_8"  
  top: "pred_joint_2d_9"  
  top: "pred_joint_2d_10" 
  top: "pred_joint_2d_11"  
  top: "pred_joint_2d_12"  
  top: "pred_joint_2d_13"  
  top: "pred_joint_2d_14"  
  top: "pred_joint_2d_15"  
  top: "pred_joint_2d_16"  
  top: "pred_joint_2d_17"  
  top: "pred_joint_2d_18"  
  top: "pred_joint_2d_19"  
  top: "pred_joint_2d_20"
}  
  


  
  

#slice pred depth
layer {
  name: "slice_pred_depth"
  type: "Slice"
  bottom: "pred_depth"
  slice_param {
     axis: 1
	 slice_point: 1
	 slice_point: 2
	 slice_point: 3
	 slice_point: 4
	 slice_point: 5
	 slice_point: 6
	 slice_point: 7
	 slice_point: 8
	 slice_point: 9
	 slice_point: 10
	 slice_point: 11
	 slice_point: 12
	 slice_point: 13
	 slice_point: 14
	 slice_point: 15
	 slice_point: 16
	 slice_point: 17
	 slice_point: 18
	 slice_point: 19
	 slice_point: 20	 
  }
  top: "pred_depth_0"  
  top: "pred_depth_1"  
  top: "pred_depth_2"  
  top: "pred_depth_3"  
  top: "pred_depth_4"  
  top: "pred_depth_5" 
  top: "pred_depth_6"  
  top: "pred_depth_7"  
  top: "pred_depth_8"  
  top: "pred_depth_9"  
  top: "pred_depth_10" 
  top: "pred_depth_11"  
  top: "pred_depth_12"  
  top: "pred_depth_13"  
  top: "pred_depth_14"  
  top: "pred_depth_15"  
  top: "pred_depth_16"  
  top: "pred_depth_17"  
  top: "pred_depth_18"  
  top: "pred_depth_19"  
  top: "pred_depth_20"
}  

layer {
  name: "pred_joint_3d"
  top: "pred_joint_3d"
  type: "Concat"  
  bottom: "pred_joint_2d_0"
  bottom: "pred_depth_0"
  bottom: "pred_joint_2d_1"
  bottom: "pred_depth_1"
  bottom: "pred_joint_2d_2"
  bottom: "pred_depth_2"
  bottom: "pred_joint_2d_3"
  bottom: "pred_depth_3"
  bottom: "pred_joint_2d_4"
  bottom: "pred_depth_4"
  bottom: "pred_joint_2d_5"
  bottom: "pred_depth_5"
  bottom: "pred_joint_2d_6"
  bottom: "pred_depth_6"
  bottom: "pred_joint_2d_7"
  bottom: "pred_depth_7"
  bottom: "pred_joint_2d_8"
  bottom: "pred_depth_8"
  bottom: "pred_joint_2d_9"
  bottom: "pred_depth_9"
  bottom: "pred_joint_2d_10"
  bottom: "pred_depth_10"
  bottom: "pred_joint_2d_11"
  bottom: "pred_depth_11"
  bottom: "pred_joint_2d_12"
  bottom: "pred_depth_12"
  bottom: "pred_joint_2d_13"
  bottom: "pred_depth_13"
  bottom: "pred_joint_2d_14"
  bottom: "pred_depth_14"
  bottom: "pred_joint_2d_15"
  bottom: "pred_depth_15"
  bottom: "pred_joint_2d_16"
  bottom: "pred_depth_16"
  bottom: "pred_joint_2d_17"
  bottom: "pred_depth_17"
  bottom: "pred_joint_2d_18"
  bottom: "pred_depth_18"
  bottom: "pred_joint_2d_19"
  bottom: "pred_depth_19"
  bottom: "pred_joint_2d_20"
  bottom: "pred_depth_20"
}


#------Get the origin gt 3d
layer {
  name: "pred_joint_3d_raw"
  type: "DeepHandModelCubiodIntoGlobalV2"
  bottom: "pred_joint_3d"
  bottom: "min_x"
  bottom: "max_x"
  bottom: "min_y"
  bottom: "max_y"
  bottom: "min_z"
  bottom: "max_z"
  top: "pred_joint_3d_raw"
  
}
  
  
layer {
  bottom: "pred_joint_3d_raw"
  bottom: "gt_joint_3d_raw"
  top: "joint_3d_raw_err"
  name: "joint_3d_raw_err(mm)"
  type: "Joint3DSquareRootLoss"
  loss_weight: 0.0
}  